Q1/td3_critic_ep1000.pth (torch, 984978 bytes, 10 tensors)

l1.weight f4 [400, 4]
00000000: a10e 55be 445b 7d3c b90d ec3a 732e 26bd
00000010: efe8 0d3c af55 563c 8dcd 1a3b d640 1fbc
00000020: b056 82be cb19 c03f a2c3 863e 22af 923e
00000030: d366 8a3c 8af5 483d 31a6 d63a d61e 21bc
00000040: 8077 8abe 5efd 28bf 9ee6 1dbe 313b 43bd
00000050: 5e02 293f 235f 913e 077a dcbe abc4 a1bc
00000060: c2f6 f03c b3a6 a0be 935e 44bb 28d6 96bc
00000070: f3e7 e03e 4cea 5ebf 8865 fcbe 3d03 383c
00000080: f45b fd3e e6a6 22bf 63cf 933e 4159 42be
00000090: 8424 893d 8540 00be 9318 d0bb cf96 d93b
000000a0: 63ea 383c 3b5d cabd 3267 073d 5064 90bd
000000b0: 83d3 efbe 6c38 a23d 8220 f1be fc9c 73be
000000c0: d75c 0a3f 9fe1 72bd a767 bfbe 78a6 14bf
000000d0: 4880 a5bc 9662 f73e df9d 0ebc 7b27 af3e
000000e0: ade6 8cbe 8048 d93f 95d7 6e3e ee06 1d3d
000000f0: b92d 49bd fc17 4f3e 663a d63b de6a ce3c
00000100: 33f1 9cbe 3bef 243e acbe 9fbe e5de ec3e
00000110: e526 99be aecc 2cbf 6a70 a1be e772 8ebd
00000120: 194b b4bc bc7d 09bd ddec 76ba 9d3a 4fbc
00000130: 94fe f3be 51bc f5be b781 0fbd b155 fcbd
00000140: b377 68be ed63 9a3d c271 85bb 4045 d73b
00000150: 8873 3e3e d9a3 24be b9dc a53a 1d0f 08bd
00000160: 6909 473e 492e fa3f ec38 813e 31d1 35bc
00000170: 9fa8 b13c c5c1 c23c cb58 423a 0c9b 043b
00000180: bf15 5b3c e8b7 163f 8f59 b03e ac1f 9ebe
00000190: d764 e4be 1c06 003f a07e dd3d 51c6 3a3e
000001a0: 39b7 853f e7ac 0d3f e86d 043f 9332 9c3d
000001b0: 8aec d63f aa4a f13f 2bb2 9b3e 3947 4f3d
000001c0: dbd0 8a3e 2777 013f b802 a13c 53b3 0e3e
000001d0: 69b9 cbbc 730d 133f de51 5ebd 2d55 0cbf
000001e0: 42c1 f73e 6442 40be b237 b43e cc6d 9e3e
000001f0: f4da c03f 1133 b53f a309 c13e 2fc6 993d
00000200: ee6a e5be 36e0 0f3f 7c19 b23e ca21 fd3d
00000210: 6c0b 5dbf 2ac7 a0bc 2499 a5bc d012 a33d
00000220: 614a 9a3e 7ca3 f3bf 979d e6be ef66 92bd
00000230: 8be9 0fbf 6eff a33e 5c09 ec3d 9ab2 06bf
00000240: 1fc0 02bf 1271 95be 4c5e 3dbe 33f2 b3bc
00000250: e9c9 11be 0905 3c3e c4af ae3e ba3e 25be
00000260: 96f7 8e3d c662 febf 7be2 d4be 9cca 66bd
00000270: 0f72 913b 1c0e 2ebe 68c1 09ba db37 ccbb
00000280: 7c9e c33f f2f6 69bf 9ef6 24bf a281 c3bd
00000290: 6df7 81bc a385 1240 2999 df3d 3283 f63a
000002a0: ae69 9fbe 25cb 17be beb1 1dbe c88e eabc
000002b0: d3a5 ccbe 3a97 873f 58cf d13e 742c 4a3d
000002c0: 71e8 2e3f c2d0 00c0 d144 01bf ae4f 93bd
000002d0: 2397 67be 312e 18c0 1169 0abf a0a9 bbbd
000002e0: a6be f33d ed44 e7be 5694 ac3e 5715 f8bd
000002f0: a09f 22bf 4f58 87be bbd1 debd 33bb a7bd
00000300: d8c2 3ebf abf5 04bf d28b 78be edef 7fbe
00000310: 319d 5c3c eaba cb3d aa10 2c3b e22b 563b
00000320: 4695 0cbe da98 38bf b5c6 9bbe ed78 1abe
00000330: 1bd1 333f 8d85 6bbf 54d5 3a3e 4c28 363d
00000340: 4dd9 01bf f5f8 f83e cbcc 493b b234 303e
00000350: a07e 063f 4d98 953f c32c 16be 800e 4a3d
00000360: 5222 193d 67b6 453d 8f6f 9abb 05ca ad39
00000370: bfa0 223f 5a3b 50be 9007 de3c 42c7 88be
00000380: 5097 0540 708d 1140 1d04 1d3e 4a8e 583c
00000390: 15aa 173f bc0f b63f b621 0d3e 173d 413e
000003a0: e4d6 043e 708d 53bf 84da 493e b2a0 093d
000003b0: 5e2b bd3d 5c09 07c0 74c0 85be 9f04 9fbc
000003c0: 1f16 353f e111 4dbf d98a ff3e b560 5d3d
000003d0: 964a bc3f 98e3 c83f b9d2 173f b18e a83d
000003e0: ea9b 47bf 730d cfbd 3f1a 153e e62d 343e
000003f0: 588d 8f3e 4a55 f63f 2a6d d1bc 7f9e 113e
-0.20806362 0.015463654 0.0018009461 -0.04057164 0.008661493 0.013081952 0.0023621053 -0.009720048
-0.25456762 1.5007871 0.2632113 0.2864924 0.016894734 0.04906229 0.0016376433 -0.009834012
-0.27044296 -0.6601161 -0.15420005 -0.04766387 0.6601924 0.28392896 -0.4306185 -0.019747099
0.029414538 -0.3137718 -0.0029963597 -0.018412665 0.43926963 -0.8707626 -0.49296212 0.011231241
0.49484217 -0.63535917 0.2886916 -0.1897936 0.06696418 -0.12524612 -0.0063505857 0.0066402922
0.011286351 -0.098810636 0.0330574 -0.07050383 -0.46841058 0.07920918 -0.47095114 -0.23790354
0.5404791 -0.0592972 -0.37383768 -0.5806651 -0.02020277 0.48317403 -0.008704632 0.3420981
-0.27519742 1.697525 0.23324426 0.038336687 -0.04911587 0.20223993 0.0065377234 0.025197443
-0.3065277 0.16106884 -0.3120016 0.46263805 -0.29912487 -0.67499816 -0.31531078 -0.0695551
-0.022008466 -0.033567175 -0.00094194507 -0.012648252 -0.47655165 -0.47995237 -0.035035815 -0.12321032
-0.22701912 0.075385906 -0.004072399 0.0065695345 0.18598759 -0.16078128 0.0012654281 -0.03321754
0.19437183 1.9545375 0.2523874 -0.011097238 0.02168685 0.023774037 0.0007413744 0.0020234017
0.013371884 0.5887437 0.34443328 -0.3088354 -0.44608185 0.5000932 0.108151674 0.18239714
1.044654 0.55341953 0.51730204 0.07626834 1.6790936 1.8850911 0.3040937 0.050605033
0.2711247 0.5057244 0.019654617 0.13935594 -0.024868684 0.57442397 -0.054277293 -0.5481747
0.48389632 -0.18775326 0.35198742 0.30943143 1.5066819 1.4156209 0.37702665 0.07508504
-0.44808143 0.56201494 0.34785068 0.123599604 -0.86345553 -0.019626219 -0.020214625 0.079625726
0.30134872 -1.9034266 -0.45042107 -0.07148539 -0.56215733 0.32030815 0.11525223 -0.52616274
-0.51074404 -0.29187828 -0.18493003 -0.021966076 -0.14237179 0.18361296 0.34118474 -0.1613721
0.06980817 -1.9873893 -0.4157904 -0.056345567 0.0044386457 -0.1699757 -0.0005254955 -0.0062322444
1.528274 -0.91392434 -0.6443881 -0.0954621 -0.015865052 2.2894065 0.10917885 0.001880741
-0.31135315 -0.14823587 -0.15399835 -0.028632537 -0.39970264 1.0593026 0.40978503 0.0493588
0.6832343 -2.0127416 -0.5049563 -0.07192932 -0.22616248 -2.3778193 -0.5406657 -0.09163213
0.11901598 -0.45169774 0.3370692 -0.12113445 -0.6352482 -0.26434562 -0.10879847 -0.08190002
-0.7451606 -0.5193736 -0.24272087 -0.24993868 0.013465212 0.099477604 0.002625505 0.0032679965
-0.13728818 -0.7210823 -0.3042504 -0.15085192 0.70240945 -0.9200066 0.1824544 0.044472024
-0.507222 0.4862744 0.0030792232 0.17207602 0.52536964 1.1687104 -0.14665513 0.049330235
0.037386246 0.048269656 -0.004713006 0.00033147648 0.6352653 -0.20335141 0.027103215 -0.26714522
2.0873604 2.2742577 0.153336 0.013217518 0.592439 1.4223552 0.13782391 0.1887096
0.129726 -0.8263769 0.19712263 0.033600517 0.09236787 -2.1099463 -0.26123393 -0.019411383
0.7073688 -0.80105406 0.4991062 0.054047305 1.4710262 1.5694456 0.5930591 0.08230341
-0.7797228 -0.10109987 0.14560793 0.17595634 0.28037524 1.9244778 -0.025564749 0.14220618

l1.bias f4 [400]
00000000: f65d 9dbe 3a70 64bd 09f3 4bbe 3403 a1bd
00000010: fb0a bc3d 5bdf 0bbf 95ce c0be 65a0 51be
00000020: 54b7 25bf 7a5f 43be fa8e fdbe 660a 1dbf
00000030: 2d28 9abf d7b3 c8bd daa2 993d f5ce 98be
00000040: 31f0 0bbf 0d5e b83e 0145 9bbd db7d d63e
00000050: 99aa 93be 1942 a2be 2f59 2fbe 9a96 24bd
00000060: 8602 8dbf 1a76 8bbd 604c c8bf f9a1 62bf
00000070: 2b33 5cbd 1a80 f0be a2eb 7fbf 9a96 77bf
00000080: ab69 24bf 5e49 253d e4ff 53bf 3c09 c0be
00000090: bb95 0a3f a286 c4be 5a94 2abf 051c 41be
000000a0: c878 e0bf f29c 96be 1945 1a3f 05e2 81bf
000000b0: d8fc 013d 6acc 04bf f749 88bf bc1d e43e
000000c0: 775e 81bf 42d3 fdbd 231e 81be 3dc2 8abf
000000d0: 923c 31bf 6d62 b7be 09d4 babd 0e92 f3be
000000e0: 71b3 3cbf 86a5 eabe 7b8b aa3d 879c 87be
000000f0: bdac 73bf 13cb 5cbf 1c36 4fbf c8cc af3e
00000100: 3c5f a1be 5928 a2be cc60 e9be 92bc 8abe
00000110: 5f25 5ebe dd3b bcbe 94f9 7a3e c91d dcbe
00000120: 855f 67be 8944 aabe f1c6 19be a31f 69be
00000130: ef09 26bf fca1 1c3e 34f4 4cbf 3764 e7be
00000140: 814b d23d 3b77 61bf b3a1 4fbe 0671 9cbe
00000150: df85 2abe 49ab 02bd 867f 0fbf b965 043f
00000160: 21ad 11bf 6979 80be 26ce 823e 149d b7be
00000170: db32 3bbf 3153 163f 75b5 f5be 3201 4dbe
00000180: 745f 9ebf f5fc 533f 6957 193f 0201 c13b
00000190: ff3b 183e 3b20 8bbf 1209 62bf ac59 61bf
000001a0: f554 0fbf 26df 88bf 18ca 403e dd56 ffbe
000001b0: 9358 6a3e 23c2 32bf 4aaa 80bf 053c 23bf
000001c0: ba6d 78bf bc4d c53e 55a0 ef3c 13d2 df3d
000001d0: f79c 4bbf 34eb 49be 32f3 5ebf ff12 97bf
000001e0: a566 9ebe b577 babe 4b8a 2cbe b7ef a4bd
000001f0: 3506 3abf ced1 a0bd 6ec0 ae3c a595 a63e
00000200: c9d0 babd 9ebb 23be b4e2 213d 1aa6 68bf
00000210: 440e 033f ebc5 18bf 5ca9 57bf b25d d93e
00000220: d70f f9bd 0ab6 98bb ca7e 67be 1cf6 a8be
00000230: d4a5 c5be 3aed 4ebe e4dd 723c 3d5e 97be
00000240: b157 0ebe 116f 99bf d4de 13be c6c8 38bf
00000250: ac9a 973e e80e a7bf acdf bdbe c16c 883d
00000260: 2326 dc3d 9480 97bf b430 c33e ce68 07be
00000270: 27f2 dabd c7c7 a5bd 47af 45be 2929 45bb
00000280: f904 9abd 6d9b af3e 40b5 953e 8d85 e0be
00000290: d976 7dbd 3230 b8bd 7fa2 98be c18f fabe
000002a0: 1690 b6be d4d2 813e fbe2 e2be 4bf3 0abe
000002b0: 892d d63e 1b55 5abf de6e cabf 918e 5bbe
000002c0: 6cb7 9ebf 1ccb 9cbf c8f4 d5be 22ab 9ebf
000002d0: 78d5 1ebf 084a 84bd 03ad 35be 0271 d63e
000002e0: 446e 7dbe 8347 81bf fe1c edbd 907f 45bf
000002f0: 52b7 d5be 4ce6 ff3c 67d0 87be c126 6bbf
00000300: 7802 1b3e a6e0 98bf d356 81bf 943b 8bbd
00000310: 1fbc bbbe 100b dbbe 288c 77bf e0dd a0bf
00000320: 7042 11bc 6102 94bf 4c42 443f 6c5b 05bf
00000330: 4c67 74bf 2075 103f 984f 75bf f184 113f
00000340: f3a3 c23e 0cf2 34be 4f2a 78bd 1e49 97be
00000350: c713 7cbd 4730 22bf 194f a9bd 3761 bd3e
00000360: 5daa bcbd 79cc 7dbf 9d30 9ebe f810 60bf
00000370: 051a dabe c737 7abf 7d6c 833e 08f2 01be
00000380: 304e d83d 3d0f e6be fc37 86bf a7fe 97bf
00000390: 5205 0abf a02a 16bf 62a4 42bf bd76 7abf
000003a0: abf5 f4be c63f 8dbf bb96 54be dd00 67bf
000003b0: 5d3d 16be e260 47be 46e6 9ebf 7c89 a2be
000003c0: 1a73 873e 90b7 87bd d67b 17bf 7ba6 95bf
000003d0: 94c3 523c aa9b 11be 52f3 6bbf d0c5 31bf
000003e0: 5a4f 6e3e 5fba 16be 4998 4bbf f318 0abf
000003f0: 6052 39bf 1115 a33e b16d 1c3e 299c a4bf
-0.3073575 -0.05577109 -0.1991693 -0.07861939 0.09181782 -0.5463769 -0.3765761 -0.20471342
-0.6473286 -0.1907939 -0.49523145 -0.6134399 -1.2043511 -0.09799927 0.075017646 -0.29845396
-0.5466338 0.36009255 -0.07581521 0.41892895 -0.28841093 -0.31691054 -0.17123865 -0.040182687
-1.1016395 -0.068096355 -1.5648308 -0.885284 -0.053759735 -0.46972734 -0.9996892 -0.96714175
-0.64223737 0.04035317 -0.82812333 -0.37507045 0.5413472 -0.38383967 -0.66632617 -0.18858345
-1.753686 -0.29416615 0.60261685 -1.0147101 0.03173527 -0.5187441 -1.0647572 0.44553936
-1.0106953 -0.1239381 -0.25218305 -1.0840527 -0.6923305 -0.3581728 -0.09122474 -0.47572368
-0.73711306 -0.4582941 0.08327385 -0.26486608 -0.9518545 -0.86247367 -0.8094194 0.34335923
-0.3151797 -0.31671408 -0.45581663 -0.27096993 -0.21693943 -0.36764422 0.24509269 -0.42991474
-0.22595032 -0.33255413 -0.15017296 -0.22765975 -0.6485891 0.15296167 -0.80060124 -0.45193645
0.102683075 -0.88072556 -0.20276527 -0.3055498 -0.1665263 -0.03190163 -0.5605396 0.51717716
-0.569048 -0.2509263 0.25547904 -0.3586203 -0.73124474 0.5872069 -0.47990003 -0.20019987
-1.237288 0.82807857 0.59899 0.0058900127 0.14866637 -1.0869211 -0.8829509 -0.88027453
-0.5598901 -1.06931 0.18827093 -0.4987096 0.22885351 -0.6982748 -1.0051968 -0.6376346
-0.9704243 0.3853587 0.029251257 0.1092874 -0.79536384 -0.19718629 -0.87089837 -1.1802672
-0.30937687 -0.36419454 -0.1684963 -0.080535345 -0.7266572 -0.07852517 0.021331992 0.32536045
-0.09121854 -0.15989539 0.03952284 -0.9087845 0.5119364 -0.59677 -0.84242797 0.42454296
-0.12161224 -0.0046603726 -0.2260696 -0.33000267 -0.3860308 -0.20207682 0.014823411 -0.29564086
-0.13900639 -1.198702 -0.14440471 -0.72181356 0.29610193 -1.3051424 -0.3708471 0.06661368
0.107494615 -1.1836114 0.38123095 -0.13223574 -0.10690718 -0.08094745 -0.19305144 -0.0030084348
-0.0752048 0.34298268 0.29239845 -0.4385189 -0.06188092 -0.089935675 -0.29811475 -0.489378
-0.35656804 0.25356162 -0.44313797 -0.13569371 0.41831616 -0.8528611 -1.5815084 -0.21441104
-1.2399726 -1.2249484 -0.41788316 -1.2395976 -0.6204448 -0.06459433 -0.1774178 0.41883093
-0.24749094 -1.0099949 -0.115777954 -0.7714777 -0.41741425 0.031237744 -0.26526186 -0.9185601
0.1513766 -1.1943557 -1.0104622 -0.06798473 -0.36666963 -0.42781878 -0.96698236 -1.2567711
-0.008865938 -1.1563226 0.7666366 -0.52092624 -0.9547012 0.5642872 -0.95824575 0.5684348
0.38015708 -0.17670459 -0.060587224 -0.2954797 -0.0615423 -0.63354915 -0.0826704 0.36988232
-0.09212182 -0.99140126 -0.30896464 -0.8752589 -0.42597976 -0.9774136 0.25668707 -0.12689984
0.10561788 -0.449335 -1.0485835 -1.1874589 -0.5391437 -0.5865879 -0.7603208 -0.9783743
-0.4784368 -1.1035087 -0.20760624 -0.9023569 -0.14671846 -0.19470552 -1.2414024 -0.31745517
0.26455003 -0.06626809 -0.59173334 -1.1691431 0.012864012 -0.14219537 -0.9216815 -0.6944246
0.23272458 -0.14719532 -0.79529244 -0.5394432 -0.7239132 0.3185201 0.15276219 -1.2860156

l2.weight f4 [300, 400]
00000000: a1f2 86bd 91bc b1bd d073 6dc0 b049 55bb
00000010: a160 033b 57ed 9c3c 8250 fbbe d916 b43d
00000020: dae0 fdbd 4b97 ddbd 39a0 393e 1ffa 5c3e
00000030: a3c0 473f 65c1 e7bd 2245 a4c0 365b c1be
00000040: e650 fd3c 8d80 a8bd 417e cc3f e7b3 2ebf
00000050: 7579 fc3d 3b81 36be 8850 24c0 00d0 d4bc
00000060: 93c9 89bd 50c7 d9bf 1ab8 163e 2a02 a3bf
00000070: 4696 babd 139c 8c3e ce3e aebe 0e6b 87c0
00000080: 89d7 1fbe 73ff 1cc0 b31b 9c3e 9f9f 28c0
00000090: 772b 1bbe 1865 b5be 9f70 4fbe d8e3 e73d
000000a0: ae14 133f a375 7cbe a10c 37be 451f eabd
000000b0: df66 c23d f9eb b5be 4bab 683b e98b 87be
000000c0: 6ab4 873e 4cb8 393c 82ef 203e 2195 2bbf
000000d0: d120 e5be ea7c 8d3d ec96 dc3d 7b46 d8be
000000e0: ade6 f4be aef5 79be 207f 123e 5a77 e9be
000000f0: 8f8e d3be cf0b cbc0 1d61 0abe b737 9dbe
00000100: f0ce bbbc a09d 96c0 54ca b3bc 8b6d 26be
00000110: b837 43bd 5a6c 6c3f 58ac e0c0 9c6c 993b
00000120: c2b6 c3bd a5df e8be d897 cb3e edff 92bc
00000130: ec0d 23be 94b0 89c0 5130 363f f915 4d3d
00000140: 2736 7bbf 8fc6 f03e c60b 1fbf 1d14 553c
00000150: 4575 c9bd f25e 23bd 67a6 fbbf bf5c 7bbe
00000160: 303c 603e 6f87 b7bd 640b 81bd c7cb 153d
00000170: 8ca5 6fc0 478f 19be af86 183d 029b 8bbe
00000180: 3e63 b33d eb56 9fbe b70c 1d3e 7610 33be
00000190: 2f36 6a3e 9b73 6abd a9cc 96bd 27d3 913e
000001a0: 6233 2bbe 1949 323e 31b4 c0be cd8c 37bf
000001b0: d61e 163e 6e89 6abf 9980 68c0 59ab 0cbf
000001c0: 3c75 7dbb 6847 78bd de59 853d 004d 59bb
000001d0: e81a b93e c9f9 9abd 5efe 8fc0 d9b6 4abe
000001e0: c177 c9bf ebba 253e eb6f b4bd 9311 1f3e
000001f0: 109e 873e b5d3 0a3e a137 573c ae80 1b40
00000200: ee8f 4cbf f36e c8bb 3df8 10c1 3030 32c0
00000210: e68b d3bd b16d a7bd f68b 8c3e 9286 9a3b
00000220: ff75 b2be f745 c8bd 8847 8c3c f6a1 3cbe
00000230: a507 d0be 0e48 1ebf 0c5d 513d cd51 2d3e
00000240: b192 b7be 35f0 273d c35b 16c0 1286 78be
00000250: 9bd5 08be 7cfc f53d 85db d63d 081d 833d
00000260: cd4a 3fc0 8e7e a73e 9f8e 2d3e 1042 fbbb
00000270: c1ee f3bd cf57 5a3e bf57 5b3e 2de2 00be
00000280: e505 203d d14f afbd e831 933e 1d15 0d3d
00000290: 3fac cb3f be81 413e 34d9 22bd aab7 bebf
000002a0: 22d9 d7be dda6 083e 8e23 4a3e 2a5e 583e
000002b0: d302 ed3c d9a9 59c0 9cf7 103f 412e aabe
000002c0: a0f3 f33e 9c70 a5bf 2ed6 ea3c f3a6 af3e
000002d0: e26b ad3e 754f efbc ab94 d83d 7693 48bf
000002e0: e038 973d 4ef0 ed3d 7e6e d03d 63b6 0ebf
000002f0: a292 b3bd 996d b73e c2ff 61be 701a a33e
00000300: 90fb 21bf 9c44 c6bf f2c2 b43e e822 d3bf
00000310: 6ba8 4bbf 9bf0 4e3e 49b6 75be f8dd d53e
00000320: c304 e8bf 626f 7fc0 2cc7 bfc0 bd1e 86be
00000330: ea69 2fc0 ae99 70be be5a 8abf 5d9c 0abd
00000340: 7279 fdbd 2446 84bc ba37 143f 1481 04c0
00000350: 5c6e 15bf 5358 bdbc 63ec 993e a1cc adbe
00000360: 3a04 913d d956 a6bd 08fe f63d d863 12bf
00000370: ab97 48bf e9d2 aa3e b940 11c0 25af c8bc
00000380: 9b3a 74c0 f47f 1f3e 7a7b f63e fd28 d3bf
00000390: bf70 3ebf f571 37be 1799 b13e 52b9 90bd
000003a0: 13df d5be b59d 60c0 8046 cbbd ed90 6abd
000003b0: f636 ae3e 9106 bfbd 4436 833e a317 473e
000003c0: 8337 3dbe fd7b 0dba 24e7 11be 5468 733d
000003d0: 105a 4d3d 32d4 743d f4b6 5fbc 7cae 103d
000003e0: 7088 6dbd 9f20 763b ef98 4fbe 92ae ad3e
000003f0: ab92 e13d 233c e33c 50c1 f6bb 0097 293f
-0.065892465 -0.08678544 -3.7101936 -0.0032545142 0.002004661 0.019156141 -0.4908486 0.0879342
-0.12396403 -0.108198725 0.18127526 0.21579789 0.78028315 -0.11316184 -5.133439 -0.377649
0.030922364 -0.08227644 1.597603 -0.6824326 0.123278536 -0.17822735 -2.5674152 -0.025978088
-0.067279 -1.701395 0.14718667 -1.2735035 -0.09110694 0.27462825 -0.3403229 -4.231818
-0.15609564 -2.4530914 0.30489883 -2.6347425 -0.151533 -0.3542869 -0.20257805 0.113227546
0.5745343 -0.2465425 -0.17875911 -0.114317454 0.09492277 -0.35531595 0.003550249 -0.2647393
0.26504833 0.011335444 0.15716365 -0.6702443 -0.447516 0.06908591 0.107709736 -0.42241272
-0.47832242 -0.24410126 0.14306307 -0.4559887 -0.413197 -6.3451915 -0.13513608 -0.3070657
-0.022925824 -4.7067413 -0.021947064 -0.16252725 -0.04766056 0.9235283 -7.021038 0.0046821367
-0.09556343 -0.45483127 0.39764285 -0.0179443 -0.1592328 -4.302805 0.71167475 0.050069783
-0.98129505 0.47026488 -0.6212734 0.013005284 -0.098368205 -0.03988547 -1.9660157 -0.24547099
0.2189796 -0.08961379 -0.06301001 0.03657129 -3.7444792 -0.14996062 0.03723782 -0.272667
0.08759163 -0.31121 0.15336882 -0.17486748 0.22872232 -0.057239156 -0.073632546 0.2848141
-0.1671882 0.17410697 -0.37637475 -0.7169922 0.146602 -0.9161595 -3.632849 -0.54948956
-0.0038674613 -0.060614973 0.065112814 -0.0033157468 0.3615334 -0.07567174 -4.4998007 -0.19796313
-1.5739671 0.16184585 -0.08810409 0.15534048 0.2648778 0.13557322 0.013135822 2.429729
-0.7990712 -0.006116742 -9.060605 -2.7841911 -0.10329418 -0.08175219 0.27450532 0.004715749
-0.3485565 -0.0977897 0.017123953 -0.18421158 -0.40630832 -0.61828697 0.051114127 0.16925736
-0.35854104 0.041000564 -2.3493507 -0.24269894 -0.13362734 0.12011048 0.10491089 0.06402022
-2.9889405 0.3271374 0.16948937 -0.0076677874 -0.11910773 0.21322559 0.21420191 -0.12586279
0.03906812 -0.08560146 0.28749013 0.034443963 1.591194 0.18897149 -0.039757922 -1.48998
-0.42157847 0.13344903 0.19740126 0.2112967 0.02893201 -3.4009917 0.5662782 -0.33238414
0.4764681 -1.2924991 0.028666582 0.3430706 0.3387137 -0.029212693 0.10575231 -0.7835001
0.07383895 0.116181 0.10177325 -0.5574705 -0.08768202 0.35825804 -0.2207022 0.31856108
-0.6327448 -1.5489688 0.3530498 -1.6495028 -0.7955386 0.20208971 -0.23995318 0.4177091
-1.8126453 -3.9911733 -5.993063 -0.26195326 -2.7408395 -0.23496124 -1.0808942 -0.033840526
-0.123766795 -0.016146727 0.5789753 -2.0703783 -0.5837152 -0.023113405 0.3006316 -0.33945182
0.07080884 -0.081220336 0.12060171 -0.571836 -0.78356427 0.33364037 -2.2695754 -0.024497578
-3.816077 0.15576154 0.4814108 -1.6496884 -0.74390787 -0.17914565 0.3468711 -0.07066597
-0.41771755 -3.5096257 -0.09925556 -0.05726712 0.34026307 -0.09327424 0.2562734 0.1944261
-0.18478207 -0.0005397199 -0.1424833 0.059425667 0.05013472 0.059772678 -0.013654459 0.03532265
-0.057991445 0.0037556065 -0.20273183 0.3392225 0.11014303 0.027738636 -0.007530369 0.6624603

l2.bias f4 [300]
00000000: 3a19 8dbe 999d 5abe f911 63bd 70cf 41bd
00000010: c67d 4d3e d40f a3bb 8360 833d a028 1ebd
00000020: 0cd6 c83e e63a bb3e fa72 e03e f483 1bbb
00000030: 4698 563e fbea 7cbe 3093 a0bc 92f2 60bd
00000040: a9ef 80bc cd45 abbc 93db de3e f432 06bb
00000050: 8e51 dcb9 7f84 60bd facf b9be bfbd 6fbd
00000060: 3288 61be 741e 173d ba19 723c 9aed 183f
00000070: 1665 2e3e c9c5 0ebe d93b 24bd f7f0 0f3c
00000080: 816d 43bd 465a 5bbd b2bd 73bd c63d 363f
00000090: aae9 33be f377 4cbc 8d29 42bd fab5 23bd
000000a0: b31d 14bc 17c8 63bd 1c22 bd3e af6c 2fbc
000000b0: 3c87 59bc a066 68bc d50d 59bd a693 04be
000000c0: f7a2 44bd 5e3c 4a3e 94a1 b23e 3102 e4bd
000000d0: 5d54 b2bd a28b 5dbd 2b1e 643c bf3d 60bd
000000e0: a18e 20be fba8 24bd 8ca7 c3bd 5db1 f9bc
000000f0: 52c4 d5bc 0d31 c2bc 4090 b039 3796 3cbd
00000100: b864 40bd b2dd 2ebe 5705 5cbd a556 b9bd
00000110: b2b3 b3bc d896 85bd 174d 883c b7b1 ad3d
00000120: 05b1 273c 9334 96be 5b48 ef3c 72fa 0dbd
00000130: 859a a73e 5011 76bd 2b3a 92bd bbf4 8fbc
00000140: 5abd dbbc efb8 18bd 9159 003f fc43 64ba
00000150: 665d f93e 086c 85bc b9fd 3c3c 4aaf 373d
00000160: b943 6dbc 58d9 9dbe 2269 a1bb 11b9 7f3d
00000170: 2c02 bd3e 84ec f83b 1d16 7bbc d45d b8bc
00000180: 9a69 58bd 1bf0 10bd a410 07be c057 08be
00000190: 401c 913c c1b5 87bd 3a29 50bc 4b8f 5b3c
000001a0: 2cf5 6e3c af76 99bd 0908 21be 8222 c9bb
000001b0: 9e9a bb3b edae f23e 2699 e6bb 8a63 aaba
000001c0: 0ded 0dbd 6695 b63c 15c7 05be 029b 063d
000001d0: f27f db3c 7dba 4c3c 9ff3 c23c bdbe be3e
000001e0: a7fc 9e3c ecf6 f93b a3ce f63c b6e2 d73e
000001f0: efb9 673e 4535 14bd 14f1 5dbd d29f 95b8
00000200: 4f2c db3e 041a d93c e34f ef3c eb8d 43bd
00000210: 9d23 103d 5476 293d 8e68 013d 84e3 a9bd
00000220: b54f da3e d0a3 c4bc 6783 9ebd aba9 883d
00000230: 36b0 28bd 25bd 48be fd0c 9a3c ebf2 dfbb
00000240: 6511 5d3d b677 19be 628c 293f cd59 cd3c
00000250: c4da f63b a63e d03c 9ad1 bdba be53 90be
00000260: ed44 aabc 8154 043f fb91 e73e 077b bbbd
00000270: 5bee 7fbb c2aa 2bbd 7713 13bd bf67 2c3e
00000280: e2d9 173f d852 fbbd 23cf 2fbd b06d 983c
00000290: d8c7 63bd afbe 5dbc f996 e9bb de3d 8cbc
000002a0: 93c0 febc 5ac3 073f 7144 08bc b360 4ebd
000002b0: 7791 2cbe cc81 21bd 14a0 153f 4c26 52be
000002c0: a0e1 53bd b889 9abd a591 34bd c7be c5bc
000002d0: 7120 023f c542 adbd d04e a7be dd95 863b
000002e0: add8 41bc e2d0 a9bd b966 ac3c cc06 87bc
000002f0: 35ce bb3d f958 8f3c 5c63 e83c d641 a1bb
00000300: 0678 b53d 12ec 79bd a369 a2bd 1ef7 293d
00000310: d9bd 133d c2cc 7a3d 0449 cc3e f053 0fbd
00000320: 0c41 473c 787b a23c 299c d73b 8b34 0b3c
00000330: 1d97 bc3d 6676 c4bd e13c a7bd 7d03 223c
00000340: bd86 24ba d8a4 1dbd efbb 32bd 0038 823b
00000350: 20cc 353e 5176 3dbc 233b 90bc ecff 76bb
00000360: 172a f9bc ce62 7cbc b9b9 a43e 444f 2abd
00000370: bd57 3dbd 65a1 89bd 8d97 13bd f17c 303d
00000380: 9d0e 533a f4a4 5cbd 1cb4 0c3f 084e d53e
00000390: f7ad f93c c34a 6ebd 61d6 23bd 116e 853e
000003a0: ee66 47bd d35f 0fbd f88c 1abb 420d f6bc
000003b0: 76d7 34bd 412a 543b 1be8 a53d c749 d9bc
000003c0: c35d d2bc 97ae 69bd 0725 0f3d e09f 053f
000003d0: 5db2 e13e ea9c 9bbd 1ffb 983c b765 e53c
000003e0: 735f 8dbe 2691 f43e 45b9 d139 20b4 813e
000003f0: f4d7 923e 4e80 47bd 0108 5abd 4607 213f
-0.2755831 -0.21349181 -0.055437062 -0.04731697 0.2006751 -0.004976252 0.064148925 -0.03861296
0.39225805 0.36568373 0.4383772 -0.0023729773 0.20956525 -0.24699013 -0.019601434 -0.054918833
-0.015739279 -0.020907307 0.43526897 -0.0020477148 -0.00042022433 -0.054813858 -0.36291486 -0.058530565
-0.2202461 0.036894277 0.0147766415 0.5973755 0.17030749 -0.13942637 -0.040096138 0.008785478
-0.047711853 -0.05355289 -0.05950708 0.7118801 -0.17569605 -0.01247977 -0.047402907 -0.03996847
-0.009040284 -0.055610742 0.36940086 -0.0107070645 -0.013276871 -0.014184624 -0.052991707 -0.12946948
-0.048006978 0.19749591 0.348889 -0.111332305 -0.08707497 -0.054088242 0.013923208 -0.054746386
-0.15679409 -0.040200215 -0.095534414 -0.030480081 -0.02609459 -0.02370503 0.0003367681 -0.046041694
-0.046971053 -0.17076758 -0.05371603 -0.09049729 -0.021936271 -0.06522912 0.016638322 0.08481162
0.010235076 -0.29336986 0.029209306 -0.03466267 0.32735077 -0.060075104 -0.07140001 -0.017572751
-0.026823688 -0.03728574 0.5013667 -0.000870764 0.4870407 -0.016286865 0.011535102 0.044844903
-0.014481478 -0.30829883 -0.004925863 0.062432352 0.3691572 0.0075965542 -0.015325096 -0.022505678
-0.052835084 -0.035385232 -0.13189942 -0.13314724 0.017713666 -0.06626464 -0.012705142 0.013400863
0.014584821 -0.0749334 -0.15725721 -0.006138147 0.005725219 0.47399083 -0.0070372997 -0.0012999636
-0.034649897 0.022288036 -0.13064225 0.03286267 0.026794408 0.012495634 0.023797808 0.37254897
0.019407583 0.0076283123 0.030127829 0.42165154 0.22629522 -0.036183614 -0.05418499 -7.1346425e-05
0.42807242 0.026501663 0.029212898 -0.047742765 0.035190213 0.041372612 0.03159385 -0.08295348
0.42638937 -0.024003893 -0.07739907 0.066729866 -0.041183673 -0.19603403 0.018805021 -0.006834378
0.053971667 -0.14987072 0.6622983 0.025067234 0.007533403 0.025420498 -0.0014482022 -0.2818889
-0.02078482 0.5169144 0.45228562 -0.09154325 -0.0039051983 -0.041910894 -0.035907235 0.16836451
0.5931684 -0.122716606 -0.04292215 0.01860699 -0.055610508 -0.013534232 -0.007128593 -0.017119344
-0.031097686 0.5303246 -0.008317099 -0.05038519 -0.16852365 -0.039430425 0.58447385 -0.20522422
-0.051728845 -0.07545799 -0.04408421 -0.024138821 0.5083075 -0.08460001 -0.32677317 0.0041072206
-0.011831445 -0.08291794 0.021045076 -0.016482733 0.0917019 0.01749848 0.02836769 -0.0049211783
0.08860783 -0.06101615 -0.07930305 0.041495435 0.036069725 0.06123043 0.39899457 -0.03499216
0.0121615045 0.019834265 0.006579895 0.008496414 0.0920851 -0.09592895 -0.081659086 0.009888527
-0.0006276181 -0.038487285 -0.04363626 0.003973961 0.17753649 -0.011563853 -0.017606324 -0.0037689162
-0.030415578 -0.015404416 0.32172945 -0.0415795 -0.046226252 -0.06720237 -0.036033202 0.043087903
0.0008051189 -0.05386825 0.54962325 0.41661096 0.03047846 -0.058176767 -0.03999937 0.26060537
-0.048682146 -0.035003494 -0.002358256 -0.030035619 -0.044150792 0.0032373818 0.08100911 -0.026524438
-0.025679475 -0.057051267 0.03494742 0.52197075 0.44081393 -0.07598288 0.018674431 0.028002603
-0.27611884 0.4776699 0.00040001623 0.25332737 0.28680384 -0.048706345 -0.05323029 0.62901723

l3.weight f4 [1, 300]
00000000: af51 e2bf cc05 11c0 f907 3f3c 1a6a 6dbf
00000010: 4c62 48bf 0bef 353d 313b 95bc a353 103d
00000020: e6f4 3dbf 2c20 38bf bf69 84be c739 2439
00000030: 7e36 91bd 7bce 303c 2120 0cbd b3fe 943c
00000040: de23 933c 9c40 dabb 4ebb 7cbf a039 4a3c
00000050: 9f34 a13c 2b81 e53b e33f 92be 0ca8 85be
00000060: 29b3 c9bf 76f7 403d d59c 953c 5273 1fbf
00000070: ba49 83bd 8395 71c0 0e95 dfbc ebe1 413b
00000080: f94d be3c cb94 123c 29d5 d93c 448a 3bbe
00000090: faab 963c 21d7 7dba 650b 0cbb a304 acbb
000000a0: 0d83 fa3a fd28 443d c829 25bf 1301 66ba
000000b0: 5665 603c d28d c13c 365a cbbc 072c f6bc
000000c0: 7fd2 523c e4e0 c93c dcb3 49bf ef8a 3dc0
000000d0: ad87 dabc 27cc a13c 1844 e73c 67c4 7b3c
000000e0: c118 0cc0 4acc 163d aa3d 92bf c782 d03c
000000f0: 9a6a 213c e75f 8e3c 0080 003d 9125 ea3c
00000100: dd34 2f3d d56b 5cbf 3a74 25bb 46bf 26bd
00000110: bcd0 6d3c 3d74 6bbc dba1 db3c 4809 a73c
00000120: 0671 0b3d 4110 edbf 1c1f ae39 23f7 043c
00000130: 201e a2be 49c7 fcbc c076 173b e42e 023d
00000140: 0ec2 d8bc b7f9 033d 4903 33bf dad3 3f3d
00000150: c28d 89bf 72e3 9dbc 12e2 073d 0038 41bd
00000160: 88eb 4d3c 457a a6be cc96 823c c5a1 9bbe
00000170: cb14 2cbe def0 07bf 28f4 463b eecf f33c
00000180: 369a 843c 9909 ad3c 327f 7f3f 2f68 4e3c
00000190: 63ae 863b fd45 1b3d 6389 1b3d db45 413d
000001a0: b38d 7a3d b861 7dbc fdb7 04c0 a0b7 c6bc
000001b0: fb25 efbc 9866 fabe 39a1 0dbc f873 193c
000001c0: c1a2 2f3d a71f e83c a331 ddbb bc0c 483d
000001d0: d816 a8b6 cbd7 a93b f416 993c a9f1 51bf
000001e0: 3822 adba 6c44 d23c 9bcc df3c d1a5 64bf
000001f0: d5e0 b0bf d626 3f3d 9aa9 233c 2d0e c03c
00000200: 817c 32be da3c 333d aec6 38bf 69bd ac3c
00000210: c0e8 9f3c 55cd 443d 8307 ce3c a903 d4bc
00000220: 3473 b9be 5b5f 713c b1f8 dd3a 7d25 e4bb
00000230: 17c1 393d 2ca0 bbbf ca1a 343c d576 98bb
00000240: 7d84 ea39 406b e9bf 28a5 7fbe 1b0e 3d3d
00000250: 4c06 b53c b78e c73c 2092 283d b475 ffbf
00000260: 40ff e43c a16e 83bf 0460 c4be 62fc e6bc
00000270: 57f2 9b3b c47e 333a d178 88bb 55bd 873c
00000280: 1a93 debe f847 41c0 f9df 8c3a 5d26 403d
00000290: e4c5 4cbc 5362 063d f016 433d dad2 bebb
000002a0: ddc8 cf3c d409 aabe 39b5 253d 55f1 c5ba
000002b0: 7c76 cabb 46a2 2e3d 55ee eabe a9ca ecbf
000002c0: 464d 293f ad91 82bc 8be2 013d 7c74 503d
000002d0: 284c 01bf 9625 ea3b dcd0 c8bf 8323 03bb
000002e0: 102f 993b d443 8dba 2929 b4bb 8eef 013c
000002f0: 147a 28bc 4969 043d edd6 ac3c 8f68 b13c
00000300: 4778 acbf 1148 01bc dceb a93b 4b9a e63c
00000310: c30c 2e3b 8199 7abc 6ed0 22bf 4138 af39
00000320: bf3e d4be 89fd 493d 5049 8d3b cfb6 ec3c
00000330: 5b92 e4bf 849c babe 97ad 6fc0 e6bb f9bc
00000340: 5972 163d 662b 973a 8449 993b a98c 183d
00000350: 4df4 1cc0 9b5a 733c cd0c 8f3c 984c 88bb
00000360: 8624 2b3c 0003 2c3d 7e2a 8dbf 1c63 a13b
00000370: 3cae ef3c c874 213d 32d1 57bc 4843 c1bc
00000380: fed1 023d 8c9a 293d 5a51 99be 562d abbe
00000390: 4bc0 113c addd fa3c bc6d 5e3c 505d f1be
000003a0: d029 183c a0da 113c 4e76 423d 6f91 4f3c
000003b0: b62e 383b ecb5 a03c 9adf 16c0 238b 1ebc
000003c0: c412 ce3c 96c3 9e3b 2615 a6b9 c6b0 79bd
000003d0: a4a3 e2be dd9d 01bc f07e 06bb 1ef8 353c
000003e0: 4509 84bf 591a 59be a2bf ec3c 3c73 8fbf
000003f0: 8817 2dc0 ce7b 193d 6b1c e83c 2d70 4fbe
-1.7681178 -2.2659788 0.011659616 -0.92740023 -0.7827499 0.044417422 -0.018216701 0.035236012
-0.7420181 -0.7192409 -0.25861928 0.00015661783 -0.07090472 0.010791416 -0.034210328 0.018187856
0.017961439 -0.006660534 -0.98723304 0.01234284 0.019678412 0.0070039234 -0.28564367 -0.26104772
-1.57578 0.047110997 0.01826326 -0.6228534 -0.064105466 -3.7747505 -0.027292755 0.002958412
0.02323054 0.008946608 0.0265909 -0.18314463 0.018392552 -0.0009683241 -0.0021369096 -0.005249576
0.0019112543 0.047890652 -0.6451688 -0.0008773964 0.013696035 0.023627196 -0.02482329 -0.03005029
0.012867569 0.024643369 -0.7879007 -2.9616048 -0.026676023 0.019750668 0.028230712 0.01536665
-2.1890109 0.03681592 -1.1425068 0.025452984 0.009852076 0.017379714 0.03137207 0.028582366
0.042775024 -0.8610204 -0.0025246278 -0.040709756 0.014515098 -0.014370975 0.026810577 0.020390168
0.034043334 -1.8520585 0.00033211045 0.008115563 -0.3166361 -0.030856745 0.0023111552 0.031783
-0.02645972 0.03222057 -0.6992689 0.046832897 -1.0746386 -0.019273493 0.03317458 -0.047172546
0.012568362 -0.3251516 0.015941046 -0.30396858 -0.16804807 -0.5310191 0.003035793 0.029762235
0.016186815 0.02112274 0.9980346 0.0125980815 0.004110144 0.037908543 0.03797282 0.04718576
0.06117029 -0.0154651925 -2.0737298 -0.024257481 -0.029192915 -0.48906398 -0.0086443955 0.009366028
0.042879824 0.028335406 -0.006750302 0.04884027 -5.0094495e-06 0.005183195 0.018687703 -0.8200937
-0.001320905 0.025667392 0.027319243 -0.89315516 -1.3818613 0.046667896 0.009989167 0.02344426
-0.17430307 0.043759204 -0.7217816 0.021086412 0.019520164 0.048047382 0.025150066 -0.025880652
-0.36220706 0.014732207 0.0016935078 -0.0069624768 0.04535016 -1.4658256 0.010992715 -0.0046528378
0.0004473067 -1.8235855 -0.24965346 0.04615603 0.02209773 0.024360044 0.04115498 -1.9957795
0.027953744 -1.0268136 -0.38354504 -0.028196517 0.004759114 0.00068471977 -0.004164793 0.016569773
-0.43471605 -3.0200176 0.0010747901 0.046911586 -0.012498353 0.032808613 0.047629297 -0.0058234753
0.025364334 -0.33210623 0.04045603 -0.001510183 -0.006178675 0.042635225 -0.45884958 -1.8499347
0.66133535 -0.015938604 0.03171019 0.05089234 -0.5050683 0.007145594 -1.5688739 -0.002001018
0.0046747997 -0.0010777661 -0.0054980707 0.007930649 -0.010283012 0.03232697 0.021098578 0.021656303
-1.3474206 -0.007890717 0.0051855873 0.028149744 0.00265579 -0.015295387 -0.6359929 0.00033420514
-0.4145412 0.049314056 0.004311718 0.028895764 -1.7857164 -0.36447537 -3.74497 -0.030485105
0.036730144 0.001153332 0.004677953 0.03724352 -2.452411 0.014853145 0.017462159 -0.0041595213
0.01044572 0.04199505 -1.1028593 0.004925145 0.029257886 0.039418012 -0.013172435 -0.023591653
0.031938545 0.041407153 -0.2994488 -0.33433026 0.008895944 0.030623281 0.013575967 -0.47141504
0.009287313 0.008902222 0.047476105 0.012668951 0.0028104014 0.019617997 -2.3573976 -0.0096767275
0.025155433 0.004845093 -0.00031677744 -0.0609596 -0.44265473 -0.007911173 -0.0020522438 0.011106519
-1.0315329 -0.21201457 0.028899971 -1.1207042 -2.7045612 0.037471585 0.028333863 -0.20257635

l4.weight f4 [400, 4]
00000000: 3290 21bf ffce f73d b162 e43d bf11 ea3d
00000010: 5395 873f cb97 26bf 7299 d7be db4e 80bd
00000020: 76fd 9f3c 4a53 27be 05c3 3a3e 95b5 56be
00000030: 148d 09bf 8628 d8bf 0d3e cbbe 7c8b 8fbd
00000040: 63da 47bf 8b5c 963f 5a49 af3d 54fd 623d
00000050: fd7c 3c3f 9306 803f b09d 9c3e 1e86 af3d
00000060: 608c 093e b0d5 833e ce56 cdbc da89 433d
00000070: dbe0 01be de4d 84bf d588 38be f8ec fbbc
00000080: 51a7 fcbd 6633 e93e 6da3 463d bd41 553d
00000090: e5f2 de3d 1971 a73f bdb3 233e 96c8 183d
000000a0: e38d 4dbd 1cf8 663f bb95 7a3e 1e0e f63e
000000b0: 7f54 03bf 53fd 043f 625f 433e 54fe 0f3d
000000c0: c771 0d3e 461c 99bd ee4c 173d 168f 92be
000000d0: e5a9 503f 3f02 1cc0 51f5 1abf 1178 85bd
000000e0: 501c 1c3f 7616 e23f b244 e23e e8aa 493d
000000f0: 75af edbd 2165 3b3d 3972 2939 74a1 233b
00000100: 36d5 f93f 71c3 cb3f 05c7 073d 8add 49bb
00000110: 5b33 e83e 7062 12bf 37cd f3be 64da ed3e
00000120: a5f1 bcbe 8e3d ca3f 60d1 89be d99d b23c
00000130: b99c b03e 0d7c 1ac0 688e 0cbf de3a afbd
00000140: 0cb2 2f3e 8979 ad3e a8b8 573b 967d f93d
00000150: 1e4a 033f d2de 1240 fc02 8f3e 46fc 873d
00000160: bce8 913e cb75 fabe 5a44 56be 1eb2 12bf
00000170: d756 cd3e 1e36 d9bf 5ca7 89be 0fb0 c3bd
00000180: 9ec6 ec3e ee06 df3f 7efb bb3e 99ee 163d
00000190: 2762 29be 9ac3 21c0 f019 f6be 71f7 92bc
000001a0: c109 dc3f b074 0640 6a14 2e3e 0b31 dc3c
000001b0: ad9d bd3e d808 0e40 a43b 003f ef06 b23d
000001c0: 7abe b53e 53eb 4d3f 4da5 11bf 087a 68bd
000001d0: 3dd7 a73c 373d d6bf c6a2 89be c84e cdbb
000001e0: 0832 a0bd 0612 973e b746 a03e 88ad 933d
000001f0: b777 843f f53a a3bf 464d dc3e b9e7 1d3d
00000200: 4118 103f 8901 96be 6825 053f 0346 863d
00000210: 4c3e 873f 8645 49bf 56f1 7d3e 229d af3e
00000220: ff2e d7bd 5785 083f b874 803d b6b4 783d
00000230: 1b78 98be 9731 2ec0 c4b9 1fbf 0bd2 c1bd
00000240: b41d 64be 7103 173d f8f2 febb c0c1 f23c
00000250: 3005 17be 98d9 39bc 3bd6 6739 fcbc b9bc
00000260: 5495 e1be 1842 1bbe 2408 0fbe 1480 573e
00000270: 0b48 4cbf afc4 273e e535 a73e ae46 b23d
00000280: 101c 943f 4ea4 2b3e aca6 82be abf8 c7bc
00000290: 7539 e8be a9f2 033f 5cee 173e c2b3 c53d
000002a0: 84b3 293f 6930 d73e 66f2 5e3e eb31 a13e
000002b0: 8bb7 683f c7be 263f 2d9d df3c 18ba da3e
000002c0: 09b8 8cbe 631e 87bf 8f51 d7be 0a31 bdbe
000002d0: c03b 95bc 06d4 c7bc 342e a6b7 7a92 7ebb
000002e0: 4aec a1bc f301 b33e bc37 d6ba a8c8 da3b
000002f0: 713c b339 a85b 0bbe c160 e2bb fcaf dabb
00000300: 3e20 24bf ab6b 833f 5f2e 8bbb 9931 023f
00000310: bdc9 9c3f 665e 2bbf a7ca 0ebf 24d7 b7bd
00000320: c40f d6be c094 fa3d 5911 0cbe d575 d9bd
00000330: fa3e 783f 0cc0 82bf 5fb0 b1be be37 82bd
00000340: 9a7d a33f b09d bf3f b9c7 063f 4c24 a53d
00000350: f3e2 3dbd a7f6 71bf 210a 15bf d0be a2be
00000360: 3c5e 29be 568c cf3d b49f a5ba 19f0 dc3a
00000370: 4c8c 4e3f edfb 9d3f 14ba 71be 00c9 32bc
00000380: 7720 06bc 5cc7 d9bc b1c8 193f d039 953d
00000390: 67db 2fbf 577d d63e 0313 4dbc c7c0 b3bc
000003a0: 5f93 5c3f c07e 933f 88b6 b53e fbc4 993d
000003b0: 7e63 63bd 5550 f23d 3489 953a b794 f93b
000003c0: 0b1f 493f ea79 20c0 205b 1fbf 97b0 a4bd
000003d0: 788e 23be 0a57 d63d 36f9 153e 8001 20be
000003e0: c1bb 873f b105 f0bf 07cc fbbe a3b5 86bd
000003f0: 77d7 0cbf de81 403c deeb 8d3e 2f4f 413d
-0.6311065 0.12100028 0.111516364 0.11429166 1.0592445 -0.6507537 -0.42109257 -0.062650405
0.01953004 -0.16340366 0.18238457 -0.20967706 -0.53730893 -1.6887367 -0.39695778 -0.070090264
-0.78067607 1.1746992 0.085589126 0.055417374 0.73628217 1.0002006 0.30589056 0.08570503
0.13432455 0.25748968 -0.025065806 0.047738887 -0.12683432 -1.0336263 -0.18020947 -0.030752644
-0.123366006 0.45547026 0.0484957 0.052064646 0.10886172 1.308139 0.15986533 0.03730067
-0.05018414 0.90222335 0.2447118 0.48057646 -0.51300806 0.5194904 0.19079354 0.035154656
0.13812934 -0.07476096 0.0369386 -0.2862479 0.8150924 -2.437637 -0.60530573 -0.065170415
0.609807 1.7663105 0.44193035 0.049235255 -0.116057314 0.04575074 0.00016159647 0.002496806
1.9518192 1.5919019 0.033148784 -0.0030802214 0.4535168 -0.57181454 -0.47617504 0.4645568
-0.3690311 1.5800035 -0.26917553 0.021803783 0.3449457 -2.4138215 -0.54904795 -0.0855615
0.17157763 0.33881786 0.003291646 0.12182157 0.5128497 2.2948499 0.27931964 0.06639914
0.28497875 -0.48917994 -0.20924512 -0.57303035 0.40105316 -1.696964 -0.26885498 -0.09555065
0.46245283 1.742399 0.3671531 0.03684864 -0.16541348 -2.5275636 -0.48066664 -0.017940255
1.7190477 2.100872 0.16999975 0.026878854 0.3703436 2.2192898 0.50091004 0.08692729
0.35496885 0.804372 -0.56892854 -0.056757003 0.020488376 -1.6737431 -0.26882 -0.006265495
-0.07822043 0.29505938 0.3130395 0.07210833 1.0349034 -1.2752367 0.43027705 0.038551066
0.5628701 -0.29298046 0.520102 0.065563224 1.0565886 -0.7862171 0.24799094 0.3429957
-0.10507011 0.5332846 0.06272262 0.060719214 -0.29779133 -2.7217767 -0.6239283 -0.09463891
-0.22276956 0.036868516 -0.007780429 0.029633403 -0.14748073 -0.011343382 0.00022109684 -0.022673123
-0.4405924 -0.15161932 -0.13967949 0.21044952 -0.7979743 0.16383623 0.32658306 0.08704887
1.1571064 0.16761896 -0.25517786 -0.024410566 -0.45356336 0.51542145 0.1483702 0.09653427
0.66289544 0.42029122 0.21772155 0.31483397 0.90905064 0.65134853 0.027296627 0.42720103
-0.27484158 -1.0556148 -0.42054412 -0.36951476 -0.018216968 -0.024393093 -1.9810257e-05 -0.003884463
-0.019765992 0.34962425 -0.0016343514 0.006676752 0.00034186573 -0.13609183 -0.0069085066 -0.006673811
-0.641117 1.0267233 -0.004247471 0.5085693 1.2249066 -0.66940916 -0.5577797 -0.08976582
-0.41808903 0.12235403 -0.13678493 -0.10618178 0.96971095 -1.0214858 -0.34704873 -0.06358288
1.2772706 1.4969997 0.526485 0.08063564 -0.046359014 -0.94516987 -0.5821858 -0.31786203
-0.16539854 0.10134189 -0.0012636096 0.0016856223 0.80682826 1.2342507 -0.2360614 -0.01091218
-0.008186451 -0.02658432 0.60071856 0.072864175 -0.68694156 0.41892502 -0.01251674 -0.02194251
0.8616237 1.1523056 0.35490823 0.07508274 -0.055514805 0.11831728 0.0011408688 0.007616605
0.7856299 -2.507441 -0.6224842 -0.08041494 -0.15972316 0.1046582 0.14645848 -0.15625572
1.0604173 -1.8751737 -0.49179098 -0.06577613 -0.55016273 0.011749713 0.27719015 0.047194656

l4.bias f4 [400]
00000000: 1c0f 0a3f aad6 8bbf 32e5 19bf 02dd f63b
00000010: 3393 b3be a816 f8be eb21 19bf afe9 babe
00000020: 9780 ebbc 171d 33be 3716 54bf dd7a b63e
00000030: 556c f9bd 683d c4bf 606d 8dbf 8a6f 29be
00000040: ff76 66be fee6 42bf c60e cdbe 46c6 86bf
00000050: 6d22 febe 8092 f23d 5ee1 a8be 4244 96be
00000060: 441f 76bf c824 38bf e07d 56bf 8197 77bf
00000070: dd73 b3bf 036f 3e3e a086 3abf 5544 69bf
00000080: 9bef 51bf 6039 5dbf fea4 57bc 8d64 05bf
00000090: 9de6 b9be 57f3 47be 1076 babd 6280 6abf
000000a0: 1a7e 733e 4d69 c83e e658 76be b325 1f3e
000000b0: 04f2 36bf f138 34bd cd7a d9be 26d1 57be
000000c0: f7e3 ccbc 34b6 d4bf 283e 283c 09c5 35bf
000000d0: ca3a 2ebf 0f12 47be f83e 63be 160e abbe
000000e0: 65be a3bf b8c7 89bd 1914 08bf aa3e 24be
000000f0: 828c c0bf ef95 b93e 575f aabe 199a 8d3e
00000100: 1a58 18bd 4519 48be ce25 52bf d74d 89be
00000110: 6adc a5bf 114e 34be 6220 93bf 1cd7 1cbe
00000120: 808c 87bc 5e59 ddbd f64a d9be bcfd 91be
00000130: c887 71bf 6687 11bd 85ea b13e de4f 28bf
00000140: 0b14 6cbf 68c4 44bf 8908 87be aabc 753d
00000150: 866b ec3d 6990 ab3e 5512 69bf 86c8 abbf
00000160: bf3f 91bf c858 ccbe 4333 93be c781 7dbe
00000170: ddb2 2fbf d3a0 0ebf bc96 e5be ad26 0ebf
00000180: 3d15 95bd 2511 20bf 7632 67bf 12c9 0abe
00000190: 53ea 87bf 35fb 9b3d eacc c8be 1e15 c73d
000001a0: b7e5 0dbf 4c50 97be 04a1 51bf 5a5a 46bd
000001b0: c7e5 19bf c91e 793e e2fa d1be b284 443e
000001c0: 5dcf 61be 16f6 7cbe 7ba9 0cbf 8c76 563e
000001d0: ac96 02bf a60b fb3d 7e81 38bf 6c1d 77bf
000001e0: d631 fb3e e811 ef3e c744 843c 6bf2 4fbe
000001f0: b870 97bf 1313 253e c1d9 d9be d18b 80bf
00000200: 2b6e 27bf c3c8 97bf 18fa 8e3d 9e28 17bf
00000210: 98da bcbf f240 5bbf 88bd cfbd 3c9f 13bd
00000220: 131a b039 22d6 53bf 4fb2 2ebf da0a 393d
00000230: a1a4 0a3f 8b99 953d a87c 80be 2fad bbbf
00000240: 4457 5bbe dee7 7abe b692 4dbe ce9b 60bf
00000250: 00b6 973e 5cf0 4abe 1106 8fbf 9e35 54bf
00000260: f689 dabd d4ef 95bd 2d35 a03e 0f37 b2be
00000270: a4ef 56be d58d 33bf 706d 0bbe cf73 a9bf
00000280: 5bad cb3e f78f 8c3d 481b 2cbf cc12 2cbf
00000290: b0bb 7a3d babb 5bbf 61c9 f3be 9a3a cc3e
000002a0: 87cd d9bd 153e 62be 4ae3 62be e368 953e
000002b0: 2cb6 87bf cf84 ea3e 4c66 09bf 9086 61bf
000002c0: 9e14 da3a ab18 27bf 8801 acbf 76fb c3be
000002d0: 906f b43e 2b9b 79bf 8886 5abf 36aa 0ebf
000002e0: c29a 94bf 40c5 8cbf d2a9 7bbe 16a5 793e
000002f0: b306 8fbe 8ca1 18be 1fbc 35be e06c 5abf
00000300: c525 993e 27e7 273e 4af2 63be 344b a5be
00000310: 4672 2dbe a572 e43e 99a8 863d 6fc1 fdbf
00000320: fb4a c1be 75a8 b0bf 2a71 5bbd d2ba a2be
00000330: 1084 93be f232 c3be 4e7e 1cbf 2921 dc3d
00000340: 028a 093f 65fc f23d 6e79 acbe 8d4f e7be
00000350: ef92 f3be 7267 e83e f5f4 b6bf a965 0ebe
00000360: ee8c a0bf 03c8 c0be e31a 11be 7597 bbbf
00000370: fb16 78be f80a 37bd f100 43bf 46bf 00bf
00000380: 6bb8 83bf d041 3ebf 0dc4 903d 354a 46bf
00000390: 7a95 8ebf c5c7 acbd 8f4b b1be 0c6d 28bf
000003a0: c297 97be 3bad 713d 6b3c 31be 4b32 b0be
000003b0: 486f 62bf 605f 7ebf 9602 f13e 524b aabd
000003c0: 79f1 9e3e eedf e6be 2a56 9bbf 2d3f bebf
000003d0: c34e c5be a1d1 debd 004e 6bbe b99d 713d
000003e0: 2eb8 84bd 8382 01be 9e95 4fbe c248 ce3e
000003f0: 2ee1 603e e205 9cbd 76fd dabe 09c7 dcbe
0.53929305 -1.0924885 -0.6011535 0.0075336704 -0.35073242 -0.48454785 -0.5981738 -0.3650641
-0.02874784 -0.17491566 -0.828464 0.35640612 -0.12178866 -1.533124 -1.1049004 -0.16546455
-0.22506331 -0.76133716 -0.40050334 -1.0529258 -0.4963564 0.11844349 -0.32984442 -0.29348952
-0.9614146 -0.71931124 -0.8378582 -0.9671555 -1.4019734 0.18597035 -0.7286167 -0.9111989
-0.82006234 -0.8641567 -0.013161896 -0.52106553 -0.36308756 -0.1952642 -0.0910455 -0.91602147
0.23778573 0.39142838 -0.2405735 0.15541725 -0.71463037 -0.043999616 -0.42476502 -0.21075878
-0.025011046 -1.6618104 0.010268725 -0.71003777 -0.68058455 -0.19440483 -0.2219199 -0.33409184
-1.2792479 -0.067275465 -0.53155667 -0.1603953 -1.504288 0.36247203 -0.33275864 0.2765663
-0.037193395 -0.1954089 -0.82088935 -0.268172 -1.295789 -0.17607905 -1.1494257 -0.15316433
-0.016546488 -0.10808061 -0.42440003 -0.28513896 -0.9434781 -0.035529517 0.34749237 -0.6574687
-0.92218083 -0.7686219 -0.263737 0.059994377 0.11543946 0.33508614 -0.910436 -1.342057
-1.1347579 -0.39911485 -0.28750047 -0.24756537 -0.686323 -0.5571415 -0.44841564 -0.55527765
-0.072794415 -0.6252616 -0.9031137 -0.13553265 -1.0618385 0.07616273 -0.39218837 0.09720825
-0.5542864 -0.2955345 -0.81886315 -0.04842601 -0.6011624 0.2432815 -0.4101172 0.19191244
-0.22051759 -0.2470325 -0.54946107 0.2094366 -0.5101116 0.12258081 -0.7207259 -0.9652927
0.4906146 0.4669335 0.016146077 -0.20307319 -1.1831274 0.16120557 -0.42548946 -1.0042669
-0.6540248 -1.1858143 0.06981295 -0.5904635 -1.475421 -0.85645974 -0.10143572 -0.03604053
0.00033588763 -0.82748616 -0.6824083 0.045176364 0.54157454 0.073046766 -0.25095105 -1.4662226
-0.21420008 -0.24502513 -0.20075497 -0.8773774 0.29631042 -0.19818252 -1.1173726 -0.82894313
-0.10670845 -0.07321134 0.3129057 -0.3480763 -0.20989853 -0.70138294 -0.13615966 -1.3238467
0.39780697 0.068633966 -0.6722913 -0.6721618 0.06121415 -0.85833323 -0.47614577 0.3988846
-0.10634904 -0.22093995 -0.22157016 0.29181585 -1.060247 0.4580445 -0.5367172 -0.8809595
0.0016638224 -0.65272015 -1.3437967 -0.38277787 0.35241365 -0.9750239 -0.8536153 -0.5572847
-1.1609728 -1.0997696 -0.245765 0.24379382 -0.279348 -0.14905375 -0.17747544 -0.8532238
0.29911628 0.16396771 -0.22260395 -0.32283938 -0.16938123 0.44618717 0.06575126 -1.9824656
-0.37752518 -1.3801409 -0.05357472 -0.31783158 -0.28811693 -0.38124806 -0.61130226 0.10748512
0.5372621 0.11864547 -0.33686393 -0.4517788 -0.4757304 0.45391423 -1.4293505 -0.13905968
-1.2543008 -0.37652597 -0.14170413 -1.4655596 -0.24227516 -0.044688195 -0.7617331 -0.5029186
-1.0290655 -0.7431917 0.07068644 -0.7745698 -1.1139367 -0.084365405 -0.3462796 -0.6579139
-0.2960797 0.059003096 -0.17308204 -0.3441337 -0.8845105 -0.9936428 0.47072285 -0.083151475
0.31043604 -0.4509272 -1.213567 -1.486303 -0.38536653 -0.10879827 -0.22978973 0.058988307
-0.06480442 -0.12647443 -0.20271918 0.40289885 0.21960899 -0.076183096 -0.427715 -0.43120602

l5.weight f4 [300, 400]
00000000: a3bf a53e 04db 8d3d 43d4 763d b2b9 223e
00000010: f983 603e 8811 7dbd 473b 9d3c 3fcf cc3b
00000020: 10d6 043e 11de cf3d 83a0 86be b15b b93e
00000030: 2b40 223c a71b ca3d 2f63 ca3d 67ab b6bc
00000040: ea25 2f3e 4367 04be 1f03 c03e f736 7c3c
00000050: 1e31 32be d3d5 353e 1af2 16be d47a b8bc
00000060: 5678 163e d1e2 9b3c db73 573e e60c 7d3e
00000070: 374b debd 4095 553e fc19 23bd f5da 0fbf
00000080: 0d65 86be ceaa 17bf 829f e03d 3abf 1b3e
00000090: a0cf 19bd 4e98 043d 6fa4 1abc b307 353e
000000a0: edea db3e 7680 983e 36eb 003e 2ea9 353d
000000b0: ee91 c13d a840 4b3d cfa7 a43d 970c 8abd
000000c0: b372 293e 4db3 72bf 178c 6bbd 1629 113e
000000d0: 52ec 93be ac17 25bc a56a ca3d f486 003f
000000e0: 3565 8abe 68d8 2f3e 385a 71bc bc56 29bd
000000f0: f14b bd3c c395 033e 0819 a53e 48c4 713e
00000100: a472 49bd b4f2 393e f574 ab3c ff16 823c
00000110: f11b 97bf 41f6 19bd 944c d3bd 247a f4bd
00000120: e305 993e da85 05be ba53 003d e253 3d3e
00000130: 5c1a 9ebf 5406 c13e 1294 c23e f3b3 33bf
00000140: ba7a 7a3e cb6a 36be 48d4 0c3c 5e9f 733e
00000150: 3696 983e c4cc 853e d959 13be d164 8ebf
00000160: 4ab4 9cbe 3f4c ccbd 1614 f7bc 99ae dd3c
00000170: b3b5 9cbe db0d a3bd 5012 403e 8f0a 4e3e
00000180: 9011 2d3e ea64 243e 9ca2 793e 2719 c83e
00000190: 67da 4abf 77a6 7c3e f120 ab3d 4583 b4bd
000001a0: 3977 213d 4b17 723d 7ce0 89bd f1c4 ce3d
000001b0: 8563 06bf eb25 d83e d49e 2bbe 1424 fe3e
000001c0: 4f37 7a3d b67a 9abc 72fa 18bd df80 7a3e
000001d0: 7658 b43e f9d7 223e bcb4 863e 39a9 d53d
000001e0: 22b3 263e 6879 a03d 653e b33e d220 ad3e
000001f0: 8788 e33d 3ae9 5e3e 8cda ebbc e597 3cbf
00000200: 9608 d73d bc6f 933e 2a22 283e 6c76 db3d
00000210: c3f5 743d ceea debc 5de1 ee3c b6c5 da3b
00000220: a958 c23d ca75 903d bfa5 893d c92c 173e
00000230: ea75 433e 47f1 b93e 48ef 993e fa35 e1be
00000240: b83d 293e 0bfd 3cbd 7dea 423c d459 5cbf
00000250: 4dab a73e 8314 cd3d 6a10 00be 42de bdbd
00000260: 88aa fd3d 129b b83d 44a2 673d 1123 973d
00000270: 5734 e73d 265b 14be fd2e a23d 5415 c1be
00000280: d5c2 c33e 0980 c83e a458 32bc 05ef 1cbd
00000290: 54eb 833e 0d0c 13bf 8e66 b83e fe10 843e
000002a0: 9788 243e 8208 223d 6db2 ca3d 3077 4d3d
000002b0: 750b 0fbf 45e9 3c3e 6b29 14be 2ea5 53be
000002c0: 6ef5 b43e 7d8c 20bf e2c6 4cbe d5ff be3c
000002d0: fa2d a33d a965 3cbf 90ca 8b3e 7cf9 b6bd
000002e0: a460 80bf 49ce 94bc a6e7 7dbe 6b17 163e
000002f0: 5499 0dbe e456 ed3e a46e 893e 3455 9cbf
00000300: d109 8c3e 2724 243e 646d 5abc 7678 94bc
00000310: 259b 66bc 7358 633e 29ff 2d3e 3c92 b8bf
00000320: cd95 b7bd ff10 d83d fd1f ba3e cfbf 3dbc
00000330: e179 f73d d95b cebd ce75 08bf 1a8d 193e
00000340: f93e 6d3e 1bd9 c03e 85cc 4f3d c021 f5bd
00000350: cbfd ef3d 962b 883e 4776 00bf 9f34 bc3d
00000360: 01f5 643e ea22 c53b b5d1 fc3e abac 73be
00000370: f932 073e 091d 063d cbf2 bfbc 405e 94be
00000380: be1e b63c e151 8d3e 0b9c 403e 1d87 6cbe
00000390: 964b edbd d7dc a33e cf5a bbbe a608 a03e
000003a0: 6efc d93d bfb8 c23e f15c 1c3e 993c 643d
000003b0: 574e c7bd 1625 19bd fd3c 023e 0232 4fbd
000003c0: 8c56 453e 9f4c a73e 66b9 87bd 8981 26bf
000003d0: aa2a a3be 1f32 ef3b 053c 983b 6fb1 96bd
000003e0: c89a 923e 929d 97bd 9ae6 22bc e8b6 7d3e
000003f0: 7839 8c3d 935b 0abe facb ca3e 2f84 e8bd
0.3237277 0.069265395 0.060261022 0.1589115 0.21925344 -0.061784297 0.019193305 0.0062502916
0.12972283 0.10149778 -0.26294336 0.36202767 0.009902994 0.098685555 0.09882199 -0.022298528
0.17104307 -0.12930016 0.3750238 0.015393964 -0.17401549 0.17757349 -0.14740792 -0.022519507
0.14694342 0.019029053 0.21040289 0.24711952 -0.1085419 0.20857716 -0.039819703 -0.56193477
-0.2624897 -0.59245 0.10967924 0.15209666 -0.037551522 0.03237181 -0.009438618 0.17678718
0.42952672 0.29785508 0.12589726 0.044350795 0.09451662 0.049622208 0.080398194 -0.067406826
0.1654766 -0.9480484 -0.057506647 0.1417583 -0.28891236 -0.010076445 0.09883622 0.5020592
-0.2703034 0.17172396 -0.0147309825 -0.041342482 0.0231075 0.12850098 0.3224566 0.23610032
-0.049181595 0.1815899 0.020929793 0.015880106 -1.1805402 -0.03758836 -0.103173405 -0.11937359
0.29887304 -0.13039342 0.031329848 0.1848903 -1.2351794 0.3770014 0.38003594 -0.70196456
0.24460879 -0.17814176 0.008595534 0.23791263 0.29802102 0.26132786 -0.14389743 -1.1124517
-0.306063 -0.0997548 -0.030160945 0.027060794 -0.30607376 -0.07961627 0.18756986 0.20121215
0.16901231 0.1605412 0.24378437 0.3908169 -0.79239506 0.24672876 0.083558924 -0.088141
0.03942034 0.059104245 -0.0673227 0.10096157 -0.52495605 0.4221643 -0.16759807 0.496369
0.061087903 -0.018857341 -0.03734822 0.24463223 0.3522374 0.159027 0.26309764 0.10432667
0.16279271 0.078356564 0.3500854 0.33814102 0.11110025 0.21768656 -0.028790735 -0.7366927
0.104996845 0.28796184 0.16419283 0.107159466 0.05980469 -0.027211573 0.029160196 0.006676401
0.09489567 0.070537165 0.06721067 0.14763178 0.1908795 0.36316893 0.3006537 -0.43986493
0.1652745 -0.046139758 0.011896727 -0.86074567 0.3274788 0.10013678 -0.12506261 -0.09270908
0.12386042 0.09013952 0.056551233 0.07379735 0.1128928 -0.14487895 0.079191186 -0.37711585
0.38234583 0.39160183 -0.010885391 -0.038313884 0.2576548 -0.57440263 0.36015743 0.25794214
0.1606773 0.039558895 0.09897313 0.050162494 -0.5587686 0.1844836 -0.14468925 -0.2066848
0.35343498 -0.6271437 -0.19997743 0.02331535 0.07967754 -0.7359262 0.2730298 -0.08934304
-1.0029492 -0.01816477 -0.24795398 0.14657371 -0.13828021 0.46355355 0.26842225 -1.2213502
0.2735124 0.16029416 -0.013331745 -0.018123847 -0.014075075 0.2220171 0.16991867 -1.4419627
-0.08964119 0.10550117 0.3635253 -0.011581375 0.120837934 -0.10076112 -0.53304756 0.14995232
0.23168553 0.37665638 0.050732154 -0.11969328 0.11718329 0.26595753 -0.50180477 0.09189724
0.22359087 0.006016125 0.49378744 -0.23796336 0.13203038 0.032742534 -0.023431202 -0.28978157
0.022231456 0.2760153 0.18809526 -0.23098417 -0.115866825 0.32004425 -0.3659272 0.31256598
0.1064385 0.38031575 0.1526983 0.055721853 -0.09731739 -0.037388884 0.12718578 -0.0505848
0.19271296 0.32675645 -0.06627159 -0.65041405 -0.31868488 0.007299676 0.0046458268 -0.073580615
0.28633714 -0.07403101 -0.009942675 0.24776804 0.06846899 -0.13511495 0.39608747 -0.11353337
