Q1/td3_actor_ep1000.pth (torch, 491362 bytes, 5 tensors)

l1.weight f4 [400, 3]
0	0x3e9ef02e	0.31042618
1	0x3dd27881	0.102768905
2	0xbf1479f8	-0.5799861
3	0x3f8e1f50	1.1103306
4	0x3d532699	0.05155048
5	0x3e8d1397	0.27554008
6	0x3e0c678d	0.13711376
7	0x3f952bef	1.1654032
8	0x3dafb2e4	0.085790426
9	0xbeed1f6e	-0.4631304
10	0x3f18ae1d	0.59640676
11	0x3e10d3aa	0.14143243
12	0x3faa37b1	1.3298246
13	0xbb1eb91e	-0.0024219225
14	0x3ed16a61	0.40901473
15	0x3dc09dcd	0.09405098
16	0x3f937dd4	1.1522775
17	0x3d94341b	0.07236501
18	0xbcc1fdcb	-0.023680588
19	0xbeaab5df	-0.33341882
20	0xbd6a69e8	-0.057229906
21	0x3dbbdf5b	0.09173461
22	0xbd7cce1a	-0.06171999
23	0x3cb2e5e8	0.021838143
24	0xbe4c50c8	-0.1995269
25	0xbf8ada25	-1.0847822
26	0xbe31fdc7	-0.17381965
27	0xbe53256a	-0.20619741
28	0xbf66a362	-0.9009305
29	0xbeadfb45	-0.33980766
30	0x3ee1f57f	0.4413261
31	0xbda3e68e	-0.08002959
32	0x3e83e42b	0.25760016
33	0x3f05b7df	0.5223369
34	0x3f516ef6	0.8180994
35	0x3ee38634	0.44438326
36	0x3e714739	0.23562326
37	0x3f63e241	0.8901711
38	0xbcd578b8	-0.02605854
39	0xbeed6561	-0.46366408
40	0xbddb550e	-0.10709582
41	0x3c5e63cf	0.013573601
42	0x3ed078fc	0.40717304
43	0x3fb2cbdb	1.3968462
44	0x3f1c74aa	0.61115515
45	0xbe25dfec	-0.161987
46	0x3d4d04eb	0.05005352
47	0x3d04b29e	0.032396905
48	0xbb56f71f	-0.0032801104
49	0xbf020071	-0.50781924
50	0xbedb67ff	-0.4285278
51	0x3e336d7e	0.17522237
52	0xbe3cdc4b	-0.1844341
53	0x3e324bff	0.17411803
54	0x3e86e5f2	0.2634731
55	0x3f60d9d8	0.87832403
56	0xbc82bef9	-0.015960203
57	0xbea271e0	-0.31727505
58	0xbe3c422e	-0.1838462
59	0xbf15281d	-0.58264333
60	0x3e1da409	0.15394606
61	0xbb4f03bf	-0.0031587926
62	0x3f009d3d	0.50239927
63	0xbe804d7b	-0.25059113
64	0x3eed1493	0.4630476
65	0x3d5b8638	0.053594798
66	0x3ee0d651	0.4391351
67	0xbf8259e0	-1.0183678
68	0xbe862995	-0.262036
69	0xbd974831	-0.07386816
70	0x3f98d13b	1.1938852
71	0x3ebbf0b9	0.36707094
72	0x3f4f0793	0.8087093
73	0xbf69ac4b	-0.91278523
74	0xbebdf82d	-0.37103406
75	0xbef6cf51	-0.48205045
76	0x3f494770	0.7862463
77	0x3f2b3ccf	0.6688966
78	0xbd89980f	-0.06718456
79	0xbd87e322	-0.06635119
80	0xbdb269d7	-0.087115936
81	0xbf614469	-0.8799501
82	0x3df2ff05	0.11865047
83	0xbdd8de6a	-0.10589297
84	0x3eea168b	0.45720324
85	0xbebf3321	-0.37343696
86	0x3e5ef1d3	0.21771936
87	0xbf1c4989	-0.61049706
88	0x3ed3ca34	0.41365206
89	0x3e80750c	0.250893
90	0x3f0343b6	0.51275194
91	0xbf3846bd	-0.7198294
92	0x3e45ec41	0.19328405
93	0x3f32b520	0.69807625
94	0xbf6a056e	-0.91414535
95	0xbe72293f	-0.23648547
96	0x3f930468	1.148572
97	0xbefc91ad	-0.49329892
98	0xbd7c42ec	-0.06158726
99	0xbec2ef58	-0.3807323
100	0x3d4e823c	0.05041717
101	0x388a9d81	6.60969e-05
102	0x3e290c34	0.16508561
103	0xbefe7996	-0.49702138
104	0xbb394a1c	-0.0028272932
105	0xbec9c0e3	-0.39404973
106	0xbfb798ef	-1.4343547
107	0xbed2af8e	-0.41149563
108	0xbeb2a90f	-0.34894606
109	0x3f171f53	0.5903217
110	0x3eeeb0eb	0.46619353
111	0x3ee1e859	0.4412258
112	0xbe387666	-0.18013915
113	0xbeb381a1	-0.35059837
114	0xbed589b9	-0.41706637
115	0x3df618c5	0.12016443
116	0x3dd8196f	0.10551726
117	0xbf0ee225	-0.5581382
118	0xbf819616	-1.0123928
119	0xbe4ce6d5	-0.2000993
120	0x3d1f041c	0.03882228
121	0xbeea5047	-0.45764372
122	0xbe86c644	-0.2632314
123	0xbea79a37	-0.32734844
124	0xbfa336e1	-1.2751123
125	0xbe15f8df	-0.14645718
126	0xbe93193e	-0.28730196
127	0x3e8dd50c	0.27701604
128	0x3e3fea7b	0.18741791
129	0x3e5e64ad	0.21718092
130	0x3fa33b4a	1.2752469
131	0x3d486ecd	0.048933793
132	0xbef50696	-0.47856587
133	0x3e92c5d9	0.2866657
134	0xbd804862	-0.06263806
135	0xbe7e254b	-0.24818914
136	0xbf87ec5b	-1.0619005
137	0xbf0beefd	-0.5466154
138	0x3f6d8fe0	0.9279766
139	0x3ee6f154	0.45105994
140	0x3efe7bc1	0.49703792
141	0xbeb0915b	-0.34485897
142	0xbe2f159b	-0.17098086
143	0xbf026186	-0.5093006
144	0x3e437070	0.1908586
145	0x3f6eafb1	0.93236834
146	0x3d18a633	0.037267875
147	0x3f492cf0	0.78584194
148	0x3f7b240b	0.9810187
149	0xbec77554	-0.38956702
150	0x3f127761	0.5721341
151	0xbf3f21ed	-0.7466114
152	0xbe3c1f9b	-0.18371432
153	0xbf3212f8	-0.69560194
154	0xbe81f124	-0.25379288
155	0xbebf8b7d	-0.3741111
156	0x3f8526f0	1.0402508
157	0x3f51d5a4	0.81966615
158	0x3ea9aa98	0.33137965
159	0xbf0a038b	-0.53911656
160	0x3e5ef36e	0.21772549
161	0xbe73aeed	-0.23797198
162	0x3f080cb4	0.53144383
163	0xbf9b5d7b	-1.2137903
164	0x3ee06576	0.4382741
165	0x3dcb1cb9	0.09917588
166	0xbdd485f9	-0.10377116
167	0x3dc1a789	0.09455783
168	0x3f470ef3	0.77757186
169	0xbf8282e9	-1.0196201
170	0xbe85b78e	-0.26116604
171	0xbd6f29dc	-0.05838953
172	0xbda9e32c	-0.08295283
173	0xbc5b04e6	-0.013367867
174	0xbeaf9be0	-0.3429861
175	0xbf95ac93	-1.169329
176	0xbe9a6fb1	-0.3016334
177	0x3f1fdac1	0.62443167
178	0x3f8b67eb	1.0891088
179	0xbf301862	-0.68787205
180	0x3c989a6b	0.01862832
181	0x3f90a1a4	1.1299329
182	0xbe2d9573	-0.16951542
183	0xbd9318aa	-0.07182439
184	0x3e2da1da	0.16956273
185	0x3d582b42	0.05277563
186	0x3f309200	0.6897278
187	0xbeab5474	-0.3346287
188	0xbe809709	-0.2511523
189	0x3f4a568b	0.79038304
190	0xbe80bcd8	-0.25144076
191	0xbe8c6901	-0.27423862
192	0x3e44c295	0.19214852
193	0x3f5d9030	0.8654814
194	0xbdc84d14	-0.097803265
195	0x3d08fa5b	0.033441883
196	0xbeafd1f1	-0.3433986
197	0xbb1ef87c	-0.0024256995
198	0x3f03d635	0.5149873
199	0x3f0255dd	0.50912267
200	0xbf0ad810	-0.54235935
201	0xbe0c01ab	-0.13672511
202	0x3f4695cc	0.7757232
203	0x3e9f3173	0.31092414
204	0x3eca9379	0.39565638
205	0xbf5107e3	-0.8165266
206	0xbe7ddc8a	-0.2479116
207	0xbf538823	-0.82629603
208	0x3f7dd7ae	0.99157226
209	0x3dceef09	0.10104186
210	0x3f0f09a2	0.55874074
211	0x3ed1988f	0.40936705
212	0xbf292d9c	-0.6608522
213	0xbef752a3	-0.48305234
214	0x3f2a32e7	0.6648392
215	0x3e3b7462	0.18306115
216	0x3f4492f8	0.76786757
217	0x3d773c9e	0.060360543
218	0x3eb5fb59	0.35543326
219	0x3ddfa81f	0.109207384
220	0xbded0583	-0.11573317
221	0xba2c8ca7	-0.0006582238
222	0xbed9b16d	-0.42518178
223	0xbf2a4bb0	-0.6652174
224	0xbf5437ab	-0.8289744
225	0x3f46b940	0.7762642
226	0x3f3b6af5	0.7321008
227	0xbc789586	-0.015172368
228	0xbf057715	-0.5213483
229	0xc01db7a5	-2.4643338
230	0xbedbaece	-0.42906803
231	0x3da4c82f	0.080459945
232	0x3f35ae90	0.70969486
233	0x3e75814e	0.23975107
234	0xbe52fd35	-0.20604403
235	0xbe110fc0	-0.14166164
236	0xbf1b3407	-0.6062626
237	0xbeb075e5	-0.34464946
238	0xbf9c49ad	-1.2209984
239	0xbee8cd54	-0.45469153
240	0x3ef1d85f	0.4723539
241	0xbe0c609d	-0.1370873
242	0xbe8d78ef	-0.27631328
243	0xbeacc359	-0.33742788
244	0xbf6a11f9	-0.91433674
245	0xbf020b4b	-0.5079848
246	0xbfd6d1bc	-1.6782756
247	0x3ef0a11e	0.46997923
248	0xbdc56a05	-0.09639362
249	0x3f4bbca3	0.7958471
250	0xbec5b081	-0.38611224
251	0xbe9dfd02	-0.30857092
252	0xbea32763	-0.31865987
253	0xbe104816	-0.14089999
254	0xbe4ee022	-0.20202687
255	0xbef942fd	-0.4868392

l1.bias f4 [400]
0	0xbf1ebc16	-0.62005746
1	0xbec369f8	-0.38166785
2	0xbeef5d08	-0.46750665
3	0x3df38f0a	0.11892517
4	0xbf0933f7	-0.5359492
5	0xbf07983f	-0.52966684
6	0xbece8bb1	-0.4034095
7	0xbe64d95b	-0.2234854
8	0x3e113b1f	0.14182709
9	0xbe4d4507	-0.20045863
10	0x3e5117c3	0.2041922
11	0xbf70df2d	-0.9409054
12	0x3db4dafb	0.0883083
13	0x3e1cc835	0.15310748
14	0xbed732e1	-0.42031005
15	0xbd7b0a67	-0.061289217
16	0x3d34f427	0.044178154
17	0xbe1b75cb	-0.15181653
18	0x3d7b6943	0.061379682
19	0xbe310b63	-0.172895
20	0xbf87f099	-1.06203
21	0xbddfe5ed	-0.10932527
22	0xbf15c6e5	-0.58506614
23	0xbe952b33	-0.2913452
24	0xbe2e6dd4	-0.17034084
25	0xbe99ac48	-0.30014253
26	0xbeb57c3a	-0.3544634
27	0x3d85ac6e	0.06527029
28	0xbf10eb3e	-0.5660895
29	0xbe8974bd	-0.26846877
30	0xbe869f5e	-0.26293463
31	0xbeadd73d	-0.33953276
32	0x3e38a7de	0.18032786
33	0xbec62b9c	-0.38705146
34	0xbe745462	-0.23860314
35	0xbe83a6b6	-0.25713128
36	0xbe731cb8	-0.23741424
37	0xbe6d6f15	-0.23186906
38	0xbea40a3f	-0.32039067
39	0x3efd3f6a	0.49462444
40	0xbeb92216	-0.36158818
41	0x3b3f7fb9	0.0029220416
42	0x3d90295d	0.070391394
43	0xbeb3c50d	-0.35111275
44	0x3d9e83b4	0.07739964
45	0xbe7641b1	-0.24048497
46	0xbfb3be58	-1.4042463
47	0xbe1ac5ab	-0.15114467
48	0xbef1f3e6	-0.47256392
49	0xbec35d1d	-0.38156977
50	0xbe90bd7b	-0.28269562
51	0xbf1d92ae	-0.6155194
52	0xbec6a378	-0.38796592
53	0x3d90dae6	0.070730016
54	0xbf3779fa	-0.71670496
55	0xbe303e81	-0.17211343
56	0xbeb99aa5	-0.36250797
57	0xbe758c7e	-0.23979375
58	0xbca3183e	-0.01990902
59	0xbf73d270	-0.9524298
60	0x3e2461b8	0.16052902
61	0xbe455b95	-0.19273217
62	0xbf4a613e	-0.7905463
63	0xbf808db7	-1.0043248
64	0x3e501526	0.20320567
65	0xbebafbcb	-0.36520228
66	0xbf3e3361	-0.7429715
67	0x3c47a11f	0.01218441
68	0xbf2fde0c	-0.6869819
69	0xbef79164	-0.48353112
70	0xbf389603	-0.721039
71	0x3e398931	0.1811874
72	0xbf6cfab5	-0.9257005
73	0xbe27c862	-0.16385034
74	0xbe5234a3	-0.20527892
75	0x3ea9f6bd	0.3319606
76	0x3e91db33	0.28487548
77	0xbe9de071	-0.30835298
78	0xbd3398de	-0.043846957
79	0xbe9bcd1e	-0.3042993
80	0xbf9201ca	-1.1406796
81	0xbe8b0c8c	-0.2715801
82	0xbd309db9	-0.043119166
83	0xbf838cdc	-1.0277362
84	0xbf8c9064	-1.0981565
85	0xbe2c42ef	-0.16822408
86	0x3ceee724	0.02916295
87	0xbf133529	-0.5750299
88	0x3d7ed5c5	0.062215585
89	0xbe231f11	-0.1592982
90	0xbe59f8bc	-0.21286291
91	0x3e1449ae	0.14481232
92	0x3ec53b7d	0.38521948
93	0xbed2c612	-0.4116674
94	0xbe39d841	-0.181489
95	0xbdfa5da2	-0.1222489
96	0xbf75f721	-0.96080214
97	0xbf351509	-0.7073522
98	0xbeaaad67	-0.3333542
99	0xbda27731	-0.0793289
100	0xbf6e7ab7	-0.93156
101	0xbe504b65	-0.2034126
102	0xbc8adc95	-0.016950885
103	0xbc209b2d	-0.009802622
104	0xbe938f0c	-0.28820074
105	0xbe5a5e02	-0.21324924
106	0xbeae4e45	-0.3404409
107	0xbea493b9	-0.32143953
108	0xbcdcae7d	-0.026938671
109	0xbebe4309	-0.3716052
110	0xbecd1029	-0.40051392
111	0xbe9ff92b	-0.31244788
112	0xbea3587d	-0.3190345
113	0xbf0c26d9	-0.54746777
114	0x3e7d6e0c	0.24749011
115	0xbe4b5d5b	-0.19859831
116	0xbdce424f	-0.10071241
117	0xbdc0c661	-0.09412838
118	0xbee2b673	-0.44279823
119	0xbe8b21f0	-0.2717433
120	0xbf78ab14	-0.97136045
121	0x3aa56bfb	0.0012620682
122	0xbed34cb3	-0.41269454
123	0x3ccb5c98	0.024824426
124	0xbf05da5c	-0.52286315
125	0xbeb2d291	-0.34926274
126	0xbe0e0c4c	-0.13871878
127	0x3d46bac7	0.04851797
128	0xbf8ba2df	-1.0909079
129	0xbe4bbf50	-0.19897199
130	0xbf83b157	-1.0288495
131	0xba486fde	-0.0007646064
132	0x3e89fa42	0.26948744
133	0xbbd0f239	-0.0063765314
134	0xbf8ed54d	-1.1158844
135	0xbbfe1c9d	-0.007754876
136	0xbd63da0e	-0.055627875
137	0xbd5c1c3c	-0.053737864
138	0x3b56a537	0.0032752284
139	0xbee8d0d2	-0.45471817
140	0xbd991672	-0.07474984
141	0x3e6e9c64	0.23301846
142	0x3e3667d2	0.17813042
143	0x3d8b5542	0.06803371
144	0xbdf67689	-0.120343275
145	0xbec6bd62	-0.38816363
146	0xbf8d0904	-1.1018376
147	0xbe84a1e3	-0.2590476
148	0xbf59ef9d	-0.85131246
149	0xbda90cb1	-0.08254374
150	0xbef2f0e9	-0.47449425
151	0xbf364ade	-0.7120799
152	0x3d76bad9	0.060236786
153	0xbce20f5f	-0.02759522
154	0xbe6de638	-0.23232353
155	0xbe01a3d9	-0.12660159
156	0xbf3d6477	-0.7398142
157	0x3d48c6d1	0.04901773
158	0xbe40c3db	-0.18824713
159	0xbee363c1	-0.44412044
160	0xbf6b5ad9	-0.919355
161	0xbe16f239	-0.14740838
162	0xbf83e0aa	-1.0302937
163	0xbcefe9f4	-0.029286362
164	0xbdba16ad	-0.09086356
165	0xbf607149	-0.8767286
166	0xbf1040f6	-0.5634912
167	0xbeab3ae7	-0.33443376
168	0x3ecf3903	0.40473184
169	0xbee81281	-0.45326617
170	0xbebd1baf	-0.36935183
171	0xbe8810eb	-0.26575407
172	0xbf17226b	-0.5903689
173	0xbfc30e92	-1.5238822
174	0xbf160b2e	-0.5861081
175	0x3e878c57	0.26474258
176	0x3b9d0020	0.0047912747
177	0xbe838d2f	-0.25693652
178	0x3e96c1ac	0.29444635
179	0xbedd0e89	-0.43175152
180	0x3e993135	0.29920354
181	0xbf336bd5	-0.70086414
182	0x3ee447ef	0.4458613
183	0xbe9c8038	-0.30566573
184	0xbe67bae9	-0.22629894
185	0xbdac0735	-0.08399812
186	0xbf805311	-1.002535
187	0xbdb83c93	-0.089959286
188	0xbea26c21	-0.3172312
189	0xbf3a5715	-0.72789127
190	0xbd5c80a0	-0.053833604
191	0x3e44101f	0.19146775
192	0xbdce005e	-0.10058664
193	0xbe017c2c	-0.12645024
194	0x3d103aef	0.035212453
195	0xbeb4a210	-0.35279894
196	0xbd5a329e	-0.05327093
197	0xbef8b9ad	-0.4857916
198	0xbf34484e	-0.7042283
199	0xbf218fa9	-0.63109833
200	0xbe2ce5c1	-0.16884519
201	0xbf558528	-0.83406305
202	0xbea5e26f	-0.32399318
203	0xbecc8cfd	-0.39951316
204	0xbeca1427	-0.394685
205	0xbf158ca6	-0.5841774
206	0xbc134c9f	-0.008990436
207	0xbde52295	-0.111882366
208	0xbec18d61	-0.37803176
209	0xbeaa27a8	-0.3323338
210	0xbed50e17	-0.41612312
211	0x3e0cc74e	0.13747904
212	0xbe8a962a	-0.2706769
213	0xbfa64bae	-1.2991846
214	0xbf842b27	-1.0325669
215	0x3e948da9	0.29014328
216	0xbf86c3be	-1.0528486
217	0xbe7a9fa5	-0.24474962
218	0xbcccd68a	-0.025004644
219	0xbe0883fb	-0.13331597
220	0xbe574bd8	-0.21025026
221	0xbdf758fb	-0.120775186
222	0xbef9f9f6	-0.48823518
223	0xbeb5c203	-0.35499582
224	0xbee6387d	-0.44964972
225	0xbf7aad72	-0.97920907
226	0xbdd08c69	-0.10183031
227	0xbec71a2c	-0.38887155
228	0xbeb4851f	-0.35257813
229	0xbf07dc4f	-0.5307054
230	0x3d87f32d	0.06638179
231	0x3d6e84f0	0.058232248
232	0x3e4eb112	0.20184734
233	0x3e93dac4	0.28877842
234	0xbf4e39a9	-0.8055673
235	0x3e4586b8	0.19289672
236	0x3e1a23cd	0.1505272
237	0xbcd9fee6	-0.026610803
238	0xbeee5b07	-0.46553823
239	0xbd4e3e77	-0.05035254
240	0xbf23291e	-0.63734615
241	0xbf7d08bf	-0.9884147
242	0xbee713fc	-0.45132434
243	0xbec536e7	-0.3851845
244	0xbedb1c33	-0.42794952
245	0xbf503487	-0.8133015
246	0x3eae5c94	0.34055007
247	0xbedc126d	-0.42982808
248	0xbf05e752	-0.5230609
249	0xbe43e285	-0.19129379
250	0xbf82d180	-1.0220184
251	0xbf827bd5	-1.019404
252	0xbe0d3333	-0.13789062
253	0x3ce2e47f	0.027696846
254	0xbdc0f7ec	-0.09422287
255	0xbf9c570f	-1.2214068

l2.weight f4 [300, 400]
0	0xbd5293f8	-0.051410645
1	0x3c9b849f	0.018984137
2	0xbd51f6c0	-0.05126071
3	0xbc484bea	-0.012225131
4	0xbb568c2a	-0.0032737353
5	0x3cec1d8a	0.02882268
6	0xbcc1b7db	-0.02364724
7	0x3c05acfa	0.008158917
8	0x392eb7f6	0.00016662464
9	0x3cc38d71	0.023871155
10	0xbb51eec4	-0.0032033185
11	0x3c4bbabf	0.01243466
12	0xbd14b187	-0.036302116
13	0xbd2ac29d	-0.041689504
14	0x3d1cbd1c	0.038266286
15	0xbd2e5382	-0.042560108
16	0xbc4ce7b0	-0.0125064105
17	0xbc48fad0	-0.01226683
18	0x3d2efd32	0.042721935
19	0xbc310a4d	-0.010805679
20	0xbd35a1b7	-0.044343676
21	0xbc9553c6	-0.018228423
22	0x3cb513f1	0.022104235
23	0x3c5c07b4	0.013429571
24	0x3d1a310e	0.03764444
25	0xbc86fa34	-0.016476728
26	0x3c8e4ed3	0.01737157
27	0xbd5479ad	-0.05187385
28	0x3c574c62	0.01314077
29	0x3c893b51	0.016751917
30	0x3cd57f24	0.026061602
31	0xbd05ed5e	-0.032697074
32	0xbca1c97e	-0.0197494
33	0x3bc20efd	0.005922197
34	0xbd2a54c5	-0.04158475
35	0xbd39a4cd	-0.045323182
36	0xbd5e9364	-0.05433978
37	0x3b36eb9a	0.0027911426
38	0x3ccbba62	0.024869148
39	0x3bb4dd41	0.0055195396
40	0x3b47c51a	0.0030482472
41	0x3c426432	0.011864709
42	0xbd1a28d3	-0.03763659
43	0xba874f25	-0.001032327
44	0xbc8ebe3c	-0.017424695
45	0xbcf7e409	-0.030260103
46	0x3d16af32	0.036788173
47	0xbd1e71af	-0.038682636
48	0x3a89b5ff	0.001050651
49	0xbd469c55	-0.048488934
50	0xbc0d9a13	-0.008642691
51	0xbcb602bd	-0.022218103
52	0x3c274eae	0.01021163
53	0xbd0cd223	-0.03438009
54	0x3cd2fec2	0.025756244
55	0xbd3f8721	-0.04675973
56	0x3cc8eeaf	0.024527876
57	0xbd34db9d	-0.044154752
58	0x3cade2b2	0.02122626
59	0xbcac7803	-0.02105332
60	0xbbcec02f	-0.006309531
61	0xbc7ac79c	-0.01530638
62	0x3d04ebdf	0.032451507
63	0x3c863cba	0.016386379
64	0xbd537647	-0.05162647
65	0xbab0b3c8	-0.0013481313
66	0xbd0d48a8	-0.03449312
67	0x3cff7897	0.031185431
68	0x3c069827	0.008214987
69	0xbc9c6891	-0.01909283
70	0xbcfdf1be	-0.03099906
71	0x3c35b075	0.011089434
72	0xbd1448d2	-0.03620226
73	0x3c8f6b8f	0.017507343
74	0x3cdf8233	0.027283764
75	0x3cc8e64b	0.024523875
76	0x3bb7ff1a	0.0056151273
77	0xbd4cb24e	-0.049974732
78	0x3ce9a494	0.02852086
79	0xbcacc1fb	-0.02108859
80	0xbc722f53	-0.014781791
81	0xbbb00727	-0.0053719464
82	0x3d15bc87	0.036556747
83	0x3d1d79e7	0.038446333
84	0x3bfcfd1a	0.0077206017
85	0x3c95ed35	0.018301586
86	0xbd583d02	-0.052792557
87	0x38f7b333	0.00011811256
88	0xbd51fd7c	-0.051267132
89	0x3c3c0c89	0.011477598
90	0xbd2b2857	-0.041786518
91	0xbcc99f09	-0.024611967
92	0x3cebb196	0.028771203
93	0x3d2d1240	0.042253733
94	0xbd19a968	-0.037515074
95	0xbd0b0209	-0.033937488
96	0x3bcae8cd	0.006192303
97	0x3ca10413	0.019655263
98	0xbc5910fa	-0.013248676
99	0xbcbca2c4	-0.023026831
100	0xbd068587	-0.032842185
101	0x3c77c6fc	0.015123125
102	0x3d48a7bd	0.048988093
103	0xbcf94a59	-0.03043096
104	0x3c8de5d6	0.017321508
105	0x3c9529f9	0.01820849
106	0x3d0dea53	0.034647297
107	0xbc449b3e	-0.011999903
108	0xbb8278db	-0.0039816923
109	0x3cee390c	0.029079936
110	0x3ce31100	0.027718067
111	0x3d338566	0.04382839
112	0xbc6ac21a	-0.014328504
113	0x3ca212c0	0.019784331
114	0x3ce1d6dd	0.027568275
115	0xbd0b0582	-0.0339408
116	0x3b721451	0.003693838
117	0xbc8eb68b	-0.017421028
118	0x3cd3f601	0.02587414
119	0xbceaf059	-0.02867906
120	0x3b65d480	0.0035069287
121	0x3cc20546	0.023684155
122	0xbd5257e1	-0.05135334
123	0xbd4674df	-0.0484513
124	0xbcd1ca63	-0.0256092
125	0x3cd31f32	0.025771711
126	0x3cdff609	0.027338998
127	0xbd254433	-0.040348243
128	0x3c1c3607	0.0095343655
129	0xbd04b499	-0.032398794
130	0xbcf1882f	-0.029483883
131	0x3d19f1bd	0.037584055
132	0x3c937245	0.017998824
133	0xbca2b62b	-0.019862255
134	0x3bf12ccd	0.007360077
135	0x3afa0e37	0.0019077723
136	0x3bc94a6b	0.0061429045
137	0xbcbf66c7	-0.023364438
138	0xbd176a1a	-0.03696642
139	0x3ce2ef86	0.027702104
140	0x3bdc27f3	0.0067186295
141	0x3c50a9e9	0.012735822
142	0xbcdac1ce	-0.026703741
143	0x3c8f7042	0.017509583
144	0x3d150be2	0.036388285
145	0x3cb6f32e	0.022332754
146	0x3c5ebcad	0.0135947885
147	0x3d301240	0.042986155
148	0xb8e55333	-0.00010935068
149	0x3ba76452	0.0051083947
150	0x3d2bde53	0.04196007
151	0x3d2cf57d	0.042226303
152	0xbcdfa94e	-0.02730241
153	0x3d1f0aa2	0.0388285
154	0x3c498565	0.01229987
155	0xbc399ad4	-0.011328418
156	0x3d1923b0	0.03738755
157	0xbd0752d5	-0.03303798
158	0x3d05118a	0.03248743
159	0x3d318cee	0.04334729
160	0xbd0d4042	-0.03448511
161	0xbd0f988f	-0.0350576
162	0xbd64affc	-0.055831894
163	0xbc78a05a	-0.01517495
164	0xbd598ae9	-0.05311099
165	0xbcbcb0c1	-0.023033502
166	0x3c78b487	0.01517976
167	0x3cee1a40	0.029065251
168	0x3cb63d5c	0.022246055
169	0x3cb4c853	0.022068178
170	0x3c6e5e2c	0.0145488195
171	0xbd1bdcee	-0.03805249
172	0xbd3c283a	-0.0459368
173	0xbb8ae91b	-0.004239214
174	0x3d290202	0.04126168
175	0xbb5bdeb2	-0.0033549485
176	0xbc2acc45	-0.010424678
177	0xbd24862e	-0.040167026
178	0xbce9e7f9	-0.028552996
179	0xbd3740b8	-0.044739455
180	0x3d0d93cf	0.03456479
181	0xbc891850	-0.016735226
182	0xbd4e4a57	-0.050363865
183	0xba758b6c	-0.0009366784
184	0xbb5ef358	-0.0034019556
185	0xbc4b40e2	-0.012405606
186	0x3c3db97c	0.011579867
187	0x3cbd4ff2	0.02310941
188	0xbd409893	-0.047020506
189	0xbd1ce545	-0.038304586
190	0xbc0252fe	-0.007954357
191	0xbd592e5e	-0.053022735
192	0xbd50c8d6	-0.050972782
193	0x3d34d1f0	0.044145525
194	0xbc22c6c3	-0.009935084
195	0xbd06867e	-0.032843105
196	0xbcbf8b69	-0.023381906
197	0xbd4105f8	-0.047124833
198	0x3cfdf591	0.031000884
199	0xbc8ed964	-0.017437644
200	0xbce64aed	-0.0281119
201	0xbd1b52ad	-0.037920643
202	0x3cbc23e5	0.022966335
203	0xbc4bf641	-0.012448848
204	0xbc3e5218	-0.011616252
205	0xbc5582c0	-0.0130316615
206	0xbcf3268e	-0.02968147
207	0x3b5b669f	0.0033477915
208	0x3d1d912b	0.03846852
209	0xbd1012de	-0.035174243
210	0xbb7b15ec	-0.0038312627
211	0xbd33a127	-0.04385486
212	0xbced8e4b	-0.028998515
213	0x3d33c46d	0.043888498
214	0x3a096e00	0.00052425265
215	0x3d2f09aa	0.042733826
216	0xbc7636d0	-0.015027717
217	0xbd095ba9	-0.03353468
218	0xbd1610fb	-0.036637288
219	0x3d1c1377	0.0381045
220	0xbd1d7d10	-0.038449347
221	0x3c957676	0.018244963
222	0x3bcb15eb	0.006197681
223	0x3c0b057a	0.008485192
224	0x3cbb4887	0.022861732
225	0xbc926799	-0.017871665
226	0x3cca5e2d	0.02470311
227	0xbd3ccd55	-0.046094257
228	0xbc901d3d	-0.017592067
229	0x3cfb2a24	0.030659743
230	0x3c0f48e8	0.00874541
231	0xbc5279f1	-0.012846456
232	0xbc907dcb	-0.017638108
233	0xbd1736a9	-0.036917362
234	0x3cc68225	0.02423198
235	0xbbffd5e1	-0.007807479
236	0xbbfb13ca	-0.007662271
237	0x3bf7fbd4	0.007567862
238	0x3cfa4865	0.030552099
239	0xbd067bb0	-0.0328328
240	0xbcc0c62a	-0.023531992
241	0x3ce29b09	0.027661817
242	0x3cb9ffa6	0.02270491
243	0xbcc97f47	-0.024596823
244	0xbd646150	-0.055756867
245	0x3b757a30	0.0037456863
246	0x3ca490d7	0.020088596
247	0x3bbbb383	0.0057281866
248	0x3cef2317	0.029191537
249	0xbd3c14cd	-0.045918275
250	0x3ca1a6c0	0.019732833
251	0xbcfea3cd	-0.031083966
252	0x3cb9389c	0.022610001
253	0x3cf06537	0.029345138
254	0x3c81ba17	0.015835805
255	0x3d25b2cf	0.04045373

l2.bias f4 [300]
0	0x3c8286a8	0.01593335
1	0xbd55fcd6	-0.052243076
2	0xbcc6640d	-0.02421763
3	0xbd129ee4	-0.03579606
4	0xbd8ccfe6	-0.06875591
5	0xbdfc79c1	-0.1232791
6	0x3c1a6122	0.009422572
7	0xbcee51ff	-0.029091833
8	0xbe387dfc	-0.18016809
9	0xbd80067b	-0.06251236
10	0xbd7cc05b	-0.061706882
11	0xbd5ed16d	-0.054398943
12	0xbccccebf	-0.025000928
13	0x3e971be5	0.2951347
14	0xbd320d58	-0.043469757
15	0xbdef1986	-0.1167479
16	0xbc804482	-0.015657667
17	0xbda8a317	-0.08234232
18	0xbe0a1cab	-0.13487498
19	0xbd6359b5	-0.055505473
20	0xbdc4c269	-0.09607393
21	0x3c1aa9ff	0.009439944
22	0xbd6c414c	-0.05767946
23	0xbd7494c7	-0.059712198
24	0xbd70fb32	-0.05883331
25	0xbd65130d	-0.05592637
26	0xbd5e9b65	-0.054347415
27	0xbd11fd13	-0.03564174
28	0xbc5c4498	-0.013444088
29	0xbcb37249	-0.021905081
30	0xbd8350fa	-0.064119294
31	0xbd057828	-0.032585293
32	0xbd854329	-0.065069504
33	0xbe1152a9	-0.14191689
34	0xbccf3b76	-0.025296908
35	0xbca88528	-0.020571306
36	0xbca91e19	-0.020644234
37	0xbd8cb6b2	-0.06870784
38	0xbce1b821	-0.02755362
39	0xbd1ebe4d	-0.038755704
40	0xbcecfa85	-0.02892805
41	0x3d1066ee	0.03525441
42	0xbd6b049d	-0.057377446
43	0xbcec85ee	-0.028872456
44	0xbd4300a2	-0.047608025
45	0x3e35fe7a	0.17772856
46	0x3d33849a	0.04382763
47	0xbd0fd3d7	-0.035114136
48	0xbe0e6fed	-0.13909884
49	0xbd39d440	-0.045368433
50	0x3e248529	0.16066422
51	0x3bf8bce0	0.007590875
52	0x3cd3636c	0.025804244
53	0xbd7a6868	-0.061134726
54	0xbe6663d3	-0.22499017
55	0xbd62c445	-0.05536296
56	0xbd314b95	-0.04328497
57	0xbe098df0	-0.13433051
58	0xbe4bde14	-0.19908935
59	0xbc81567e	-0.015788313
60	0x3e734a3d	0.23758788
61	0xbc9efe87	-0.019408477
62	0xbe2ca511	-0.16859843
63	0x3e04fc56	0.12986884
64	0x3d0bbe2c	0.03411691
65	0xbdb76255	-0.08954302
66	0x3be407fa	0.0069589587
67	0x3c21ae1a	0.009868169
68	0xbd85a304	-0.065252334
69	0xbd446a0b	-0.047952693
70	0xbd7a3e94	-0.061094835
71	0xbbd3e181	-0.006466091
72	0xbe309bc1	-0.17246915
73	0xbd1ac0d7	-0.037781563
74	0x3cdf3236	0.027245622
75	0x3c98a887	0.018635048
76	0xbcf3bf91	-0.029754432
77	0xbb785578	-0.003789274
78	0xbd9bef4f	-0.07614004
79	0xbc52191a	-0.0128233675
80	0xbdcf78e7	-0.10130482
81	0xbd543794	-0.051810816
82	0xbccc0cd5	-0.024908463
83	0xbd6274f8	-0.05528733
84	0xbda407a4	-0.0800927
85	0xbd38db6a	-0.045131125
86	0xbd5624aa	-0.05228106
87	0xbd31d7d6	-0.043418728
88	0xbd81b7bc	-0.06333873
89	0xbbe13113	-0.006872305
90	0x3c3e494c	0.011614155
91	0xbcdd008e	-0.026977804
92	0xbd6fc072	-0.05853314
93	0xbdfee70f	-0.12446415
94	0xbdd584f2	-0.10425748
95	0xbdb2b653	-0.08726182
96	0xbce1de9d	-0.02757197
97	0xbda26a1f	-0.07930397
98	0xbccfd99f	-0.025372325
99	0xbc911802	-0.017711643
100	0xbcaa68b2	-0.020801876
101	0xbc9cbff3	-0.019134497
102	0xbbc07e6b	-0.005874445
103	0xbc1ff596	-0.009763142
104	0xbd2ad512	-0.041707106
105	0x3abafbf2	0.0014265759
106	0xbd50731a	-0.05089102
107	0xbe05632a	-0.1302611
108	0x3c8e1e11	0.017348321
109	0xbd7d4463	-0.061832797
110	0x3b74ed81	0.0037373009
111	0x3d380385	0.04492523
112	0xbdb25445	-0.087074794
113	0x3adbf990	0.001678275
114	0xbd67951a	-0.05653868
115	0x3b7567c2	0.0037445878
116	0xbae3fb52	-0.0017393625
117	0x3d06756b	0.032826822
118	0x3ca8c450	0.020601422
119	0xbe84cb39	-0.25936297
120	0xbda4f443	-0.08054402
121	0xbda40120	-0.08008027
122	0xbd653d2d	-0.055966545
123	0xbced1851	-0.028942259
124	0xbd9d6271	-0.07684792
125	0xbce4957d	-0.027903313
126	0xbc1e2c97	-0.009654186
127	0x3b71610c	0.0036831526
128	0xbca874fd	-0.020563597
129	0x3e2432cf	0.16035007
130	0xbd024f24	-0.031813756
131	0xbd903e01	-0.07043076
132	0xbd1ef99e	-0.038812272
133	0xbf565aee	-0.837325
134	0x3dcc45d1	0.09974254
135	0xbc9fce60	-0.019507587
136	0xbda81176	-0.082064554
137	0x3c9026c1	0.017596604
138	0x3e433537	0.19063269
139	0xbd8dc02f	-0.06921422
140	0xbf08ed9d	-0.5348757
141	0xbd3a2965	-0.045449633
142	0xbd3a84a7	-0.045536663
143	0xbc8976e0	-0.016780317
144	0x3d0a6e4b	0.03379659
145	0xbcd69ccc	-0.026197813
146	0xbcc01139	-0.023445712
147	0xbd922c00	-0.071372986
148	0xbd5d6f44	-0.05406119
149	0x3cb6d61c	0.022318892
150	0x3c50aefa	0.01273703
151	0x3c6f05f7	0.0145888245
152	0x3d18362c	0.037161037
153	0xbd20978c	-0.039207026
154	0xbd50e061	-0.050995234
155	0xbc14ebed	-0.009089452
156	0xbcaf1a67	-0.021374894
157	0xbc96fd36	-0.018431287
158	0x3c943403	0.018091207
159	0xbd861e67	-0.065487675
160	0xbcd3bc00	-0.025846481
161	0x3cf92064	0.030410953
162	0xbd8bc738	-0.06825107
163	0xbcbcf369	-0.023065286
164	0xbc954e03	-0.018225675
165	0x3e29ef2f	0.16595148
166	0x3c66b54f	0.014081313
167	0xbde7514e	-0.112948045
168	0xbd03be1d	-0.032163728
169	0xbd247d14	-0.040158346
170	0xbcfa81f3	-0.030579543
171	0xbe2e813c	-0.17041487
172	0xbcadf8e8	-0.021236852
173	0x3dd7a141	0.105288036
174	0xbd5eac82	-0.054363735
175	0xbc0da456	-0.008645138
176	0xbc0fd757	-0.008779368
177	0xbb406ee3	-0.0029362969
178	0xbcf7cf34	-0.03025017
179	0xbda906bb	-0.08253237
180	0xbd6b8e7c	-0.05750893
181	0x3ce1aec8	0.027549163
182	0x3cbc12c3	0.022958165
183	0xbc021e4e	-0.0079417955
184	0xbcea97b6	-0.028636795
185	0xbdddc401	-0.108284004
186	0xbddca8c1	-0.10774375
187	0x3adef174	0.0017009214
188	0x3cc41342	0.023934964
189	0xbe2486c2	-0.16067031
190	0xbd876ee7	-0.0661295
191	0x3cf3a91c	0.029743724
192	0xbca7900c	-0.02045443
193	0xbd1b0d32	-0.03785438
194	0xbd676a17	-0.05649766
195	0xbd7e32b6	-0.06206008
196	0x3cb4a670	0.02205202
197	0xbcd071a3	-0.025444811
198	0x3a7b62b2	0.0009589597
199	0xbca58a4d	-0.020207549
200	0x3abceeab	0.001441439
201	0xbea639bf	-0.32465932
202	0xbd1b22f0	-0.037875116
203	0xbd443151	-0.047898594
204	0xbd9f1d6b	-0.07769283
205	0x3c95ec89	0.018301265
206	0xbe3ba453	-0.18324403
207	0xbd261b98	-0.04055366
208	0xbd8df912	-0.06932272
209	0x3b26d25b	0.0025454971
210	0x3cf7bf75	0.030242661
211	0xbcf624db	-0.030046871
212	0xbe0edaed	-0.13950701
213	0xbd3d84e3	-0.04626931
214	0xbd046534	-0.032323077
215	0xbd0c670a	-0.034277953
216	0x3d53301d	0.051559556
217	0xbd2e9562	-0.04262293
218	0x3a54b733	0.0008114457
219	0xbca6fda0	-0.02038461
220	0xbd0ab8d9	-0.03386769
221	0x3d2b99ec	0.04189484
222	0xbdb4037c	-0.08789727
223	0xbd46e342	-0.048556574
224	0x3c015c4a	0.007895539
225	0x3d234125	0.03985705
226	0xbe6ee828	-0.23330748
227	0xbd1bf098	-0.038071245
228	0x3be21c8a	0.006900375
229	0xbd494c9e	-0.049145333
230	0xbd9214a7	-0.07132845
231	0xbdba9e23	-0.091121934
232	0xbdddcf53	-0.108305596
233	0xbc016c39	-0.007899337
234	0x3c1bb399	0.009503269
235	0xbe0a1df6	-0.13487992
236	0x3d38a76f	0.045081552
237	0x3c623aa5	0.013807927
238	0x3db0dcd4	0.086358696
239	0xbd3c9598	-0.0460411
240	0xbd4bfaa8	-0.04979959
241	0xbc44af3c	-0.01200467
242	0xbd0b0ddf	-0.033948775
243	0xbda793e3	-0.08182504
244	0xbedef7ab	-0.4354833
245	0x3cdc1be0	0.02686876
246	0xbd3a85ef	-0.045537885
247	0x3b0a7973	0.0021129518
248	0xbc459a69	-0.01206074
249	0x3d0ce891	0.03440148
250	0xbb89c391	-0.0042042215
251	0xbed481b6	-0.41505212
252	0xbccf9a45	-0.025342116
253	0xbc2c4a9e	-0.010515837
254	0x3d289baf	0.041164096
255	0xbd1fab9a	-0.03898201

l3.weight f4 [1, 300]
0	0xbd3cd72b	-0.046103638
1	0xba493cfc	-0.0007676629
2	0x3b68d516	0.00355274
3	0x3ca4b2e0	0.020104825
4	0x3c360f09	0.011111983
5	0x3c264b09	0.010149726
6	0xbbe33f5b	-0.006935043
7	0xbc8a3b14	-0.016873874
8	0x3e8387ce	0.25689548
9	0xbb583664	-0.0032991404
10	0x3c53001c	0.012878444
11	0xbd32b018	-0.043624967
12	0x3c92535d	0.017862016
13	0x3e9e21b1	0.3088508
14	0xbc85f3a0	-0.016351521
15	0x3d89e1a0	0.06732488
16	0xbc003829	-0.00782589
17	0x3f756195	0.95852023
18	0xbea09d19	-0.31369856
19	0x3b18b88e	0.0023303363
20	0x3cbbe50e	0.02293637
21	0x3d47edac	0.048810646
22	0x3b4b188b	0.003098997
23	0xbc75a19c	-0.014992144
24	0xbc5874b4	-0.013211418
25	0x3c25b6a5	0.010114347
26	0xbd182520	-0.03714478
27	0xbcbd97b2	-0.023143623
28	0xbc519404	-0.012791637
29	0xbc79c90b	-0.015245686
30	0xbcaefed3	-0.021361744
31	0x3d7abe88	0.06121686
32	0x3beeeb24	0.0072912145
33	0x3f021a56	0.50821435
34	0xbb34d020	-0.0027589872
35	0xbce4163e	-0.027842637
36	0xbb32f03d	-0.0027303838
37	0x3c197bc1	0.009367884
38	0xbc801d3c	-0.01563894
39	0x3c1df607	0.009641177
40	0x3eff28e1	0.49835876
41	0xbcfcfca4	-0.030882187
42	0x3b46cb65	0.0030333635
43	0x3d17aeeb	0.03703205
44	0x3904b97b	0.00012657598
45	0xbf45b767	-0.77232975
46	0x384b96fd	4.853959e-05
47	0xbb1d84fe	-0.0024035568
48	0xbce4c61e	-0.0279265
49	0xbd2c4241	-0.042055372
50	0x3eae55ee	0.34049934
51	0x3c060954	0.008180935
52	0x3e87efac	0.26550043
53	0x3ce96e7f	0.028495071
54	0x3f308e5a	0.6896721
55	0xbc444e56	-0.011981567
56	0x3b9a8e2b	0.004716655
57	0xbe519739	-0.20467843
58	0x3e606618	0.21913946
59	0xbbce46b7	-0.006295051
60	0xbf9e89f2	-1.2385848
61	0x3f967df7	1.1757191
62	0xbee8f33b	-0.4549807
63	0x3e8b69b5	0.27229086
64	0xbbc68c8d	-0.0060592354
65	0xbc859d96	-0.016310494
66	0xbbb261ec	-0.005443802
67	0x3cd32cf0	0.025778264
68	0xbf7aeb09	-0.98014885
69	0xbbc866b8	-0.0061157607
70	0x3cbf63ae	0.02336296
71	0x3d1c20bc	0.038117155
72	0xbe6c736d	-0.23090906
73	0xbd097124	-0.033555165
74	0x3c2a8260	0.01040706
75	0xc0974060	-4.7266083
76	0xbc821fdc	-0.015884332
77	0xbc0b51d2	-0.008503394
78	0x3ce1b950	0.027554184
79	0x3cd76346	0.026292454
80	0x3ea64e79	0.32481745
81	0xbd112105	-0.03543188
82	0x3e019e7c	0.12658113
83	0x3d4947f4	0.049140885
84	0x3baa525c	0.0051978063
85	0x3c099ca8	0.008399166
86	0x3d4c87c2	0.049934156
87	0x3c97a124	0.018509455
88	0xbe90171b	-0.28142628
89	0x3bedd9f3	0.0072586476
90	0xbc80c37a	-0.01571821
91	0xbca348e7	-0.019932223
92	0x3dbaea97	0.09126776
93	0xbb03f934	-0.002013755
94	0x3fe36b71	1.7767164
95	0x3bea81cf	0.0071565877
96	0x3d45a3bd	0.048251856
97	0xbb823377	-0.0039734202
98	0xb822fe98	-3.886092e-05
99	0xb9798a6b	-0.00023798055
100	0x3d49b61b	0.049245935
101	0xbb1994fb	-0.0023434747
102	0xbce36d88	-0.02776219
103	0xbc60c19d	-0.013718036
104	0x3ce36b2a	0.02776106
105	0xbc96a427	-0.01838882
106	0xbc3014a9	-0.010747113
107	0xbf445519	-0.7669235
108	0x3af503ef	0.0018693189
109	0x3c6e7c87	0.014556057
110	0xbd3c87f5	-0.046028096
111	0x3c836dd1	0.016043575
112	0x3f71274c	0.9420059
113	0xbf7d2e12	-0.9889842
114	0x3c3d0ac5	0.011538212
115	0x3c374285	0.011185293
116	0xbd964939	-0.07338185
117	0xbc6f0b0b	-0.014590035
118	0xbc8294e2	-0.015940133
119	0xbf37eca9	-0.7184549
120	0xba4cb8cf	-0.0007809521
121	0x3f58b797	0.84655136
122	0xba88bd52	-0.0010432398
123	0x3af2447a	0.0018483542
124	0x3ba52a6a	0.0050404565
125	0xbc3515af	-0.011052533
126	0x3b0d9ccc	0.002160835
127	0xbd2536e3	-0.040335547
128	0x3c71a75b	0.014749373
129	0x3f2ee2e0	0.68314934
130	0x3cd95128	0.026527956
131	0xbc52c71f	-0.012864857
132	0x3d02f17a	0.03196857
133	0x3efcf8bb	0.49408516
134	0x3f846337	1.0342778
135	0x3f70d497	0.94074386
136	0xbcd9184a	-0.02650084
137	0xbc00efbb	-0.007869656
138	0x3ed5600b	0.41674837
139	0x3d3f93a8	0.046771675
140	0x3f008588	0.5020375
141	0xbd6b5044	-0.057449594
142	0xba872863	-0.0010311719
143	0x3d213357	0.039355602
144	0x3ce0f8d8	0.027462408
145	0xbd402d75	-0.04691835
146	0x3d0d64ae	0.034519844
147	0xbd317486	-0.043324016
148	0xbbfdf603	-0.007750274
149	0xbd82539a	-0.06363602
150	0xbc6dbe66	-0.014510727
151	0x3d0ef603	0.034902584
152	0xbd350db1	-0.04420251
153	0xba5eec88	-0.0008503874
154	0x3a78d7d7	0.0009492612
155	0xbcd07e07	-0.02545072
156	0xbc849c3f	-0.016187785
157	0x3d0f03cb	0.034915727
158	0x3c9565c2	0.018236998
159	0x3c560d1d	0.01306465
160	0x3abb72e5	0.0014301209
161	0xbb982fda	-0.004644376
162	0xbc344c7c	-0.011004563
163	0x3d24ca36	0.040231906
164	0x3df56afd	0.11983297
165	0x3fd031df	1.626522
166	0x3d52dcd2	0.051480122
167	0xbc2153f8	-0.00984668
168	0xbcd4863b	-0.025942912
169	0x3d3f6dd9	0.04673562
170	0xbcf8b942	-0.030361775
171	0xbe556a89	-0.20841421
172	0x3bfed91f	0.0077773477
173	0xbdcdec8f	-0.100548856
174	0xbc973656	-0.018458527
175	0xbb028313	-0.0019914552
176	0xbe377bf3	-0.17918377
177	0xbd1e6bff	-0.03867721
178	0x3ce1ad2e	0.027548399
179	0x3e856d22	0.26059824
180	0x3da999a1	0.082812555
181	0x3c9d345f	0.019190012
182	0xbd0b2259	-0.033968303
183	0x3c8f704b	0.0175096
184	0x3b56d6a6	0.003278175
185	0x3d28a398	0.04117164
186	0x3b5223a7	0.0032064707
187	0x3d0c3670	0.034231603
188	0xbc10ae20	-0.008830577
189	0x3f25113d	0.6447943
190	0xbca30797	-0.01990108
191	0xba43c9b6	-0.0007468717
192	0xbccf317f	-0.025292156
193	0x3d0bb77f	0.034110542
194	0xbd87af7a	-0.066252664
195	0xbc32d308	-0.010914572
196	0x3cf2b9e0	0.029629648
197	0xbd3805fa	-0.044927575
198	0x3c6217d0	0.013799623
199	0xbc5d535a	-0.013508642
200	0x3b68a107	0.003549637
201	0x3c54bc92	0.012984412
202	0xbca470d7	-0.020073337
203	0x3c9d66df	0.019214092
204	0x3f87b9b6	1.060355
205	0x3bb9704f	0.00565914
206	0xbf1348e3	-0.5753309
207	0xbb2705d0	-0.0025485642
208	0xbc392112	-0.0112993885
209	0xbc80c50f	-0.015718965
210	0xbb4f50c5	-0.0031633836
211	0x3f3e9c76	0.7445749
212	0x3e45e8a7	0.19327031
213	0xbb28db69	-0.0025765544
214	0xbd5c85af	-0.053838428
215	0xbc8ef062	-0.017448608
216	0x3f522ae6	0.8209671
217	0xbc81c7f4	-0.015842415
218	0x3d4764c5	0.048680086
219	0x3f3e3dcb	0.7431304
220	0x3cf31164	0.029671378
221	0x3c254859	0.01008805
222	0x3f722e7e	0.9460219
223	0x3f395968	0.7240205
224	0x3ced45fb	0.028964033
225	0x3d2f9f16	0.042876326
226	0x3df843a8	0.121222794
227	0x3ca3f4a6	0.020014118
228	0xbcb4f84c	-0.022091053
229	0xba1d9417	-0.0006011142
230	0x3e07c184	0.13257414
231	0x3e296a4c	0.16544455
232	0x3c852013	0.016250646
233	0xbd18f56a	-0.03734342
234	0xbc556bb0	-0.013026163
235	0xbf4c8b12	-0.79899704
236	0x3c7d19b4	0.015448023
237	0x3c2ed7d8	0.010671578
238	0x4002bb9f	2.0427015
239	0xbd22bb89	-0.03972963
240	0x3b86b50d	0.0041109384
241	0xbc11bdfb	-0.0088953925
242	0x3c98ff30	0.01867637
243	0x3ce9ff54	0.028564133
244	0x400063c3	2.006089
245	0x3c402a1b	0.011728789
246	0xbd23d3d7	-0.039996948
247	0xbb03b284	-0.0020095417
248	0xbd37fea4	-0.04492058
249	0x3c349a56	0.011023125
250	0xbc3dbfc6	-0.011581367
251	0xbe9374fe	-0.28800195
252	0x3ab03784	0.0013444279
253	0xbcb0bcc1	-0.02157438
254	0xbbfb7645	-0.007674011
255	0x3c4c3f49	0.01246626
