Q3/ddpg_actor_step9700000.pth (torch, 357342 bytes, 6 tensors)

net.0.weight f4 [256, 67]
00000000: 9708 19be 9caf 723f 94c7 b83e 9ce6 8a40
00000010: 4832 93c0 c75f 1e3e 8c48 66c0 f4b8 3a40
00000020: 9713 87bf 25d9 4c3e 4c2b 8e3e 350d 18bf
00000030: cd9f 3cc0 b54d 6f40 b416 13c0 2b4a 75c0
00000040: 7a5e 30bd 5240 e93f 83f8 a5be 9578 543f
00000050: 6104 b3bf 8a09 9a40 877b 573f 0755 1bbe
00000060: f7e6 19bf 32f9 ff3f 105e b93f d85d fb3f
00000070: 1f33 343f 3744 473f 8b3f 54bf 614b 583d
00000080: 7e32 1140 ad0e 653e 3b7d 5fbe 7d96 d2be
00000090: c6e8 c23f 563e acc0 3158 ae40 09fb 0cbe
000000a0: 69d6 58be 7837 103e 085b c03e 565b 6d3d
000000b0: 2d47 493f 0270 2d3d a2ab 9dbd c93f 213f
000000c0: 4fab 98bd 4a95 ff3c 7ebd b5bc 02d1 0b3e
000000d0: 99b8 cdbd 5796 7ebd ec8c 98bd bf0a 743e
000000e0: 1fce a53e cd8b 003f bc28 efbd 6ee7 003e
000000f0: 3647 7ebd 8657 8cbd ff2d 873e 1544 d33d
00000100: 4b43 b4bd 7d34 d5bc 0c7d aeba 9aad ebbe
00000110: de02 b4bd 4664 37bf 9fa2 5b40 04e9 e4bf
00000120: 89ab 88bf 23a6 943e ce9f 04c0 afc6 eabf
00000130: 6cf1 25bf d324 77bf 9c69 c4be 75e3 3c3f
00000140: 4edf 7ac0 738f 51c0 8146 eabf 75e4 68be
00000150: 573b b5be 4eb7 a9bf bc5b 6b3f 1009 913f
00000160: 906b 2740 5c48 c040 4e92 c6bf 8565 2abf
00000170: 95a8 8b3f 4304 24c0 f9cf 3b3f 2b49 85bf
00000180: 8ddc 5b3f 2c6f d43e a19f cc3d 57e3 61bf
00000190: 76d3 80bf db17 b6bf 3acf 62bf e425 9b3e
000001a0: 58be 0441 f6c2 9bc0 4bd1 dfbf b6c6 ecbe
000001b0: fc8d be3e baf5 16c0 14dc 783f 4ffb 27be
000001c0: cf63 79be c464 8fbe 4a6f d33c a3ce 6d3c
000001d0: cf3d 55be aa58 313e 4751 8dbe ab29 573e
000001e0: ffc9 9bbd 0383 c23d 1311 c2be 3c1b f0bd
000001f0: 9ac1 533d 1f34 f83d 0faa 153d 150d c6bc
00000200: 2417 2abe 180a 66be 17f8 39bd e290 8abd
00000210: b53d 103d f31f 113d f1b5 c63d f40e 33bf
00000220: 1c6a 523f 8602 44c0 9aaa 143e 4f8e 0fbf
00000230: 8191 1c40 6af4 e040 b1e9 e2be beb3 7dbf
00000240: 0895 813e 82b6 9f3b c048 573f 7bc5 71bf
00000250: d58c 8a40 18d9 14c0 2b94 84c0 ea51 35c0
00000260: ead1 1840 bfe3 f1be a8cd d5bf 75f0 0ac0
00000270: 2940 5f3f 366f 903f b68a 51be fff4 33c0
00000280: 649f 0040 b8e8 5f40 6f3e bbbf 6c86 623f
00000290: 62ab 2f3f 2778 f0be acd1 653f df7d 8bbf
000002a0: 2ce9 26be c8f2 7e3e 3670 0d3f 7732 ff40
000002b0: cdb8 10c0 1185 e6bf 7ada dcbe 2b7a 033f
000002c0: bd09 e9be 8af5 523e 21f5 6abf 5139 813e
000002d0: c3d6 0c3e a90f 92be d044 d53e d7cf 0f3e
000002e0: c43a 68bd ac3a 54be b155 c4bd 96c4 cd3c
000002f0: 2f20 de3d 1a1d c7be 9fc2 ac3d 9e71 bf3d
00000300: 74c1 60be 8dff 1c3e 2a41 903d f1f0 11be
00000310: ddaa 85bd d13c dabd fb91 73bc c4ba 143b
00000320: a164 72bd 101b 17be eab3 06bf 20ff 353f
00000330: 866a 933e bce8 e8bf 6314 64be 2e4e 2cc0
00000340: 992a 0d3f d02c e93e f7ab 07c0 d605 413d
00000350: 0034 863f 085e e3bf 0b1f 2040 44b3 a43f
00000360: 9fbc 4fc0 47f3 debf 1a6e 1540 e51a 14c0
00000370: a33d a240 152b 0d40 6862 d440 5d89 6abf
00000380: 70bd 2e40 e4e7 c83f 793b 8140 a878 ab3d
00000390: 5840 d83e 0581 883f 3f69 9abf 1b40 28bf
000003a0: 46cd bebe 1b58 613e a38e 7cbe 7337 45be
000003b0: 7e78 26bf a404 92be 780c b03e 1329 d23f
000003c0: cfe4 ccc0 2545 42bf 24e8 4e3f d1e5 893f
000003d0: 234d 7f3f 7d88 5c3e 15b8 53be a346 0ebf
000003e0: 8b0d 443e 4d1e 59be 24e7 c3be 451b 9fbe
000003f0: 384f 8fbc 2a48 39be 46f5 973d 2d62 f23d
-0.14944683 0.9479921 0.36089766 4.3406506 -4.599888 0.15466224 -3.598178 2.9175386
-1.0552853 0.20004709 0.27767408 -0.5939515 -2.9472535 3.7391179 -2.2982607 -3.8326519
-0.04305885 1.8222754 -0.32416162 0.82996494 -1.3985711 4.8136644 0.8417286 -0.15169154
-0.6011805 1.9997923 1.4481831 1.9638014 0.70390505 0.7783846 -0.8290946 0.052806262
2.2687068 0.2236888 -0.21825115 -0.41130438 1.5227287 -5.3826094 5.4482656 -0.13767637
-0.21175541 0.1408366 0.3756945 0.057948433 0.7862423 0.042343147 -0.07698752 0.62987953
-0.074545495 0.031199116 -0.022185083 0.13653949 -0.10044975 -0.062155094 -0.07448754 0.23832224
0.3238382 0.5021332 -0.11677691 0.12588283 -0.06207963 -0.06852631 0.2640228 0.1031572
-0.088018976 -0.026026005 -0.0013312413 -0.46030885 -0.087896094 -0.7163738 3.4318006 -1.7883611
-1.0677348 0.29033002 -2.0722537 -1.8341883 -0.64821506 -0.96540564 -0.38361824 0.7378457
-3.9198794 -3.2743804 -1.8302766 -0.227434 -0.35396835 -1.3259065 0.9193685 1.1330891
2.61594 6.008833 -1.5513399 -0.66561157 1.0910822 -2.56276 0.73364216 -1.0412954
0.8588341 0.41491067 0.09991384 -0.8823752 -1.0064533 -1.422603 -0.8859745 0.30302346
8.296471 -4.867549 -1.7485746 -0.46245354 0.372177 -2.358748 0.9721081 -0.1640446
-0.2435448 -0.28006566 0.025809903 0.014514598 -0.2082436 0.17318979 -0.27601072 0.21011989
-0.07606887 0.09497645 -0.37903652 -0.117239445 0.051698305 0.12119316 0.036539134 -0.02417616
-0.1661039 -0.22464788 -0.045402613 -0.067659155 0.0352151 0.03543086 0.09702671 -0.6994469
0.8219316 -3.062654 0.14518204 -0.5607652 2.4463809 7.0298357 -0.44318917 -0.9910239
0.25309014 0.0048740515 0.8409538 -0.94441956 4.3296914 -2.3257504 -4.143087 -2.8331246
2.3878121 -0.4724407 -1.6703386 -2.1709263 0.87207276 1.1283939 -0.2046307 -2.8118284
2.0097284 3.498579 -1.4628428 0.8848636 0.68620884 -0.4696667 0.8977306 -1.0897788
-0.16299886 0.24897301 0.55249345 7.9749103 -2.2612793 -1.8009359 -0.43135434 0.5135829
-0.45515242 0.20601478 -0.9178029 0.2523904 0.137538 -0.28527573 0.41654062 0.14044128
-0.05669667 -0.20725507 -0.09586657 0.025118154 0.10845982 -0.3888939 0.084355585 0.09347843
-0.21948797 0.1533186 0.07043679 -0.14252068 -0.0652673 -0.10656131 -0.014866347 0.0022694329
-0.059178 -0.14756417 -0.5261828 0.71092415 0.28792208 -1.8196025 -0.22273402 -2.6922717
0.55143124 0.45542002 -2.119871 0.047124706 1.0484619 -1.7763071 2.5018947 1.2867208
-3.2458875 -1.7417992 2.334845 -2.3141415 5.070024 2.2057545 6.6370125 -0.9161585
2.7303123 1.5695767 4.03851 0.08372623 0.4223659 1.0664374 -1.2063369 -0.6572282
-0.37265986 0.22006266 -0.24663787 -0.19259433 -0.65027606 -0.28519166 0.34384513 1.6418785
-6.4029307 -0.75886756 0.8082297 1.0773259 0.99727076 0.21536441 -0.2067569 -0.55576533
0.19145791 -0.21202965 -0.38262284 -0.31075493 -0.01749383 -0.18093935 0.07419829 0.11835132

net.0.bias f4 [256]
00000000: 195b 62be 52c6 643f 1aae 86bf a751 253f
00000010: b6f1 333f d6a4 ebbe ad25 bfbe 3246 753d
00000020: ccf5 ccbf b9e3 92bf 3a3a 203f a7dd d7bd
00000030: f985 fa3c 916c c2be 512c e3bf 6124 2ebf
00000040: 9a32 69bf 816c ecbe 3646 c33f a1a8 65bf
00000050: 5670 c5bf 770a 8b3e d5cf f5bf cfb9 18bf
00000060: 760f 4cbf 2d49 ddbf 8c44 3dbe 9e24 62bf
00000070: 0655 2fbf 7605 19be 1826 a13e 8383 d2bd
00000080: 0d16 c5be f361 813f e16d 4b3d 9798 a43f
00000090: b65e 58be 481e 2dbe 5769 763f 955e e3be
000000a0: c232 393e 0712 e3bf 14c1 3b3f d3d9 9a3b
000000b0: 2c68 6a3f ca5a 21be 89e2 163e 5246 d4be
000000c0: 7b51 7cbf 76f3 b8be 6f57 2a3f 6da4 2dbf
000000d0: 3877 533f 6c1d 943f edf5 a13e f4c7 36bf
000000e0: fbe5 d53e 311f 0340 5fb6 e5bf fb0a 85be
000000f0: 63ad f9bf ffd1 bdbe 05d0 18bf 4661 9b3e
00000100: bd2a 263e ee4d 06bf c548 703f eea9 cabe
00000110: 4897 06bf e30f 1ebf 6317 66be 1298 62bf
00000120: 0404 53bf 3a32 98bf 47da 66bf e275 2bbf
00000130: 64d8 7bbf dd60 0bbf 7f7f 3cbf 6e51 ca3d
00000140: 13ba 4e3f c242 99bf c9b0 bdbf fc9d 543f
00000150: ebad a2bf 9f5b 26bf c988 f33e 8fba 6dbf
00000160: b807 fabd 3258 d23e 8450 163f eaaf 1a3f
00000170: e75d 1cc0 9a4a 44bf f1a1 c7bf a249 703c
00000180: acea d7bf 68ac 64bf 3ce5 65bf 2c4e 39be
00000190: 3a49 30bf eb65 54bf f61e 0f3f 0821 92bf
000001a0: 15ea 073e 8a5f 84bf 50e4 d8bf b018 ec3e
000001b0: 9531 64bf 237c c0be 6395 23be ea7a 24bf
000001c0: b487 01bf 6ee6 383e 2f96 e8bf 35c0 0abf
000001d0: 4f1b ebbe befa 193f 473e 7abf 5122 56be
000001e0: 1f96 bc3e c57d 4ebf 6de3 6e3f 6f14 6fbf
000001f0: 8c99 b93e 8805 e3bd af2f 56bf 826d 72bf
00000200: 59eb bb3f b0de d53e 28fb 53bd fbf5 123d
00000210: 7972 45bf 7dbc 78bf 0d6b 8b3e b5b2 98be
00000220: 85c7 7dbf e6e0 4b3d bf86 e9be 27f0 833e
00000230: 0e93 1fc0 ee4a 16bf d18b 92bf 880e 95bf
00000240: 5d1e 153d 3386 bcbf 09e8 7dbf 3cc2 68bf
00000250: 4205 15bf 4636 44bf d221 ec3f 8bb9 15bd
00000260: 3a69 823e 1943 efbf 6cd2 a0be c1b5 c03d
00000270: a3b1 b23f 56d7 0a3f ca5e 93bf 641b 82bf
00000280: 96c6 09c0 d5b2 a9bf 353c e33d 847f 903e
00000290: b9d0 1ac0 5bca 133f 4503 0e3f abe0 96bf
000002a0: 39cf 333f 2cff 9b3f 5b08 2ebe 886b 593d
000002b0: 2575 0c3f 1151 a93e db20 c2bf 62b3 afbf
000002c0: c4af 79bf c5ed 95bf 0c4f 15bf f395 9bbe
000002d0: b6c9 ad3e 6cb1 723f 9364 7b3e 5180 753e
000002e0: 2975 c9bf 6685 973c 8528 a0bf 64c6 debf
000002f0: ab1b e7bf f0b9 11bf ac4e 29bf 0c78 183f
00000300: db39 80bf c22c 223d 05a8 cdbf e9df 3fbf
00000310: fa9e afbf c98f f6bd cfd2 983e 76c9 6ebf
00000320: 55cd 33bf c3b4 4fbf 77de 9cbf 936d 653e
00000330: 653b 4ebe f262 80bf 8bda b6bd 7f80 4bbf
00000340: b86f 253e a28f b4be c4d2 0bbf 498f 70be
00000350: 2d4f f5bd ae39 d3bf 4421 58bf 9818 69be
00000360: cf89 94bf ac4c 00bf f55b 6dbf 52f3 433f
00000370: 8d1b 3dbf 5b95 2bbf c6e7 15bf 2fb1 ef3f
00000380: 7234 dd3f 4d9d fbbb 534d 9cbf bcc2 06bf
00000390: ae40 05c0 acbf 333e 72dc 3abf f0cd b73f
000003a0: a148 273f 74ab 06c0 aa0a a0bd 37b1 c1bf
000003b0: a81d 7cbf 6c11 853e 1b90 263f bf9d dabf
000003c0: 4153 bdbf bc71 94bf 1317 cabf 51ca 85bf
000003d0: 90ea 70bc f603 be3e 1bde e4bf d101 8c3f
000003e0: 6050 aa3f 425c b1bf 0adf cd3e 1328 0f3f
000003f0: 7d7b dabf cc87 4bbf e576 27be f181 d33e
-0.22105063 0.8936511 -1.0521882 0.64577717 0.70290697 -0.46024197 -0.37333432 0.059881397
-1.6012511 -1.1475745 0.62588847 -0.10540324 0.030581461 -0.37973455 -1.7747899 -0.6802426
-0.91092837 -0.46176532 1.5255802 -0.8971043 -1.5424907 0.27156422 -1.920405 -0.5965852
-0.7971109 -1.7287956 -0.1848318 -0.88337123 -0.6848911 -0.1494349 0.31474376 -0.1027899
-0.38493386 1.0108017 0.049665336 1.2859067 -0.2112988 -0.16906083 0.96254486 -0.44408098
0.18085769 -1.7739877 0.7334149 0.0047256737 0.91565204 -0.1575729 0.14734854 -0.414599
-0.9856183 -0.36123246 0.66539663 -0.6782902 0.8260379 1.1571479 0.3163294 -0.71398854
0.41777024 2.0487788 -1.794628 -0.2598494 -1.9506038 -0.37074277 -0.5969241 0.3034765
0.16227241 -0.5246266 0.9386104 -0.3958277 -0.52574587 -0.6174299 -0.22469859 -0.8851329
-0.82428 -1.1890328 -0.90176815 -0.6697675 -0.9837706 -0.54444677 -0.73632044 0.09878813
0.80752677 -1.1973498 -1.4819576 0.83053565 -1.2709326 -0.6498355 0.47565296 -0.9286279
-0.122085035 0.41082913 0.5871661 0.60424674 -2.4432313 -0.7667633 -1.5596296 0.014665993
-1.6868491 -0.8932557 -0.8980291 -0.18096226 -0.68861735 -0.82968014 0.5590662 -1.141633
0.13272889 -1.0341656 -1.6944675 0.46112585 -0.89138156 -0.3759471 -0.15974955 -0.6425005
-0.5059769 0.18056652 -1.8170832 -0.54199535 -0.45919272 0.6014823 -0.9775128 -0.20911528
0.36833283 -0.8066066 0.93315774 -0.93390554 0.3624996 -0.110850394 -0.8366651 -0.94698346
1.4681197 0.4177146 -0.051753193 0.035879117 -0.77127796 -0.9716261 0.2723011 -0.29823843
-0.9913257 0.049775027 -0.45610616 0.2576916 -2.4933505 -0.58708084 -1.1448919 -1.164506
0.03640591 -1.4728454 -0.9918218 -0.9092138 -0.5821115 -0.76645315 1.8447821 -0.0365539
0.25470906 -1.8692352 -0.3141054 0.09409667 1.396046 0.54234827 -1.1513302 -1.0164609
-2.1527457 -1.32577 0.11095468 0.28222287 -2.4189894 0.57730645 0.5547374 -1.1787313
0.7023807 1.2187247 -0.16995375 0.053081065 0.5486625 0.3306966 -1.5166277 -1.3726618
-0.9753382 -1.1713187 -0.5832374 -0.3038784 0.33942956 0.94801974 0.24550085 0.2397473
-1.573888 0.018496227 -1.2512366 -1.7404294 -1.8055319 -0.56924343 -0.6613567 0.59558177
-1.0017656 0.039593466 -1.60669 -0.74951035 -1.3720391 -0.120391436 0.29848334 -0.93276155
-0.70235187 -0.81135195 -1.2255391 0.2240508 -0.20139845 -1.0030196 -0.089284025 -0.79492944
0.16155899 -0.35265833 -0.5461848 -0.23492159 -0.11977992 -1.6501977 -0.8442576 -0.22763288
-1.1604556 -0.5011699 -0.9271844 0.7654315 -0.73870164 -0.67024773 -0.58556783 1.8725947
1.728163 -0.007678664 -1.2211097 -0.5264089 -2.0820727 0.17553586 -0.7299262 1.4359722
0.653452 -2.1042147 -0.07814534 -1.5132207 -0.9848275 0.25989854 0.6506364 -1.707939
-1.4791032 -1.1597209 -1.5788292 -1.0452367 -0.014704362 0.37112397 -1.7880281 1.0938054
1.3305779 -1.385628 0.40209228 0.55920523 -1.7068936 -0.79504085 -0.16353948 0.41310075

net.2.weight f4 [256, 256]
00000000: 682e c3bb 73e4 23be 5216 ae3f e71a 13bd
00000010: ba5c 903f 8f76 813f 42fc f73f a74a 563f
00000020: 843f 983f 1ce2 5cbe ac1f b83e cd25 09bf
00000030: e9a3 79bf a816 0e3f 9021 97bf a37c 693d
00000040: e38d 49bf 2258 a23d 39ea 56be 0c0b 9e3f
00000050: 877a 503c deba d63f d81d 97bf a5fd 3ebf
00000060: 2495 05bf 31d3 bcbc 2e1a ce3f 0437 b6be
00000070: 283f 95be c9dc b6bf 8cb9 a63f a393 0d3e
00000080: acc7 0ebf 92b6 9bbf 1f4a d83e ebf7 babe
00000090: d6c0 a83f 2904 6dbe bdd8 44bd 47c2 8f3e
000000a0: 54a0 3b3f fb47 0d3d 1aa6 b4be 730d 06c0
000000b0: 92fc ae3f ec77 5bbf 5294 a53f 96d4 98bf
000000c0: cb90 dc3e 7344 8ebf da3e 91bf 98c3 753e
000000d0: b657 98bf 6725 a3bf 9734 b33e f11f 913f
000000e0: 4b46 003f 5acb 533f 2901 a6be 306a dc3f
000000f0: 34ca fcbf c938 01c0 8d4f a2bd 0d94 6a3f
00000100: a2f0 133f 6f83 b23f c2b8 033f 8304 ddbe
00000110: b9a6 67be 385f 5dbf 4a3a 703e ab90 b43f
00000120: c606 9c3d 7173 23c0 d540 2c3f afa0 0d3f
00000130: 783c cfbe 3668 c1be 78aa afbe 1adf 093f
00000140: dfa6 22bf 9ccc cdbe bf68 fabe 2caa 623e
00000150: 7ab1 0cbf 50ee 34bf a170 aabf c4c5 b7bf
00000160: 76d9 30be a2f8 7bbf eb80 62bf f567 e0be
00000170: fd66 13be 8422 24bf df29 8e3e 8c06 233e
00000180: 62b2 eabe cbe0 803f 69e2 1d3f 0a75 ebbf
00000190: 5ba3 da3f 35d5 6b3f 2ccb e5bf cded afbe
000001a0: fbb7 0abe 07b4 2cbc ce2f de3e bcb5 353f
000001b0: a69e 3cbe 3d3a 8dbf b3c5 db3f 08bd 9fbf
000001c0: 4551 a33f 9ebe 973e 7d12 bebe 5ca5 05bf
000001d0: 30d1 1abf f950 37bf b5d0 f5bf 8b2b 4abf
000001e0: a308 823f 5171 4f3e cc33 35c0 bd02 4dbe
000001f0: 247b b6be bde8 ce3e 7e49 bdbe 121d e53e
00000200: 8585 59bf 5839 603e 594a a23e d43c 2c3f
00000210: 8901 3dbd 6c4c e4be 8869 4f3f 4230 b83f
00000220: b008 cabe 8ad4 afbe 01e3 93be eca9 91bf
00000230: e01c 9cbf 72ef 303f d304 fd3c 4773 d33f
00000240: 72b9 18bf 9013 303e 954b 97be c935 953c
00000250: 9346 d3bf 12e2 bcbf e580 9dbf 143a 48bf
00000260: 4c55 28bd 0d38 2d3f 3374 21be 83cf 0dbf
00000270: c532 91bf c7df f13f 1b2c 983f 4b69 38bf
00000280: 6107 89be 2a46 cdbf 8417 55bf e1b1 bd3e
00000290: 80fe 08c0 c7a9 a3be 14a6 18be 1c64 75bf
000002a0: 503c 5dbf 8875 0cbf cdc5 d3bf 6143 8f3f
000002b0: 06ab 563f 2c69 e83d 08f7 ae3e 0300 acbd
000002c0: 2a98 9bbe 8336 4abf 79fb 263f 7452 b33d
000002d0: 01e4 ddbe 2f10 51be 5a28 9b3f f562 3bbf
000002e0: ccae 97bb 3a08 093f 6ee8 e93e 70ff 293e
000002f0: 5838 193f 0da1 0c3d 9de1 b2bf 80f5 90be
00000300: e068 933e edae 12bf a2f3 633f fa5d 2cc0
00000310: df0b ed3e 939a 253e a408 0dbf 51b1 963d
00000320: 2c90 e2bf 1572 96bd 30aa 88bf 52a9 b03f
00000330: 47dc a3bd 8e23 623e 8084 7c3e 8419 813f
00000340: caed 6d3f 0ef3 3c3e 9aea 1ac0 e1b7 ba3e
00000350: d7c4 d1bf ddcf 553e 1ecd 6e3e fbe5 093f
00000360: e173 9f3f 83d6 a73f e732 e53f bbf1 9e3e
00000370: 1e59 4dbf c582 c8bf 6ad7 7d3e f122 afbf
00000380: 48ab d93e 8158 183c 6ffd 18bf 8144 7cbf
00000390: 0776 7fbf a9df b53f f0c7 8d3e fcfb 263f
000003a0: 5666 9dbf dfb0 3abf 976f c8be 2d35 88be
000003b0: 792f d23e 5730 b0bd b273 99bf 900b 1a3f
000003c0: f57b 3a3f dbf9 42bf ab13 3bbe 5466 b5be
000003d0: a166 03bf 4ec8 12c0 0ec4 393f e0f4 063f
000003e0: a59c c0bf f100 e2bf 8f7c c13c 55a3 c7be
000003f0: 10ec 8b3d 959c 313f b1c0 a13e 1bec 28bf
-0.00595646 -0.16005115 1.3600562 -0.035914328 1.1278298 1.0114306 1.9373858 0.8370766
1.1894383 -0.21570629 0.35961664 -0.53573304 -0.9751573 0.5550332 -1.1807117 0.05700363
-0.78732127 0.07926966 -0.20987786 1.2347121 0.012724525 1.6775777 -1.1805983 -0.7460578
-0.52180696 -0.023049923 1.610174 -0.3558885 -0.29149747 -1.4286128 1.3025374 0.1382585
-0.55773425 -1.2165091 0.4224405 -0.3651727 1.3183849 -0.23146118 -0.04805826 0.2807791
0.73291516 0.034492474 -0.35282975 -2.0945709 1.3670828 -0.8572986 1.2935889 -1.1939876
0.43079218 -1.1114639 -1.1347306 0.24000394 -1.1901767 -1.2745789 0.3500106 1.1337873
0.5010726 0.82732165 -0.3242276 1.7219906 -1.9749207 -2.019091 -0.07925329 0.9163216
0.5778905 1.394636 0.51453793 -0.43167505 -0.22622193 -0.8647342 0.23459736 1.4106649
0.076184794 -2.553921 0.67286426 0.5532331 -0.40475821 -0.3777482 -0.34309745 0.5385605
-0.63535875 -0.40195167 -0.4890804 0.22135228 -0.5495831 -0.70676136 -1.3315622 -1.4357228
-0.17270455 -0.9842626 -0.88477963 -0.43829313 -0.14394756 -0.64115167 0.2776632 0.15920466
-0.4583922 1.0068601 0.616736 -1.8395092 1.7081102 0.92122203 -1.7952628 -0.34361115
-0.13546745 -0.010540969 0.43395847 0.7098043 -0.18419895 -1.1033398 1.7169708 -1.2479563
1.2759176 0.29637617 -0.3712348 -0.52205443 -0.60475445 -0.7160793 -1.9204317 -0.7897269
1.0158886 0.2025807 -2.8312864 -0.20020576 -0.35640824 0.4041194 -0.36970133 0.4474874
-0.8496936 0.21896875 0.31697348 0.67280316 -0.046144042 -0.44589555 0.810204 1.4389727
-0.39459753 -0.34341842 -0.28884128 -1.1379981 -1.2196312 0.69115365 0.03088609 1.6519555
-0.5965797 0.17194963 -0.29549852 0.018214123 -1.6505913 -1.4756491 -1.230496 -0.7821362
-0.04109697 0.6766365 -0.15766983 -0.5539476 -1.1343619 1.8896416 1.188846 -0.72035664
-0.26763442 -1.6037037 -0.83239007 0.37049773 -2.1405334 -0.31965467 -0.14907104 -0.9585588
-0.86420155 -0.5486684 -1.6544739 1.1192437 0.8385471 0.11348185 0.34172845 -0.0839844
-0.3038953 -0.7898943 0.65227467 0.08755961 -0.43338016 -0.2041633 1.2121689 -0.7319787
-0.0046289917 0.5352818 0.45685142 0.16601348 0.598516 0.034333277 -1.3975102 -0.28312302
0.2879095 -0.57298166 0.8904363 -2.6932359 0.4629812 0.16172247 -0.5509131 0.07358039
-1.7700248 -0.07345978 -1.0676937 1.3801672 -0.08000999 0.22083876 0.2465992 1.0085912
0.9294096 0.18452093 -2.420569 0.36468413 -1.6388196 0.20880075 0.23320433 0.5386655
1.2457238 1.3112339 1.7906159 0.310438 -0.8021411 -1.5664908 0.24789205 -1.3682538
0.4251349 0.009298445 -0.5976171 -0.9854203 -0.9978947 1.4208881 0.27691603 0.6522825
-1.2296855 -0.72926134 -0.39147636 -0.2660307 0.41051844 -0.0860297 -1.1988432 0.6017389
0.72845393 -0.761625 -0.18269221 -0.35429633 -0.51328474 -2.2934756 0.7256478 0.527174
-1.5047804 -1.7656537 0.023618964 -0.389918 0.06832135 0.6937955 0.31592324 -0.6598527

net.2.bias f4 [256]
00000000: d03e 71bd 5762 cb3e 8ecf a33d 8804 a1bf
00000010: f0c4 cabd da36 10bc 5960 d7bd 6a67 c8be
00000020: e6fd 13bf 954d 2fbd 607b 4bbe 3e13 3abe
00000030: 5814 8dbf 2cbd b8be ef8c 6bbe 1915 86be
00000040: bab0 e13d 38e3 f8be c8eb 20bf 1adb 10bf
00000050: 7b99 e23d b711 bebe 4229 c93e f790 c4be
00000060: 0f89 98bd de5a 32bf 1022 15be 2e85 0a3f
00000070: c106 06bf cff6 b9be 6004 a53d 1dc8 93be
00000080: 1e6c 91bf 651f d7be e7b5 a53e 4973 233e
00000090: 3fc9 70bf 7181 02bf 3a9b 9abd 120b aabd
000000a0: af21 da3e 8e99 32bf a2a5 87be 6bad 79be
000000b0: d2e9 1abe 6aa8 78be 9d0c 90bf bf63 f8be
000000c0: 17b3 44be ba37 3dbf ad4f 3dbc 2137 a7be
000000d0: 5295 fbbe 020c 413f 1b4f 3ebe 4c65 2abf
000000e0: 05b4 993d f20c 193d 508b 52bf c93d 29be
000000f0: 3fc6 da3d f64e 56bf d316 a3be 6929 7fbf
00000100: 9b7e 11bf 8897 cabe 83e5 ccbe d892 c23d
00000110: 1f40 80be a0ed 3abe 355f 8fbd b77b d3bd
00000120: a79e c0be f972 093e 04e6 703e 7d58 9e3d
00000130: 4c0c b83c 723f 88be b383 ccbd 176a c9be
00000140: 7281 3d3d 3936 183e f2d0 c7be 7207 07be
00000150: 28c9 85bd 00f9 89bf 7bbc afbe 6edf f4bc
00000160: 004c c23e 439a 63bf 890a 20bf 12ff 0abf
00000170: a41e bebe cd02 103f aa8e f83c 369e 32bf
00000180: afc0 0cbf 963b c1be 67d7 db3e 97b9 78bf
00000190: 98c1 0fbd 56e3 a8be f48d 923c a729 0d3c
000001a0: e819 05bf 159e a5be 68d6 1bbf 0089 cabc
000001b0: dd28 453f 45da 7cbe 0274 213d 990f d3be
000001c0: 9678 86be 971a 3cbf 21b7 e0be 9b52 99be
000001d0: 32e7 933e d387 c0bd 7241 48be 0b07 833e
000001e0: 8497 bebd 3a62 89bd 9001 b93e be8c e0be
000001f0: abfd 313e 177f c2be 405d c4bd b31b 0dbe
00000200: a4bb a2bc cc8a 27bf 6fbc a9be e2c8 10bf
00000210: 5f07 94be aa1a 103e 98a6 7abe 943c 45bf
00000220: e1b3 823e b34b 98be 769b 16be 632b 6bbe
00000230: 0563 d1bd a416 23bf 1045 49bf 560f 19bf
00000240: 754f 8f3e 8c7c e8be f3ab 6abe b3f1 afbe
00000250: e7b1 24bd 7f3d 173e d2d1 efbe d4fa 283f
00000260: 3e8b 23be af2b 70bf 6337 1ebf cd73 80be
00000270: fc09 a7be 909f 4fbe 94a6 28be bfb7 883d
00000280: bb35 2bbe ee00 47bb 7664 f2be 0d58 8dbe
00000290: 1ac7 22be f7dc 1abf c041 c63e 24dd 2abe
000002a0: 3d31 c23e 90ef 1abe 2fae 0f3e f966 9a3e
000002b0: 7d65 53bc 9e59 9cbe 8f57 22be 4363 c1be
000002c0: 6710 84bc 068b 8d3e e55c 36bf 6c48 77be
000002d0: 46ad 86be dad6 51bf 2847 1abe 1dd3 33be
000002e0: 010a f3be 2202 64be 5393 753d 2bc2 d6bc
000002f0: cc4f c1be 864e 793d 892b 17bf e55d 45bf
00000300: ee8f 18bf 9e38 16bf 6d67 cd3e bad1 8c3e
00000310: 7aee febe eb83 c33e 64a0 f83c 66aa 6bbe
00000320: c552 e5be 24ef e8be a72f 15be bc06 b3be
00000330: 7b36 19be e600 ddbe ec35 21bf c823 6cbe
00000340: 81b0 c73e 0d83 88bd cb83 11bf e0b0 4abf
00000350: 0bd3 273f f33f 83bd baae d1bc 4d76 ce3c
00000360: 2e44 13bf 410f da3d 1827 09bf f4fa 9dbe
00000370: 9337 e1be ad62 ae39 5ead 1f3f 7180 edbe
00000380: ae2d ba3d 8189 273d 2fda 77bf 8f9e bebe
00000390: b355 b0bd 0155 26bf 1fd0 debe f62f b7bc
000003a0: e1df 46bf 5f85 35bf c8b7 4bbf 1a7b 4bbe
000003b0: b8ea 303f cab3 7cbe fde3 593d 81c6 b0be
000003c0: cfcc 5bbf 3e46 68bf a9b0 073f f782 febe
000003d0: a0c7 03be 937b 9dbe 5737 27bf 49a1 cdbe
000003e0: 59a9 3cbf a38e 5b3e 3027 b4be 3b7e b5bd
000003f0: 62b7 19bf 258c 0bbf 6220 c53d e7e3 edbe
-0.058897793 0.39723465 0.07998572 -1.2579508 -0.09900844 -0.00880214 -0.10516424 -0.391414
-0.57809293 -0.042798597 -0.19871283 -0.18171403 -1.1021833 -0.36081827 -0.2300298 -0.2618797
0.11020036 -0.48610854 -0.62859774 -0.5658432 0.1106443 -0.3712289 0.3928929 -0.3839185
-0.07448017 -0.696699 -0.14563775 0.54109466 -0.52354056 -0.36321113 0.08057475 -0.28863612
-1.136112 -0.4201614 0.32365343 0.15961947 -0.9405708 -0.5097876 -0.07549138 -0.08302893
0.42603824 -0.69765556 -0.26493555 -0.2438256 -0.15128258 -0.24282995 -1.1253849 -0.485136
-0.19208942 -0.73913157 -0.011554641 -0.32659248 -0.4913736 0.7540895 -0.18584864 -0.66560817
0.07505039 0.03736586 -0.82243824 -0.16527475 0.10682344 -0.83714235 -0.3185335 -0.9967256
-0.5683381 -0.39568734 -0.40018854 0.095006645 -0.2504892 -0.18254709 -0.07000581 -0.10326331
-0.37621042 0.13422765 0.23525244 0.077317216 0.022466801 -0.26610905 -0.09986057 -0.39338753
0.046266027 0.14864434 -0.390266 -0.13186434 -0.06532508 -1.0779114 -0.34323487 -0.029891696
0.37948608 -0.8890726 -0.62516075 -0.54295456 -0.37132752 0.56254274 0.030341465 -0.6977266
-0.5498151 -0.37740773 0.42937776 -0.9715819 -0.035096735 -0.32985944 0.017889954 0.008615888
-0.51992655 -0.3234717 -0.6087403 -0.02472353 0.7701548 -0.24692638 0.039417274 -0.41222838
-0.26263875 -0.7347807 -0.43889716 -0.29945835 0.28887326 -0.094009064 -0.19556215 0.2559131
-0.09306243 -0.06708188 0.36134005 -0.43857378 0.17381923 -0.37987587 -0.095880985 -0.13780098
-0.019864865 -0.6544616 -0.33151576 -0.5655652 -0.28911874 0.14072672 -0.24477613 -0.7704556
0.25527862 -0.29745254 -0.14707741 -0.2296577 -0.102239646 -0.6370642 -0.78621006 -0.59789026
0.27990308 -0.45407522 -0.22917156 -0.3436409 -0.040208723 0.14769553 -0.46839768 0.66007733
-0.15971085 -0.93816656 -0.61803263 -0.2508835 -0.32624805 -0.20275712 -0.16469795 0.06675672
-0.16719715 -0.0030365544 -0.4734227 -0.2760624 -0.15896264 -0.60493416 0.38722038 -0.16685921
0.3792819 -0.15130448 0.1403129 0.30156687 -0.012902615 -0.30537122 -0.15853713 -0.37771043
-0.016121102 0.2764513 -0.71235496 -0.2414872 -0.26304072 -0.8196846 -0.15066206 -0.17561002
-0.4746857 -0.22266439 0.059954952 -0.026215633 -0.37756193 0.0608659 -0.59050804 -0.77096397
-0.5959462 -0.5868014 0.4011797 0.2750376 -0.49791318 0.38186583 0.030349918 -0.2301422
-0.4478971 -0.4549495 -0.14568959 -0.34966075 -0.14962189 -0.43164748 -0.62972903 -0.23060524
0.3900185 -0.06665621 -0.56841725 -0.7917614 0.655564 -0.06408682 -0.025596011 0.025202895
-0.5752591 0.10647441 -0.5357528 -0.30855525 -0.43987712 0.00033261385 0.6237391 -0.46387056
0.09090744 0.04090262 -0.96817297 -0.37230346 -0.08610096 -0.64973456 -0.4351816 -0.022361737
-0.7768536 -0.70906633 -0.795773 -0.19871178 0.6910815 -0.24677959 0.053195942 -0.34526446
-0.8585939 -0.9073218 0.53003937 -0.49709293 -0.1286912 -0.30758342 -0.65318817 -0.40162113
-0.73695904 0.2144113 -0.35186148 -0.08861967 -0.60045445 -0.5451072 0.09625317 -0.46462938

net.4.weight f4 [21, 256]
00000000: 8e27 9bbf 5838 da3e 7202 883e 8751 423f
00000010: 7921 e6be 2aaa cfbf 8db8 673e 811a 94bf
00000020: 4cb5 9a3f 401b 6fbd 9f22 bd3b 1b5e 483e
00000030: 0af8 bebf 092b 873f 8bb7 693f bb2b 183e
00000040: bc30 91bf 38d3 94be 5965 48be b1e0 953f
00000050: 6a66 9c3f b3e1 f8be 87ca 643f 8888 39bf
00000060: fdb2 be3e 68d6 d13e 3154 da3f 7e93 83bf
00000070: b205 3cbf 6237 9a3f 54a4 ecbd 5622 8abe
00000080: bb8a e3bd 4b5f 673f d604 443e e271 ad3e
00000090: af1a b43f 0d7b dabe bf61 d43f c493 97be
000000a0: f7fe d2be ca8f 7a3f 66f6 893d 9549 d43f
000000b0: 4ca2 1f3f 76ea 333f 7037 013f 1ceb 9abe
000000c0: 691a d4be dad4 8abe 0657 fbbe 0dcc 22bf
000000d0: 72e9 a83f 25da 8ebe b2d8 ffbe 35a2 e63f
000000e0: 230d 053f fe42 2a3f 4d30 b53f 2d4b cebd
000000f0: fd10 f73b b3f7 a23f aeb6 97bf 83ce caba
00000100: 3770 cb3e 481c 9cbf ab64 3cbf c390 8b3e
00000110: e2a4 3bbf 2d48 59be 12b8 00c0 a7dc 27bf
00000120: 73e5 d23e 946e a7be db57 11bf e752 163f
00000130: 695a 143e 0ac5 febd 3f14 b5bf b9cf 233f
00000140: b9d9 a7bf dc78 a3be 6d8b 9e3e 4282 2e3e
00000150: 4a13 43bb 93e9 c13e a229 2f3f 0ce5 523f
00000160: 9a2b ccbe 176b 813f e950 d23d 0c74 17bf
00000170: 7ab1 bebe 0e04 3d3f ec5a 8fbf cfb1 a13f
00000180: 8b06 fe3e 412c 2140 10d3 0b3d ee2b cdbe
00000190: 0fec 613f 82b3 243f 2643 413f c079 5c3e
000001a0: ac73 2bbe 647b 00bf b457 6dc0 2c46 d53e
000001b0: 4bbf e93d 922f 8e3e 1259 583f cfc3 483d
000001c0: 8721 81bf 7ec4 463e 560b 4a3d 8c83 2dbf
000001d0: bae8 7c3f 5aee c13e 13a2 5fbf 49e0 2cbf
000001e0: 46ac b3be fd27 473e 444d eabe 5aaa 95be
000001f0: 13b0 183f 8a31 f7be f1b0 073f 1d94 83bd
00000200: 2129 103c 43bc 3f3d 54eb 4fbd 987b 133f
00000210: f51e 963d da63 2e3e 5c00 9dbf 217d 94bf
00000220: 92b2 d53d 3c9f 453f cd05 20bf e497 853e
00000230: d53d 3c3f 8526 813f a54e 4abf 3f02 843d
00000240: 6246 1940 f7b5 fa3e c8d5 133f 0b83 a6bf
00000250: c5f5 ba3f 2853 25c0 5e66 00bf 1ba5 493d
00000260: 2246 04c0 74de 20be 9a71 063f f153 ffbe
00000270: 75d2 fbbd 6740 33be aefe 31bf 8d83 dbbe
00000280: af27 04bd 57a7 03bf 08d5 c0be 432b 0740
00000290: e0b7 ca3d c106 3cbf c487 dbbf d8b0 923f
000002a0: ff00 02c0 29f8 993f 6713 0fbe 3e9a f6bd
000002b0: 0e2f 31bf ccaa a6bd 62bc 18bf 25e4 c13e
000002c0: 9d2e 44bf e2f8 a3bf 3595 643f 4359 713e
000002d0: c116 ba3e 0c99 ccbf 3e44 88bf c664 88bf
000002e0: b330 043f 924b 903d bb28 0d3f 45eb 94bf
000002f0: 9aa0 873e 0b51 3a3e 4e5e 6bbf 8a46 9a3e
00000300: b5c6 5abe bb02 9cbf 4128 a13d b14c cd3e
00000310: 5d03 393f 8c8f a1be d948 223e 9a35 823c
00000320: 9e86 2cbe 80ac f63f 5e75 00bf 542a 1ebe
00000330: 3932 cd3e b05b 55be a252 1ebf dec0 a43e
00000340: e3b3 163f 4f39 91be 69c7 d53e 2605 41be
00000350: c4d8 633e ef51 1fbf 2117 523f f45c c73e
00000360: 8398 8abe 0910 a93f 7622 e83e a045 05bf
00000370: 3c3a 223f c18a 1d3f cb1e ad3f 7820 34bf
00000380: 69e7 42bf 3812 2ebf b3c0 afbc 94b2 69bf
00000390: 3f00 803f 60d6 8d3f 9ad6 34be 4302 a23e
000003a0: 555c 19bf 3594 d63f e908 b7bf e506 ad3f
000003b0: 96de 933d 1b4d 933f 41b6 54bf c1d6 8dbe
000003c0: cefb efbe 8ecc b5bf 8060 dfbe 11f3 d53d
000003d0: af6c 9f3f 91ad 17bf 5a3c 853e 19ee 563e
000003e0: 15b6 083f e2e7 64be e826 bb3f 5f19 afbf
000003f0: 7cb7 24bf 2152 91bf a325 883f 047b 473f
-1.2121446 0.42621112 0.26564366 0.7590565 -0.44947413 -1.6223805 0.22628994 -1.1570588
1.2086577 -0.058375597 0.0057719494 0.19567148 -1.4919446 1.0560008 0.9129569 0.14860432
-1.1342998 -0.29067397 -0.19569911 1.1709195 1.2218754 -0.48609695 0.8937153 -0.72473955
0.37245932 0.4098389 1.7056943 -1.0279386 -0.7344619 1.2048151 -0.115547806 -0.2697932
-0.11110445 0.9037978 0.1914247 0.33875948 1.4070643 -0.42672005 1.659233 -0.29604924
-0.41210148 0.97875655 0.0673645 1.6584955 0.6235702 0.70279634 0.50475216 -0.302575
-0.414264 -0.27115518 -0.4908983 -0.63592607 1.3196242 -0.27900806 -0.49970013 1.8018252
0.5197317 0.6650847 1.4155365 -0.100729324 0.007539867 1.2731842 -1.1852624 -0.0015472922
0.3973405 -1.2196131 -0.7359111 0.27258882 -0.73298466 -0.21218939 -2.0112348 -0.65571064
0.4119068 -0.32701552 -0.5677468 0.5872025 0.14487614 -0.12439926 -1.4146804 0.63988835
-1.3113319 -0.31928146 0.30965748 0.17041877 -0.0029766136 0.37873515 0.684229 0.8238075
-0.39877015 1.0110806 0.10269339 -0.5916145 -0.3724478 0.7383431 -1.1199622 1.2632388
0.49614367 2.518326 0.03413683 -0.40072578 0.8825082 0.6433641 0.75493085 0.21530819
-0.16743344 -0.5018828 -3.708478 0.416551 0.11413439 0.27770668 0.8451091 0.049014863
-1.0088357 0.19410893 0.049327217 -0.6777885 0.9879261 0.3787716 -0.8735668 -0.6752973
-0.35092372 0.19448848 -0.45762074 -0.2923153 0.5964367 -0.48279983 0.53004366 -0.06424735
0.008798868 0.0468104 -0.050761536 0.57610464 0.07330123 0.17030278 -1.2265735 -1.1600686
0.1043445 0.771961 -0.6250885 0.26092446 0.7353185 1.008988 -0.7902625 0.06445741
2.3949208 0.48966953 0.5774808 -1.3008741 1.4606253 -2.5832005 -0.501562 0.049229722
-2.0667806 -0.15709859 0.5251709 -0.4986873 -0.12296001 -0.17505036 -0.69529235 -0.42873803
-0.032264408 -0.51427215 -0.3766253 2.1120155 0.098983526 -0.73447806 -1.7150807 1.1460218
-2.0313108 1.2028857 -0.13972245 -0.12041138 -0.69212425 -0.08138046 -0.5966245 0.37869373
-0.76633626 -1.2810328 0.8929017 0.23569207 0.36345485 -1.5984206 -1.0645826 -1.0655754
0.5163681 0.07045664 0.55140275 -1.1634299 0.26489717 0.18194978 -0.9194077 0.30131942
-0.21364863 -1.2188333 0.07869006 0.40097573 0.72270757 -0.3155483 0.15848102 0.0158947
-0.16848227 1.9271393 -0.5017909 -0.15445834 0.4007738 -0.20835757 -0.6184484 0.32178396
0.58868235 -0.28364035 0.417537 -0.1884962 0.22250658 -0.62234396 0.8206654 0.38938105
-0.27069482 1.3208019 0.45338792 -0.52059364 0.6337011 0.61539847 1.3525022 -0.70362043
-0.76134354 -0.6799655 -0.02145419 -0.91288114 1.0000075 1.1081047 -0.17659989 0.3164235
-0.5990651 1.6763979 -1.4299594 1.3517729 0.07220189 1.1507906 -0.830906 -0.27702907
-0.468718 -1.420305 -0.4362831 0.10446752 1.2455043 -0.59249216 0.26022607 0.20989265
0.53402835 -0.22354081 1.4621248 -1.3679618 -0.64342475 -1.1353189 1.0636486 0.7792208

net.4.bias f4 [21]
00000000: e9a9 633e 23eb f53e bccc 123e d779 923d
00000010: b0fd 013f caf6 59bc e848 153f 7fd3 cdbd
00000020: 19f4 99bd 0d73 4cbe 1ed4 38bf e2c6 2d3e
00000030: eb3c ecbd 273c 1a3f 05ba 1cbf 178e 54be
00000040: 0436 593e 6a2e 2d3f 4212 4abe 9db9 62bb
00000050: 21b2 223f
0.22232784 0.48030958 0.14335912 0.07152145 0.5077772 -0.013303468 0.5831437 -0.10050105
-0.07517261 -0.19965763 -0.72198665 0.16970399 -0.11535057 0.60248035 -0.61221343 -0.20757328
0.21212012 0.6764895 -0.19733527 -0.0034595497 0.63553053
