Q3/ddpg_actor_step4350000.pth (torch, 357342 bytes, 6 tensors)

net.0.weight f4 [256, 67]
0	0x3ddeaff1	0.10873402
1	0x3e0613b4	0.13093454
2	0xbdc421a0	-0.09576726
3	0x4008d982	2.1382756
4	0xc027b818	-2.6206112
5	0x3c1ca011	0.009559647
6	0xc0187826	-2.3823333
7	0x400a9a53	2.1656692
8	0xbebf84a8	-0.37405896
9	0xbf073e97	-0.5282988
10	0x3e60add2	0.21941307
11	0xbfc536b2	-1.5407317
12	0xc013f7ee	-2.3120074
13	0x40138e1b	2.3055484
14	0xbff5a0b9	-1.9189674
15	0xc0613e3c	-3.5194235
16	0x3d81e26a	0.06342013
17	0x3f72411d	0.94630605
18	0xbe12c75a	-0.14333859
19	0x3f2e1066	0.6799377
20	0xbf40e973	-0.75356215
21	0x40159710	2.3373451
22	0xbf46fb5c	-0.77727294
23	0xbe7b1b9b	-0.2452225
24	0xbd4aa938	-0.049477786
25	0x3ffccb55	1.9749552
26	0x3fcc51e0	1.5962486
27	0x3f6c646c	0.9234073
28	0x3f72b8a4	0.9481299
29	0x3ea486c5	0.3213407
30	0xbe866ce3	-0.2625495
31	0x3dfe3d47	0.124140315
32	0x3f7a92c0	0.9788017
33	0xbd5ba56f	-0.053624567
34	0xbf497c5e	-0.78705394
35	0xc0029fa0	-2.0409927
36	0x3fc3412c	1.5254264
37	0xc01b4c5e	-2.426536
38	0x4077f813	3.8745162
39	0x3e9181ee	0.2841944
40	0x3f14381b	0.5789811
41	0xbe0543d3	-0.13014154
42	0x3eacf812	0.33783013
43	0x3ee247da	0.44195443
44	0x3e4ffa7b	0.20310394
45	0xbd8c77c5	-0.06858782
46	0x3d01d31d	0.031695474
47	0x3d2d08a2	0.04224456
48	0xbae844be	-0.0017720682
49	0x3c827e57	0.015929384
50	0x3d525e40	0.051359415
51	0x3dc5fd70	0.0966748
52	0x3ddf67b9	0.109084554
53	0x3dc3a2ac	0.095525116
54	0xbaa9643f	-0.0012923552
55	0x3a1d10c9	0.0005991576
56	0x3da59074	0.08084193
57	0x3e1c85a3	0.15285353
58	0xbbbb0a32	-0.0057080025
59	0x3b3e0999	0.002899742
60	0xbca013c8	-0.019540682
61	0xbd2a44dd	-0.04156958
62	0xbdd15029	-0.102203675
63	0xbd010e11	-0.031507555
64	0x3ce081af	0.027405588
65	0x3d867fdf	0.06567358
66	0xbe066d81	-0.1312771
67	0x3ef6fb77	0.48238727
68	0xbeddc017	-0.43310615
69	0xbf5e31a3	-0.8679449
70	0x3ff963b4	1.9483552
71	0xbf41c969	-0.7569795
72	0x3e1a2f2c	0.15057057
73	0xbf29d767	-0.663443
74	0xc034393d	-2.8159935
75	0xbfb91abd	-1.4461285
76	0x3e6979a5	0.2280031
77	0xbf0208ef	-0.5079488
78	0x3f547171	0.829856
79	0xbf5d54fb	-0.86457795
80	0xc04152cd	-3.0206788
81	0xbff46f49	-1.9096462
82	0xc0054083	-2.0820625
83	0xbf025593	-0.50911826
84	0xbe9cab85	-0.3059961
85	0xbfdaeaa5	-1.7102858
86	0xbd411781	-0.047141556
87	0x3d0aa417	0.033847895
88	0x3fe135c3	1.7594532
89	0x403a6d47	2.9129198
90	0xbf210dda	-0.6291176
91	0xbe685366	-0.22688064
92	0x3f79898f	0.9747552
93	0xc004da22	-2.0758138
94	0x3e32b026	0.17450008
95	0xbf7575a6	-0.9588264
96	0x3da7aaa8	0.08186847
97	0x3e222d8e	0.1583769
98	0xbeeafa07	-0.4589388
99	0xbd5872da	-0.052843906
100	0xbf1c82a4	-0.6113684
101	0xbfd204e4	-1.6407743
102	0xbe88186f	-0.2658114
103	0x3f304f12	0.6887065
104	0x40aeeabd	5.4661546
105	0xc0770f20	-3.8602982
106	0xbfb5e991	-1.4211904
107	0x3e60bcc3	0.21947007
108	0x3eb82748	0.3596747
109	0xbfba563a	-1.4557564
110	0x3e942dcb	0.28941187
111	0xbf0294b4	-0.5100815
112	0xbea56cb4	-0.32309496
113	0xbec314d5	-0.3810183
114	0xbe6bd57a	-0.23030654
115	0xbdcf1d63	-0.10113027
116	0x3e046b48	0.1293155
117	0x3e05808c	0.13037318
118	0x3e4618cf	0.19345401
119	0xbe4e6c29	-0.20158447
120	0x39e9f6bc	0.00044625055
121	0x3d09ed8a	0.0336738
122	0xbd81fb61	-0.06346775
123	0x3d5f52c9	0.05452231
124	0x3d212620	0.039343
125	0x3e29c47e	0.16578862
126	0x3c010a71	0.007876025
127	0xbb490655	-0.003067394
128	0x3d45b510	0.048268378
129	0x3daa3d85	0.08312515
130	0xbce2296f	-0.027607648
131	0x3d652a1b	0.055948358
132	0x3dcfe914	0.10151878
133	0xbceee982	-0.02916408
134	0x3f3db880	0.7410965
135	0xbfb73a84	-1.4314733
136	0xbf29d3f5	-0.66339046
137	0xbec63194	-0.387097
138	0xbe800546	-0.25004023
139	0xbf4b03f3	-0.793029
140	0x3f97e485	1.1866614
141	0x40566bd1	3.3503306
142	0xbef4a349	-0.47780827
143	0xbdcfde84	-0.10149863
144	0x3f14941d	0.580385
145	0xbf2eae87	-0.6823506
146	0x3ee9a666	0.45634764
147	0x3e8ca2cf	0.27467963
148	0x40210188	2.5157185
149	0xbfb4d8b8	-1.4128637
150	0xbffcd365	-1.9752012
151	0xbfd01f7e	-1.6259611
152	0x3f64d3aa	0.89385474
153	0x3f0595c6	0.5218166
154	0xbebf3504	-0.37345135
155	0xbfa07a04	-1.2537236
156	0x3ed0eecf	0.40807196
157	0x3fbec0cf	1.490259
158	0xbc68d499	-0.0142108435
159	0xc001a305	-2.025575
160	0x3f77f8a5	0.96863776
161	0x3fc7cf68	1.561017
162	0xbf8837e0	-1.0642052
163	0x3eb35061	0.35022262
164	0xbeabc9db	-0.3355244
165	0x3ec817bd	0.3908061
166	0x3dd40a9f	0.10353588
167	0xbf647aa5	-0.8924964
168	0xbe7e18c3	-0.24814133
169	0xbe3f7454	-0.1869672
170	0x3e924716	0.2856986
171	0x40ad3910	5.4132156
172	0xbf70d604	-0.9407656
173	0xbfa1470f	-1.259981
174	0x3e2a7ce6	0.16649207
175	0xbec3f31d	-0.38271418
176	0xbf850ab5	-1.0393893
177	0x3f2d6f32	0.67747796
178	0xbee0b098	-0.4388473
179	0xbe44274b	-0.19155614
180	0xbe848244	-0.25880635
181	0xbdfa6a24	-0.12227276
182	0xbd66bb95	-0.056331236
183	0x3d6d2c07	0.057903316
184	0x3d77c3f5	0.060489614
185	0x3eaa6a03	0.33284006
186	0x3ddf2d5b	0.10897323
187	0xba38e046	-0.00070524623
188	0xbd4d22f2	-0.050082155
189	0xbe24e37a	-0.161024
190	0x3d2bd06b	0.04194681
191	0xbe3c2aed	-0.1837575
192	0xbc498d57	-0.012301764
193	0xbd155f74	-0.036467984
194	0xbcffc58a	-0.031222124
195	0x3de79dbc	0.11309382
196	0x3abae91e	0.0014260148
197	0xbdc9e396	-0.09857862
198	0xbbf3613d	-0.007427363
199	0xbc901ba1	-0.0175913
200	0xbd566bc2	-0.05234886
201	0x3f119365	0.5686553
202	0xbf128f6c	-0.57250094
203	0x3f3c6925	0.7359794
204	0xbefd26f9	-0.49443796
205	0xbf86d758	-1.0534468
206	0xbf9592e7	-1.1685456
207	0xc041bb74	-3.0270662
208	0x3f2a0495	0.6641324
209	0x3ed75bc2	0.42062193
210	0xbf57569d	-0.84116536
211	0x3eaa5869	0.33270577
212	0x3f10c155	0.56545
213	0xbfedfc1e	-1.8592565
214	0x400c42a6	2.191568
215	0x3efb9532	0.49137264
216	0xc0276555	-2.6155598
217	0xbffd8d18	-1.9808683
218	0x401138d1	2.2690928
219	0xbfba85dc	-1.4572101
220	0x3fe683ed	1.800901
221	0x3fdd0072	1.7265761
222	0x4094f23a	4.6545687
223	0xbeb78a1a	-0.3584755
224	0xbcbf5206	-0.023354542
225	0x3f3c5fb5	0.7358354
226	0x3fc43492	1.5328543
227	0xbe30a148	-0.17249024
228	0x3f6f31c6	0.93435323
229	0xbef5e00b	-0.48022494
230	0xbf273794	-0.6531918
231	0xbeb1ad95	-0.34702745
232	0xbdcafe68	-0.099118054
233	0x3ea8be9c	0.32957923
234	0x3ea95fd5	0.33080927
235	0xbe2cf0ee	-0.16888782
236	0xbf554953	-0.8331501
237	0x3f606be2	0.87664616
238	0x3e81c72c	0.2534727
239	0x3f90712d	1.1284539
240	0xc07dd1bb	-3.965926
241	0xbf109d30	-0.5648985
242	0x3e67dde5	0.2264324
243	0x3f82a34d	1.0206085
244	0x3dc402bc	0.09570834
245	0xbba141f9	-0.0049211946
246	0xbdff751e	-0.1247351
247	0xbe8a70a7	-0.27039072
248	0xbef6f270	-0.4823184
249	0xbdd725b4	-0.10505238
250	0xbe2c1ec3	-0.1680861
251	0xbd069dd0	-0.032865345
252	0x3d60f2dc	0.05491911
253	0xbe5dd420	-0.2166295
254	0x3d28beef	0.041197713
255	0x3e11b135	0.14227755

net.0.bias f4 [256]
0	0xbe2b8351	-0.16749312
1	0x3f22279c	0.6334169
2	0xbf1f246f	-0.6216497
3	0x3ee7e7d5	0.4529406
4	0x3f314ce8	0.69257975
5	0xbee1b17a	-0.44080716
6	0xbe74fb25	-0.23923929
7	0x3dbcc581	0.092173584
8	0xbf8f927d	-1.121658
9	0xbf01016b	-0.5039279
10	0x3ee63391	0.44961217
11	0x3e436ccc	0.19084471
12	0x3e29a86e	0.16568157
13	0xbeb058c8	-0.34442735
14	0xbf72533f	-0.94658273
15	0xbeceb526	-0.4037258
16	0xbecd0571	-0.40043214
17	0xbf36c66c	-0.7139652
18	0x3f53ae35	0.82687694
19	0xbf47367c	-0.7781751
20	0xbf8f648d	-1.1202561
21	0x3e869ff5	0.26293913
22	0xbfc89653	-1.5670875
23	0xbcae2efc	-0.021262638
24	0xbf0d1d4c	-0.5512283
25	0xbf348ad2	-0.70524323
26	0x3d479666	0.048727416
27	0xbe87fcfc	-0.265602
28	0xbf125609	-0.5716253
29	0xbe4707ca	-0.19436565
30	0x3e7e948a	0.2486135
31	0xbd3f1464	-0.046650305
32	0xbe0f2a69	-0.13981022
33	0x3f87d925	1.0613142
34	0xbea8ff3c	-0.33007228
35	0x3f553350	0.8328142
36	0xbde6161f	-0.11234688
37	0x3e1f7af4	0.15574247
38	0x3f5eac7d	0.86981946
39	0xbdc720c5	-0.09723047
40	0xbe2d0810	-0.16897607
41	0xbf2286b9	-0.6348682
42	0x3e650a30	0.22367167
43	0xbe002021	-0.12512256
44	0x3f60e5c2	0.8785058
45	0xbee0006b	-0.4375032
46	0xbcb26976	-0.021778803
47	0xbe988860	-0.29791546
48	0xbecb7326	-0.3973629
49	0xbea1d08a	-0.31604415
50	0x3e4eb84c	0.20187491
51	0xbe6adb52	-0.22935227
52	0x3e1d9dfe	0.153923
53	0x3f13a1fa	0.5766903
54	0x3e6cebe7	0.23136865
55	0xbf1c1d46	-0.6098217
56	0xbe749dfc	-0.23888391
57	0x3faa9f84	1.332993
58	0xbfcd75e9	-1.6051608
59	0xbe741290	-0.23835206
60	0xbfbc3735	-1.4704348
61	0xbeacd015	-0.33752504
62	0xbea11a42	-0.31465346
63	0x3ce6c506	0.02817012
64	0x3d13a983	0.03605033
65	0xbe9c4baf	-0.30526492
66	0x3e7150df	0.23566006
67	0xbe432cd7	-0.19060074
68	0xbf2890eb	-0.6584613
69	0xbeda13fa	-0.42593366
70	0xbe81da61	-0.25361922
71	0x3c3fc6bd	0.011705098
72	0xbd184f38	-0.037184924
73	0xbf6c109e	-0.92212856
74	0xbf2fd123	-0.6867849
75	0xbe40b72a	-0.18819872
76	0x3bebc8ff	0.0071955915
77	0xbf0aa924	-0.5416434
78	0x3daa5710	0.08317387
79	0x3c856629	0.016284065
80	0x3e3543b1	0.17701603
81	0xbf4d37fa	-0.8016354
82	0xbf5a636e	-0.8530797
83	0x3f182e26	0.59445417
84	0xbef784e5	-0.48343578
85	0xbf19a0c0	-0.6001091
86	0x3da444b6	0.08020918
87	0xbed66950	-0.41877222
88	0x3cd1cec8	0.025611296
89	0x3f28f38b	0.6599662
90	0x3e67bb62	0.22630075
91	0x3d82b569	0.063822575
92	0xbfbb6cdb	-1.4642595
93	0xbf644115	-0.8916181
94	0xbec923e9	-0.3928521
95	0x3ecac2e2	0.3960181
96	0xbf93dc5f	-1.1551627
97	0xbf56447b	-0.8369824
98	0xbedd876d	-0.43267384
99	0xbdc266b6	-0.09492247
100	0xbee791fe	-0.4522857
101	0xbe94fa5c	-0.2909726
102	0x3e8620d8	0.26196933
103	0xbf16808c	-0.58789897
104	0xbca22cfa	-0.019796837
105	0xbebcb786	-0.36858767
106	0xbf523860	-0.8211727
107	0x3e7c5ff3	0.24645977
108	0xbe8ce764	-0.27520287
109	0xbea61a26	-0.32441825
110	0xbeecbb13	-0.46236476
111	0xbea8b9ab	-0.32954153
112	0xbf304279	-0.6885143
113	0x3eebdaae	0.46065277
114	0xbf79e476	-0.9761423
115	0xbf4fd3df	-0.81182665
116	0xbe84539c	-0.2584504
117	0x3eeeb4cc	0.46622312
118	0xbf6c4c9a	-0.92304385
119	0xbe91d594	-0.2848326
120	0x3e1114a0	0.14168024
121	0xbe85dabc	-0.26143444
122	0x3ee6bd92	0.45066506
123	0xbf2bf2bd	-0.67167264
124	0x3a523ca7	0.0008019902
125	0x3e7216b3	0.23641472
126	0xbf92b7e4	-1.1462369
127	0xbed9d96f	-0.425487
128	0x3f22dec1	0.63621145
129	0x3cdeb22d	0.02718457
130	0xbe4b3ef3	-0.19848232
131	0xbeaf32a7	-0.34218332
132	0xbf3687e8	-0.71301126
133	0xbe537dae	-0.20653412
134	0x3ea492e0	0.32143307
135	0xbe93351e	-0.28751463
136	0xbeb63349	-0.35586002
137	0xbf08409c	-0.53223586
138	0xbedd2f0b	-0.43199953
139	0x3ec2af9e	0.3802461
140	0xbfb2dcf8	-1.3973684
141	0xbea182cb	-0.315451
142	0xbf72c14c	-0.948262
143	0xbf028a57	-0.5099234
144	0x3eea41a5	0.45753208
145	0xbf275667	-0.65366215
146	0xbe8e243f	-0.2776203
147	0xbf0a6202	-0.540558
148	0xbf483300	-0.7820282
149	0xbece5284	-0.4029733
150	0x3f96a596	1.1769283
151	0x3f0462ee	0.51713455
152	0x3cdc735a	0.026910473
153	0xbf4700c8	-0.7773557
154	0x3d13b226	0.036058567
155	0x3e993b80	0.29928207
156	0x3f440426	0.7656883
157	0x3ece10d5	0.40247217
158	0xbf289ad3	-0.65861243
159	0xbd1f32c5	-0.038866777
160	0xbf905a94	-1.1277642
161	0xbf6c96c2	-0.9241754
162	0xbe3104e3	-0.1728702
163	0xbdd089c6	-0.10182528
164	0xbfab08de	-1.3362081
165	0x3befcc76	0.007318075
166	0x3e99bfe6	0.3002922
167	0xbf56b558	-0.8387046
168	0x3e806484	0.25076687
169	0x3ea3e035	0.32006994
170	0x3d8ac098	0.067750156
171	0x3eb008d4	0.34381735
172	0x3e2eb52a	0.17061296
173	0x3f06c345	0.5264171
174	0xbf9b9391	-1.2154409
175	0xbfa43577	-1.2828816
176	0xbf703672	-0.93833077
177	0xbf6e85e2	-0.9317304
178	0xbf226099	-0.63428646
179	0xbd285558	-0.041097015
180	0x3c1af583	0.009457949
181	0x3f42dd6a	0.761191
182	0x3e65b039	0.22430505
183	0x3d59f893	0.053215574
184	0xbf82227c	-1.0166774
185	0xbd93d758	-0.07218808
186	0xbeb3f5e9	-0.35148552
187	0xbf667294	-0.9001858
188	0xbf6bb92a	-0.9207941
189	0xbf175141	-0.5910836
190	0xbec26632	-0.37968594
191	0x3e7f7356	0.24946341
192	0xbf27e983	-0.65590686
193	0x3e6e54d4	0.23274547
194	0xbfacc344	-1.349709
195	0xbf4aef39	-0.79271275
196	0xbf9fee51	-1.2494603
197	0xbe49c1ff	-0.1970291
198	0x3e16a5dd	0.1471171
199	0xbf5bedc3	-0.8590967
200	0xbf1ac167	-0.6045136
201	0xbf71714e	-0.94313514
202	0xbf76b369	-0.9636751
203	0x3dc3a66a	0.09553225
204	0x3ea8a562	0.32938677
205	0xbf35a891	-0.70960337
206	0xbdb427b0	-0.08796632
207	0xbf3765b2	-0.7163955
208	0x3e4ffe28	0.20311797
209	0xbd58f234	-0.052965358
210	0xbf341ed8	-0.70359564
211	0xbe739da6	-0.23790607
212	0xbc177b53	-0.009245711
213	0xbf1db139	-0.61598545
214	0xbe84971d	-0.2589654
215	0xbef4120d	-0.47670022
216	0xbf5c64cb	-0.860913
217	0xbf181998	-0.5941405
218	0xbebc41ce	-0.36768955
219	0x3edeaddc	0.4349202
220	0xbef2011b	-0.47266468
221	0xbdeb2a1f	-0.11482643
222	0xbeff228e	-0.4983105
223	0x3fbf79eb	1.4959081
224	0x3f94fd21	1.1639749
225	0x3e6781a3	0.22608046
226	0xbf31149c	-0.6917207
227	0xbe033405	-0.12812813
228	0xbfb8d6dc	-1.444057
229	0x3e885615	0.26628175
230	0xbf1b7366	-0.6072296
231	0x3f9db783	1.2321628
232	0x3e0c13e2	0.1367946
233	0xbfeaf7b8	-1.8356848
234	0xbe84f330	-0.25966787
235	0xbfa420ff	-1.282257
236	0xbec3d374	-0.38247263
237	0x3e09f7bc	0.1347341
238	0x3ebff83c	0.37494075
239	0xbf699d50	-0.91255665
240	0xbedc16c0	-0.42986107
241	0xbf86d091	-1.05324
242	0xbfc896b2	-1.5670989
243	0xbf4dd18c	-0.8039787
244	0xbf2a14da	-0.66438067
245	0xbe048695	-0.12941964
246	0xbf8e41eb	-1.1113867
247	0x3eeba956	0.4602763
248	0x3fa5bb76	1.2947834
249	0xbf0493f5	-0.51788265
250	0x3f4d5de1	0.8022137
251	0x3f384310	0.7197733
252	0xbf65a8ad	-0.89710504
253	0xbf1baee3	-0.6081373
254	0x3ee97c72	0.45602757
255	0xbe22778a	-0.15865913

net.2.weight f4 [256, 256]
0	0x3ee01376	0.43764848
1	0x3e8f39e4	0.27973855
2	0x3f3317ac	0.69957995
3	0x3f166a78	0.5875621
4	0x3ef31000	0.47473145
5	0x3f1b6303	0.60697955
6	0x3dd03be9	0.10167677
7	0x3e4d8621	0.20070697
8	0xbdd92ce8	-0.10604268
9	0xbe71c026	-0.23608455
10	0x3f2ffc7f	0.68744653
11	0xbec3d3e0	-0.38247585
12	0xbebe6af4	-0.37190974
13	0x3f8d4988	1.1038065
14	0xbf3cb93c	-0.73720145
15	0x3e8b4fe0	0.27209377
16	0xbecc78cc	-0.3993591
17	0x3f0ff7ea	0.5623766
18	0x3edac2a8	0.42726636
19	0x3e91c2df	0.28468987
20	0x3f316ce5	0.69306785
21	0x3fbc7425	1.4722944
22	0xbfb2c972	-1.3967726
23	0x3ebc7912	0.3681112
24	0xbf8ccec4	-1.10006
25	0x3ec9a59c	0.39384162
26	0x3f623c20	0.88372993
27	0x3da54bc1	0.080710895
28	0x3e9e9d21	0.30979255
29	0x3be196d2	0.0068844343
30	0x3f8a7874	1.0818009
31	0xbd686dd1	-0.056745354
32	0xbe297aae	-0.16550705
33	0xbef56b16	-0.47933263
34	0x3ed690b0	0.41907263
35	0xbe78c47a	-0.242937
36	0x3dfb7e7a	0.12279983
37	0x3f2feb32	0.68718255
38	0x3e08152b	0.13289325
39	0x3f032537	0.5122866
40	0x3f6dbb28	0.928637
41	0xbefae664	-0.490039
42	0x3e85303c	0.26013362
43	0xbf81b450	-1.0133152
44	0x3f4574be	0.7713126
45	0xbe87728d	-0.26454583
46	0x3f813949	1.0095607
47	0xbeb23b8b	-0.34811053
48	0x3d8c6238	0.06854671
49	0xbcc98da8	-0.02460368
50	0xbeb07b16	-0.34468907
51	0x3f6c7ce3	0.9237806
52	0x3d55fec1	0.052244905
53	0xbf570a23	-0.8399984
54	0x3ea2b5af	0.3177924
55	0x3f6f3025	0.9343284
56	0x3ef49e3a	0.47776967
57	0xbd4e7cb8	-0.05041191
58	0xbe8e159d	-0.27750865
59	0x3f06747c	0.5252149
60	0xbfb90c07	-1.4456795
61	0xbfb920ba	-1.4463112
62	0x3d7f4bb0	0.06232804
63	0x3f5af1d8	0.85525274
64	0x3da9b880	0.08287144
65	0x3f804323	1.0020489
66	0x3f1640ed	0.5869282
67	0x3e33637d	0.1751842
68	0xbf33979a	-0.701532
69	0xbe738ece	-0.23784944
70	0xbeea102f	-0.45715472
71	0x3f7d7a39	0.9901462
72	0x3f177e43	0.59177035
73	0xbfc44ce5	-1.5335966
74	0xbc5a5594	-0.0133260675
75	0x3e907aae	0.28218597
76	0x3eb91269	0.36146858
77	0x3ea5cf16	0.32384557
78	0xbc545ea1	-0.012962014
79	0x3ee37f82	0.44433218
80	0x3e451de4	0.19249684
81	0x3ec19921	0.3781214
82	0x3ed37dff	0.41307065
83	0xbd9cd45b	-0.07657691
84	0x3d56bb6f	0.052424844
85	0xbc0ecc43	-0.008715692
86	0xbf077639	-0.5291477
87	0xbf2a41a2	-0.665064
88	0xbe1c975d	-0.15292116
89	0xbda738c6	-0.081651255
90	0xbdb510ab	-0.0884107
91	0x3e831640	0.25602913
92	0x3daf4e49	0.085598536
93	0xbe8b4ea2	-0.2720843
94	0x3f05ccfe	0.5226592
95	0x3f1d4413	0.61432
96	0xbf0292d9	-0.5100532
97	0x3f188263	0.59573954
98	0x3e97847b	0.29593262
99	0xbfdcf09c	-1.7260928
100	0x3f006c8d	0.50165635
101	0x3f4e7381	0.80644995
102	0xbebf8d8d	-0.37412682
103	0x3e4b5b1b	0.19858973
104	0x3f3514f9	0.70735127
105	0x3f29b22e	0.66287506
106	0x3e2919e5	0.16513784
107	0x3e903146	0.28162593
108	0xbebd3ede	-0.36962026
109	0x3c1c837e	0.009552835
110	0x3efcaebb	0.4935206
111	0xbf11e153	-0.5698444
112	0x3fb17c4e	1.386606
113	0x3ef903b4	0.48635638
114	0xbf38d5a4	-0.7220099
115	0x3efac261	0.48976424
116	0x3ee51a94	0.4474684
117	0xbfe4228c	-1.7823043
118	0xbf519e57	-0.8188223
119	0x3dcd3bee	0.10021196
120	0x3fb20794	1.3908563
121	0x3c8bbe2b	0.017058453
122	0xbf580c47	-0.84393734
123	0xbd5b9850	-0.053612053
124	0xbe681fe9	-0.22668423
125	0xbea76307	-0.3269274
126	0xbec4313d	-0.38318816
127	0x3e9094a6	0.2823841
128	0xbeca77cd	-0.39544526
129	0x3f187dfd	0.5956724
130	0x3e932b1f	0.28743836
131	0x3ec908a8	0.39264417
132	0xbee31fc8	-0.44360185
133	0xbe9a86e3	-0.30181035
134	0xbe301106	-0.17193994
135	0x3ea17e06	0.3154146
136	0xbe131b9f	-0.14366005
137	0x3ed3f722	0.41399485
138	0x3d9b4e06	0.07583241
139	0xbdec34bf	-0.11533498
140	0xbf772b5c	-0.96550536
141	0x3f310fe2	0.6916486
142	0x3ed0ffa8	0.4082005
143	0x3f3616f5	0.7112878
144	0xbec7d9ed	-0.39033452
145	0x3d5221be	0.05130171
146	0x3d611edf	0.05496108
147	0x3e53c6ce	0.20681307
148	0xbfab6a7c	-1.3391871
149	0x3e253b74	0.16135961
150	0xbf85741f	-1.0426062
151	0x3d8cc6d3	0.0687386
152	0x3f30225c	0.6880243
153	0xbd1e4a9e	-0.03864538
154	0xbf0f3012	-0.55932724
155	0x3e1db4fd	0.15401073
156	0xbe75e8c0	-0.24014568
157	0x3fc81a80	1.5633087
158	0x3f370e14	0.71505857
159	0x3f107d1f	0.5644092
160	0x3e1b9fda	0.15197697
161	0xbe538c17	-0.20658909
162	0xbe680f87	-0.22662173
163	0xbea7ccbd	-0.3277339
164	0xbf333d81	-0.7001572
165	0xbedbe4b2	-0.42947918
166	0x3ebda343	0.3703862
167	0xbea6f3f8	-0.32608008
168	0xbe7cb3c7	-0.24677955
169	0x3f10f1f3	0.56619185
170	0xbedad54a	-0.42740852
171	0x3fa01b6e	1.2508371
172	0x3e7b7ae9	0.24558605
173	0x3f06e0ed	0.5268696
174	0xbf52a078	-0.82276106
175	0xbd4a0209	-0.049318347
176	0xbf465aff	-0.774826
177	0xbf01ee78	-0.507545
178	0x3f14953f	0.5804023
179	0xbeeacf99	-0.4586151
180	0x3e4acc05	0.1980439
181	0x3f3ce271	0.7378302
182	0x3f20186c	0.62537265
183	0x3f1d0be8	0.6134629
184	0xbeb1c242	-0.3471852
185	0xbe3862a2	-0.18006375
186	0x3e0d1066	0.13775787
187	0xbe03faa8	-0.12888587
188	0x3e314b32	0.17313841
189	0xbe9c3f28	-0.30516934
190	0xbf1c7df7	-0.6112971
191	0x3b84ece6	0.004056561
192	0xbdcc96d0	-0.09989703
193	0xbf8e747d	-1.1129299
194	0xbe3f4671	-0.18679215
195	0xbf8c5375	-1.0962969
196	0x3d9a6149	0.07538087
197	0x3eee20b5	0.46509328
198	0x3e034a68	0.12821352
199	0x3c4c1a44	0.012457434
200	0xbf78e5f1	-0.9722586
201	0xbe513371	-0.2042978
202	0xbf6cb1e5	-0.92458946
203	0x3e608e63	0.21929316
204	0x3f0266a6	0.5093788
205	0xbe553df1	-0.2082441
206	0x3e4b0d7a	0.1982936
207	0xbefda0c9	-0.49536732
208	0x3efb8583	0.491253
209	0xbe23522c	-0.15949315
210	0xbe5d8f3d	-0.21636672
211	0x3e94f7b4	0.29095232
212	0xbf780924	-0.9688895
213	0x3e14f7b8	0.14547622
214	0x3ea9ef55	0.33190408
215	0xbd2a9413	-0.04164512
216	0xbf81d4b4	-1.0143037
217	0x3e9d7fb9	0.30761507
218	0x3e95fa01	0.292923
219	0x3d4eee22	0.05052007
220	0xbc1a0ac4	-0.009401981
221	0xbf1e2709	-0.6177831
222	0x3ee28ecd	0.44249573
223	0xbee21a5e	-0.44160742
224	0x3f1858d5	0.59510547
225	0x3ceebc8a	0.029142637
226	0xbe4d8ce4	-0.20073277
227	0xbe72dabf	-0.23716258
228	0xbf7e3619	-0.99301296
229	0x3f6b83b1	0.9199782
230	0x3f361c51	0.7113696
231	0x3f34d842	0.70642483
232	0xbe511ec7	-0.20421897
233	0xbef24b5d	-0.47323123
234	0xbef3a65b	-0.47587857
235	0xbe09ec8c	-0.13469142
236	0x3eefa0bc	0.46802318
237	0x3de4c04c	0.1116949
238	0x3e2dc332	0.16968992
239	0x3e83b477	0.2572362
240	0x3e466306	0.19373712
241	0xbf9b730a	-1.2144482
242	0xbd8cb289	-0.068699904
243	0xbf14a8fb	-0.58070344
244	0x3edf4e77	0.4361455
245	0xbf2e901e	-0.68188655
246	0x3e4a09bd	0.19730277
247	0x3de3ead9	0.11128778
248	0x3ed56c15	0.41684023
249	0xbfacd0c4	-1.350121
250	0x3e6063f3	0.21913128
251	0xbec7abbd	-0.38998213
252	0xbdb22b23	-0.08699634
253	0x3d0f2471	0.034946863
254	0x3e0210f6	0.12701783
255	0xbe82dbd0	-0.2555833

net.2.bias f4 [256]
0	0xbdcbc510	-0.09949696
1	0x3f021822	0.50818074
2	0xbe1f1e5e	-0.15538928
3	0xbf79f333	-0.9763672
4	0xbe8da990	-0.27668428
5	0x3d151249	0.03639439
6	0x3d0fb84b	0.035087865
7	0x3cc11ccc	0.023573302
8	0xbf121697	-0.5706572
9	0xbddf8998	-0.10914916
10	0xbda215ef	-0.0791434
11	0xbea6b344	-0.32558644
12	0xbf5e2e67	-0.86789554
13	0xbe3ade20	-0.18248796
14	0xbee0dfcc	-0.43920743
15	0xbe60645d	-0.21913286
16	0x3e44d0e8	0.19220316
17	0xbe2ca4e1	-0.16859771
18	0xbf3fa0c5	-0.7485469
19	0xbe99f583	-0.30070123
20	0xbe07f0f1	-0.13275506
21	0xbeba50d3	-0.3638979
22	0x3e13f0c8	0.1444732
23	0xbec6898d	-0.38776818
24	0xbdce06a1	-0.10059858
25	0xbf1b3803	-0.6063234
26	0xbd820f69	-0.063505955
27	0x3e9a906b	0.30188307
28	0xbf04fc8d	-0.5194786
29	0xbf326c69	-0.6969667
30	0x3da50460	0.08057475
31	0x3e856931	0.26056817
32	0xbf524368	-0.82134104
33	0xbec13d8b	-0.37742266
34	0x3d5143a9	0.051089916
35	0x3eb72a60	0.35774517
36	0xbf093021	-0.53589064
37	0xbebd41b3	-0.36964187
38	0xbcaf2f3e	-0.021384832
39	0x3d106cfe	0.035260193
40	0x3e7e358d	0.24825116
41	0xbf211eaa	-0.62937415
42	0x3d64655b	0.055760723
43	0xbd246ef6	-0.040144883
44	0xbea92088	-0.33032632
45	0x3bf5024d	0.007477081
46	0xbf5d8b62	-0.86540806
47	0xbead16bc	-0.33806407
48	0xbc236fa0	-0.009975344
49	0xbeee9937	-0.4660127
50	0xbe239dc1	-0.15978147
51	0xbe43abd4	-0.19108516
52	0xbc7745e7	-0.01509235
53	0x3e477ded	0.1948163
54	0xbdf5cead	-0.12002311
55	0xbeecc4f3	-0.4624401
56	0xbd969921	-0.07353426
57	0xbd1a170f	-0.037619647
58	0xbefb1246	-0.4903738
59	0xbe33c3c8	-0.17555153
60	0x3e01b25b	0.12665693
61	0xbf292c50	-0.6608324
62	0xbe25864e	-0.16164514
63	0xbf2a6956	-0.6656698
64	0xbcd6b2bf	-0.02620828
65	0xbf1071bf	-0.5642356
66	0xbe170e15	-0.14751466
67	0x3e66e81d	0.22549482
68	0xbe62144c	-0.22078055
69	0xbe77c09c	-0.24194568
70	0xbda8fb42	-0.082510486
71	0xbc445a90	-0.011984482
72	0xbe65ca2f	-0.22440408
73	0x3d08cf1c	0.03340064
74	0x3e4a4e66	0.19756469
75	0x3e7636d0	0.24044347
76	0x3e8c3d75	0.27390638
77	0xbed403d3	-0.41409168
78	0x3d7c2839	0.061561797
79	0xbe458f98	-0.19293058
80	0x3e901577	0.28141376
81	0x3eb6f608	0.35734582
82	0xbdce76e5	-0.10081271
83	0x3d39b889	0.045342002
84	0xbd85c928	-0.06532508
85	0xbf3e2c78	-0.74286604
86	0xbec96277	-0.39332935
87	0xbdf1fc85	-0.118157424
88	0x3ec7097d	0.38874426
89	0xbf110968	-0.5665498
90	0xbe19e7eb	-0.15029876
91	0xbec32818	-0.38116527
92	0xbdba5e37	-0.09100001
93	0x3e853d55	0.26023355
94	0x3e834ccc	0.2564453
95	0xbf5e6d11	-0.8688517
96	0xbed271ef	-0.4110255
97	0xbe0490f2	-0.12945917
98	0x3e02b794	0.12765342
99	0xbf5edd35	-0.87056285
100	0xbd8cef18	-0.06881541
101	0xbdfeaf7b	-0.12435814
102	0x3d9438b0	0.07237375
103	0x3de5face	0.11229478
104	0xbd7d7479	-0.061878655
105	0xbe674456	-0.22584662
106	0xbef40bc8	-0.47665238
107	0xbdfffb2f	-0.12499081
108	0x3eb9b010	0.36267138
109	0xbdc7bf8e	-0.09753333
110	0x3e1e865d	0.15480943
111	0xbf0914d6	-0.5354742
112	0xbf0c3869	-0.54773575
113	0xbeef3f72	-0.46728092
114	0xbe97488b	-0.29547533
115	0xbe171a5e	-0.14756152
116	0x3f01ef02	0.5075532
117	0x3dd7bfa6	0.10534601
118	0x3e893588	0.26798654
119	0x3dc4c9e0	0.09608817
120	0xbec0f62c	-0.37687814
121	0xbd99450d	-0.074838735
122	0xbd3f28eb	-0.04666988
123	0xbdff8a07	-0.124774985
124	0xbe355ec3	-0.1771193
125	0xbdc7bcec	-0.09752831
126	0xbda92ed2	-0.082608834
127	0xbe0d1bb3	-0.13780098
128	0xbca2440b	-0.019807836
129	0xbd02b059	-0.03190646
130	0xbe6f01d1	-0.23340537
131	0xbf10c8e2	-0.5655652
132	0xbe892911	-0.26789144
133	0x3e6ce59d	0.23134466
134	0xbdb0eb9a	-0.086386874
135	0xbec36b69	-0.38167885
136	0x3eaef86c	0.34173906
137	0xbf02f472	-0.51154244
138	0x3daf443f	0.08557939
139	0xbf09de70	-0.5385504
140	0xbe93d02d	-0.28869763
141	0xbf0e2912	-0.5553142
142	0xbf370bbf	-0.715023
143	0xbe8e4ebe	-0.2779445
144	0xbe60c01f	-0.21948288
145	0xbeaefd8a	-0.3417781
146	0x3de30baf	0.11086213
147	0xbe61fc10	-0.2206881
148	0xbca0744b	-0.019586703
149	0x3e005d97	0.12535702
150	0xbe850123	-0.2597743
151	0x3e0494f0	0.1294744
152	0xbcfe1cc9	-0.031019585
153	0xbf414ff8	-0.7551265
154	0xbf025fd4	-0.5092747
155	0xbe3a5cbc	-0.18199438
156	0xbe226f46	-0.1586276
157	0xbf0526a2	-0.52012074
158	0xbefb92e7	-0.49135515
159	0xbe37ac8c	-0.17936915
160	0xbe2b35bb	-0.16719715
161	0x3d370f22	0.044692166
162	0xbee4b38b	-0.4466823
163	0xbec62f76	-0.38708085
164	0xbe9392b4	-0.28822863
165	0xbf596918	-0.84925985
166	0x3f21b3cb	0.6316497
167	0xbbeac9f7	-0.0071651894
168	0x3ee2ad44	0.44272816
169	0x3cfe0ff0	0.031013459
170	0xbdb3437c	-0.08753106
171	0x3dc399f3	0.09550848
172	0x3e30e1e1	0.17273666
173	0xbecef853	-0.4042383
174	0xbeca9f7a	-0.39574796
175	0xbf061862	-0.52380955
176	0x3d1ebc9c	0.03875409
177	0xbe36f5ff	-0.17867278
178	0xbf1b5acc	-0.6068542
179	0xbf1d23b5	-0.6138261
180	0xbe74dd9c	-0.23912662
181	0xbef3ef5b	-0.4764355
182	0xbe31be40	-0.17357731
183	0xbde3c3bc	-0.11121318
184	0xbdfbf1eb	-0.123020016
185	0x3befa807	0.0073137316
186	0xbc9e33fb	-0.019311896
187	0x3e455931	0.19272305
188	0xbe80bd0b	-0.25144228
189	0xbe1df425	-0.15425165
190	0xbf03914a	-0.5139357
191	0xbec1232a	-0.3772214
192	0xbf189d82	-0.5961534
193	0xbe18c749	-0.14919771
194	0x3e3bb90a	0.18332306
195	0x3e1c13fe	0.15242001
196	0xbee8395c	-0.45356262
197	0x3eb66308	0.3562243
198	0x3e4b0e30	0.19829631
199	0x3d1105dc	0.03540598
200	0xbe8c4df7	-0.27403232
201	0xbeee08a6	-0.46490973
202	0xbaf1b222	-0.0018439929
203	0xbe387ce4	-0.18016392
204	0xbde50998	-0.111834705
205	0xbed8df42	-0.42357832
206	0xbe710aa8	-0.23539221
207	0xbd8801f0	-0.066409945
208	0x3d903d01	0.070428856
209	0xbe831d77	-0.25608417
210	0xbed7de7d	-0.42161933
211	0xbdbdc27e	-0.09265612
212	0x3e4914df	0.19636868
213	0xbe60cc68	-0.21952975
214	0xbdaff44d	-0.085915186
215	0xbd6ff742	-0.058585413
216	0xbf1ba1c6	-0.6079372
217	0xbdf09ba8	-0.11748439
218	0xbef5a48c	-0.47977102
219	0xbc83f288	-0.016106859
220	0xbeb8d98f	-0.36103484
221	0xbe3b1528	-0.18269789
222	0x3edf52c6	0.4361784
223	0xbe8bb855	-0.27289072
224	0xbd6ce348	-0.05783394
225	0x3dc5abae	0.09651886
226	0xbf487313	-0.7830059
227	0xbe1afdc3	-0.15135865
228	0xbd8d10db	-0.068879806
229	0xbeb1cc7e	-0.34726328
230	0xbeb03a27	-0.34419367
231	0x3e13862f	0.14406656
232	0xbf65b0c0	-0.89722824
233	0xbef91d76	-0.4865529
234	0xbf1b5095	-0.60669833
235	0x3db20c8c	0.086937994
236	0xbdf0f468	-0.11765367
237	0x3db272de	0.087133154
238	0xbe0fe0d3	-0.14050607
239	0xbeb0c681	-0.34526446
240	0xbf3bc624	-0.73349214
241	0xbf05538b	-0.520806
242	0x3eb6ec6b	0.35727248
243	0xbed2a1bd	-0.41139022
244	0xbe127211	-0.14301325
245	0xbe457356	-0.19282278
246	0xbf2b2582	-0.6685411
247	0xbe070d88	-0.13188756
248	0xbefc11e2	-0.49232394
249	0x3ebc3283	0.36757287
250	0x3dbe6ff9	0.09298701
251	0xbe048e63	-0.12944941
252	0xbe54caae	-0.20780441
253	0xbf188b69	-0.59587723
254	0x3e102a4b	0.14078633
255	0xbea13543	-0.31485948

net.4.weight f4 [21, 256]
0	0xbee77ef4	-0.45214045
1	0x3f4411ec	0.76589847
2	0xbe228006	-0.1586915
3	0xbe5f7f63	-0.21825938
4	0xbf7d3407	-0.9890751
5	0xbf4b9613	-0.7952587
6	0x3e6bcef8	0.23028171
7	0xbee04a27	-0.43806574
8	0xbd0ac3ba	-0.033878066
9	0xbd9f91bf	-0.07791471
10	0x3e53cb17	0.20682941
11	0x3e3bd740	0.1834383
12	0xbf8d6bb0	-1.1048489
13	0x3f838014	1.0273461
14	0x3f5073b3	0.81426543
15	0x3eaba446	0.33523768
16	0xbf84dcff	-1.0379943
17	0xbddb360b	-0.10703667
18	0x3f242eba	0.641338
19	0xbe15c0f9	-0.14624394
20	0x3b572bef	0.0032832583
21	0xbef8e1b3	-0.48609695
22	0x3e6bb2f9	0.23017491
23	0xbe893cf3	-0.26804313
24	0x3e8f1470	0.2794528
25	0x3efd9d23	0.49533948
26	0x3f906a7f	1.12825
27	0xbfb1062e	-1.3830011
28	0xbf1d24c4	-0.61384225
29	0xbeffe540	-0.4997959
30	0xbdeca454	-0.115547806
31	0xbde936b2	-0.113873854
32	0xbf121ae6	-0.57072294
33	0x3e61192a	0.21982256
34	0x3ee0a3c8	0.43874955
35	0x3e2d2159	0.16907252
36	0x3f7ce516	0.9878706
37	0xbf85981f	-1.0437049
38	0x3f31a908	0.69398546
39	0xbe57aac5	-0.21061237
40	0xbe91d192	-0.28480202
41	0x3e8320dc	0.25611007
42	0xbe6173a7	-0.22016774
43	0x3eca7d2b	0.3954862
44	0x3e43a8dc	0.19107383
45	0x3f7da5be	0.9908103
46	0x3f37fdfc	0.71871924
47	0xbdbf2341	-0.09332896
48	0xbebd54d8	-0.36978793
49	0xbf016fde	-0.5056132
50	0x3df3ce41	0.11904574
51	0xbd89726a	-0.06711276
52	0x3f33587c	0.7005689
53	0x3ecc8e3a	0.3995226
54	0xbf2066f8	-0.6265712
55	0x3fc00e37	1.5004338
56	0x3f047dc0	0.5175438
57	0x3edebba1	0.43502524
58	0x3f1378df	0.5760631
59	0xbd5f3cf5	-0.054501493
60	0xbec89c2d	-0.39181653
61	0x3ed6780b	0.4188846
62	0xbf6c8235	-0.9238618
63	0x3ee565c0	0.44804192
64	0x3e259c1e	0.16172835
65	0xbdf60c36	-0.12014048
66	0xbefa1710	-0.4884572
67	0x3ed0740c	0.40713537
68	0x3e2bae82	0.16765788
69	0xbe4b72d2	-0.19868019
70	0xbf7910c5	-0.97291213
71	0x3e523379	0.20527448
72	0x3e89623c	0.2683276
73	0xbd84858b	-0.06470784
74	0x3ba91983	0.005160512
75	0x3eb65c7a	0.3561743
76	0xbf2c855b	-0.67390984
77	0x3dca836e	0.098883495
78	0xbf11ddf8	-0.5697932
79	0x3ed2954f	0.41129538
80	0xbf0d112b	-0.5510432
81	0xbd90b9e2	-0.07066704
82	0xbed11f55	-0.40844217
83	0x3cce5a1f	0.025189457
84	0xbb43134a	-0.0029766136
85	0x3ed2f547	0.41202757
86	0xbeaf2501	-0.3420792
87	0x3f807601	1.0036012
88	0x3e45889a	0.1929039
89	0x3f54294b	0.8287551
90	0xbf457c96	-0.7714323
91	0x3e710647	0.23537551
92	0xbf2f60c3	-0.6850702
93	0x3dc8a4ca	0.09797056
94	0xbbb0c146	-0.0053941337
95	0x3f59e0c8	0.85108614
96	0xbe0420f5	-0.12903197
97	0x3fa622d6	1.2979381
98	0x3dab7a3d	0.083729245
99	0xbd0ea11c	-0.034821615
100	0x3f9c2221	1.2197915
101	0xbe803136	-0.25037545
102	0x3d09e570	0.033666074
103	0x3e07bd6d	0.13255854
104	0x3e4a5f39	0.19762887
105	0x3eb8a285	0.36061493
106	0xc00301c1	-2.046982
107	0x3f87b8c4	1.0603261
108	0x3e13664d	0.14394493
109	0x3d790832	0.06079883
110	0x3d710180	0.05883932
111	0x3eae7722	0.34075266
112	0x3e3f4149	0.18677248
113	0x3da42c40	0.080162525
114	0x3f10a67e	0.56504047
115	0xbf17a036	-0.5922884
116	0x3e001356	0.12507376
117	0x3ef79234	0.48353732
118	0xbf82b11b	-1.0210298
119	0xbed7b9fd	-0.42134085
120	0xbd937692	-0.0720035
121	0xbe53dea4	-0.206904
122	0xbed326fe	-0.41240686
123	0xbeda912f	-0.4268889
124	0x3ec24a56	0.3794734
125	0xbe93426f	-0.28761622
126	0x3e0b264d	0.1358883
127	0xbd83941d	-0.06424735
128	0x3c102921	0.008798868
129	0x3eb9b34d	0.36269608
130	0x3d2ca0e6	0.042145632
131	0x3f137b98	0.57610464
132	0xbe14a0e2	-0.14514497
133	0x3da3ec82	0.08004095
134	0xbeece644	-0.4626943
135	0xbf4e6ebc	-0.8063772
136	0x3e85dd25	0.26145282
137	0x3f24d052	0.6438037
138	0xbf10111f	-0.56276125
139	0x3f2f8cdf	0.6857433
140	0x3f709b61	0.9398709
141	0x3f9054dc	1.1275897
142	0x3f63d036	0.8898958
143	0x3ea8b36d	0.3294939
144	0x3f97eb07	1.18686
145	0xbf20d3b7	-0.6282305
146	0x3f167e3d	0.58786374
147	0xbe34507c	-0.17608827
148	0x3eba0df6	0.36338776
149	0xbfe72cb6	-1.806052
150	0xbd389a54	-0.045069054
151	0xbf025593	-0.50911826
152	0xbf9b3cc2	-1.2127917
153	0xbed6c0fa	-0.41944104
154	0x3f135d9b	0.57564706
155	0x3ec564fe	0.38553613
156	0xbf073c52	-0.52826416
157	0xbe8a3eed	-0.27001134
158	0xbedf38b4	-0.4359795
159	0xbce6e18e	-0.028183725
160	0xbd0427af	-0.032264408
161	0x3e09ed26	0.13469371
162	0x3e691220	0.2276082
163	0x3f0f86cb	0.5606505
164	0xbf0991ee	-0.53738296
165	0xbf641fae	-0.8911084
166	0xbfb84da7	-1.4398698
167	0x3fa11132	1.2583373
168	0xbf151ec4	-0.5825007
169	0x3f4e093a	0.8048283
170	0xbe29a291	-0.1656592
171	0x3e833544	0.25626576
172	0xbf489873	-0.7835762
173	0x3e796d2c	0.24358052
174	0x3eae8a84	0.34090054
175	0x3f5435cc	0.8289459
176	0xbf187fde	-0.5957011
177	0xbf2c786d	-0.67371255
178	0x3f26b159	0.6511436
179	0x3eff763f	0.49894902
180	0x3e7fc3e2	0.24977067
181	0xbe924b4a	-0.28573066
182	0xbea4d6fa	-0.32195264
183	0xbe78fdca	-0.24315563
184	0x3d5ab073	0.05339093
185	0x3e8330b9	0.2562311
186	0xbbc6c8f4	-0.006066436
187	0xbf2fb855	-0.68640643
188	0xbef8cf4d	-0.48595658
189	0x3e92715d	0.28602114
190	0xbeacec9d	-0.33774272
191	0xbf55a1dc	-0.834501
192	0xbe5bc804	-0.21463019
193	0xbf7b225c	-0.98099303
194	0x3d7590f3	0.059952687
195	0x3d9dbf23	0.07702472
196	0xbe87cbc7	-0.26522657
197	0xbeef6cd7	-0.46762726
198	0x3e622e9f	0.22088097
199	0x3eed258c	0.46317708
200	0x3ef3e42c	0.4763502
201	0x3fcd9844	1.6062093
202	0xbea2bb29	-0.31783417
203	0xba982219	-0.0011606842
204	0x3eda8d95	0.42686144
205	0xbe555bb0	-0.20835757
206	0xbeb825ae	-0.35966247
207	0x3def724a	0.11691721
208	0x3f2bb2ac	0.67069507
209	0xbddf4056	-0.10900943
210	0x3f062c43	0.5241129
211	0x3e10a5ba	0.1412572
212	0xbe14882a	-0.14505067
213	0xbf00f11f	-0.5036792
214	0x3fa5010e	1.2890947
215	0x3ea68d19	0.32529524
216	0xbee7627b	-0.45192322
217	0x3f402e92	0.7507106
218	0x3e7924f2	0.243305
219	0xbea7764a	-0.32707435
220	0xbe3e8b90	-0.18607926
221	0xbefda3c1	-0.49538997
222	0x3f23d864	0.6400206
223	0xbf10d2a3	-0.56571406
224	0xbf3fdafb	-0.7494351
225	0xbedd9e4c	-0.43284833
226	0x3fac613c	1.3467174
227	0xbefd0dd9	-0.49424627
228	0x3f00e94e	0.50355995
229	0x3ec23aaa	0.37935382
230	0x3f07f58e	0.5310906
231	0xbdd9f70b	-0.10642823
232	0xbe4a4dce	-0.19756243
233	0x3f7a1bc1	0.976986
234	0xbd8fb9f2	-0.07017888
235	0x3f01f306	0.5076145
236	0x3e0e1b7f	0.13877676
237	0x3f48e3b7	0.78472465
238	0xbf969e4b	-1.1767057
239	0xbe8dd6c1	-0.27702907
240	0xbf434d8d	-0.7629021
241	0xbfe3d0e3	-1.7798122
242	0xbf8fe534	-1.1241822
243	0x3d252246	0.04031589
244	0x3f0dae5b	0.5534417
245	0xbf2a1c4b	-0.6644942
246	0xbe59aaed	-0.2125661
247	0xbe143dcd	-0.144767
248	0xbdebff8c	-0.11523351
249	0xbd9254e9	-0.071451016
250	0x3f901795	1.1257197
251	0xbdca66ba	-0.09882875
252	0xbf0755ff	-0.52865595
253	0xbf195865	-0.59900504
254	0x3facdeeb	1.3505529
255	0x3e00178a	0.1250898

net.4.bias f4 [21]
0	0x3e8c264b	0.27372965
1	0x3f03edc9	0.51534706
2	0x3ae4cefb	0.0017456705
3	0xbcc1057b	-0.023562184
4	0x3eb7693f	0.35822484
5	0xbe91f609	-0.28508022
6	0x3ebeb846	0.37249964
7	0xbe6ec2b5	-0.23316462
8	0x3d5e5d99	0.05428848
9	0xbe009eff	-0.12560652
10	0xbf134b64	-0.5753691
11	0xbe04883b	-0.12942593
12	0xbd42cdee	-0.04755967
13	0x3ed60505	0.41800705
14	0xbecf9151	-0.40540555
15	0xbd62d66e	-0.055380277
16	0x3e0b6077	0.13611017
17	0x3f20c6f9	0.6280361
18	0xbe804366	-0.2505142
19	0xbd746a97	-0.059671964
20	0x3ef0adee	0.47007698
