Q3/ddpg_critic_step8600000.pth (torch, 358312 bytes, 5 tensors)

net.0.weight f4 [256, 88]
00000000: 6f66 503f 365d 1e3c 055e 9cbf 3006 5c40
00000010: 3bd1 93bf 7907 cbbe cbb0 9bbf bdbe c7bd
00000020: 410c ab3e 6683 9dc0 548b 333f 7da0 febf
00000030: 6aff 8cbf 2e56 9f3f dc8c 2440 e8ea c1bf
00000040: 35c9 9abf e84a 3240 de09 fe3e ec93 8540
00000050: 5be1 16bf 5784 6b3f 92a9 d93f 40eb 763e
00000060: d5d5 133e 82d9 8f3e 8904 82bf 3423 5b3f
00000070: a233 3e40 1204 133f 8b64 483e a05a ef3d
00000080: f194 eabe 92bb 383d 5872 b63f e120 fa3e
00000090: 545d e5bf cf5d 33c0 0577 d73e 5719 bfc0
000000a0: 05b2 a1be 9930 d1be 3fce a93f 1967 253f
000000b0: c64b 193d a871 d5be af13 97bd 3937 153b
000000c0: 1ca0 543e 6742 913e 7032 2bbe 7df0 813c
000000d0: 8f79 603c cf06 a13b b07d ba3a 8205 c2bd
000000e0: afe0 7a3d 5c1d cabd 0c4f abbd c9c2 0f3a
000000f0: 84a2 31bc 3e11 01bd c93a 82bd 4098 11bd
00000100: 3424 e23c 0627 29be df93 fc3d 158c 693f
00000110: c978 38bf 28fd 563e 24cd 023f 85ea de3e
00000120: 469a 8b3e 1efe 523f dba8 bfbe 17d6 2b3e
00000130: f4d8 ad3d a8b1 613d 37b0 aabd 04f0 933e
00000140: bf66 ddbe c71f 0f3f e1ce 4abe 39b4 353e
00000150: 375d 36be 8a20 71be 2e2a 7fbd b774 3c3e
00000160: 1074 10be 35d2 273e 358b 193f 02c5 acbf
00000170: d9cc 07bf a85d 8ebf 7785 b53f 18a8 3c40
00000180: 101d 38be 090a de40 2e2f c83f dc78 d040
00000190: 0082 8140 1e63 6ac0 929b a340 0336 75c0
000001a0: 373f 1840 5f39 adbf 1e63 69be df8c 2fbf
000001b0: 2fab bc3f 8b27 6fbf 09b2 65bf 84d5 903f
000001c0: e6d0 53bf 4ea9 8ec0 0018 573e d1ee bd3f
000001d0: 5d01 0c3f 4d62 b63f 6a43 123e 97c8 b8be
000001e0: 1f9f b63f 6eda 4440 835c 81bd 0f76 5cbf
000001f0: 1e7b 253d ff2b c2c0 da92 a0bf f0e9 2ac0
00000200: 6b9f 2f3e 08f2 11be 7d5c b63f f483 64bf
00000210: 8c17 10bf a6b2 053f 38a3 bf3e fbb3 95bd
00000220: 3906 eebd 53dd d1bd 687a 193e 9730 cb3d
00000230: f8c6 cfbd cc00 fd3c 9af1 cd38 fd93 0e3e
00000240: ffef 9b3d 9ac1 11be 2b7a e83d 96ad debc
00000250: b8b9 dcbc b060 4bbd ac85 113d 2130 8d3b
00000260: 316b ad3c 4b68 083e 371c eb3d 8379 3bbe
00000270: 7283 f8bd d718 b6bc f4d6 af3d bd22 4c3e
00000280: 52c5 56be 2200 953b 2238 3abd 248d c63c
00000290: 34ec 13be ed37 59be b704 3cbf 5c9c 143f
000002a0: dd25 a33e d22f f23d eac6 8b3d 73ee 69bf
000002b0: 4d5d f9bb c423 bfbe cac5 2d3e 225c f73e
000002c0: 8b96 e6bc af6f 6bbf 2320 70be f96d 0c40
000002d0: bda1 50c0 d5b5 34be 2cfe 06bf b39a 6240
000002e0: ce55 af3f 311d 923f 086f 18c0 6d17 8d3d
000002f0: 4607 4d40 185c 573f e7e1 06c0 653f de3f
00000300: 5ef6 2bc0 95ce 64c0 f463 0740 2ab0 3abf
00000310: 8e88 21bd 27d4 b8bf d685 0dbf 2e33 1fbf
00000320: b2ba 0dbd 1984 6c3f 1d25 c03d f8cf b1bf
00000330: 70cd 83bf c3c2 743e 7bd7 c73c 24de 583f
00000340: 5779 a13f 328c b4be 2e9d 9b3d e544 613e
00000350: 0f3a 3abf 7727 29c0 1eb6 dfc0 598d b7bf
00000360: f8cb 443e 24e5 573e e7a4 cc3e ea7f 033d
00000370: e52c 0e3e 9c73 7ebe aa87 36be 411c fd3c
00000380: c01d 55bb d797 c93d 8f87 1fbd 6100 b9bd
00000390: 4c1a ba3c 34ce d9b9 ab29 fa3c 5783 423d
000003a0: 76d5 b93c 6a02 cebb fd62 b93c be7b edbc
000003b0: e8e4 993c c31d 50bd 2fdc e5bc 807c b7bc
000003c0: 49c4 393c 2262 ddbc d3d2 8cbb 711e dabd
000003d0: 2f9b fb3e a6ea 1dbe 3041 bbbe 767d 203d
000003e0: f56c 4f3e 284c 143e 833e 133e 873d 223e
000003f0: f3a1 cabe 1806 87bd e02c 26be e9cd a8bc
0.814063 0.009665778 -1.2216192 3.4378777 -1.1548227 -0.3965414 -1.2163328 -0.09753177
0.33407786 -4.92229 0.7013447 -1.9892727 -1.1015446 1.2448175 2.5710974 -1.5149813
-1.2092654 2.785822 0.49616903 4.174307 -0.58937615 0.9199881 1.7004874 0.24113178
0.14437039 0.28095633 -1.0157634 0.8560059 2.9719014 0.57428086 0.19569604 0.11687207
-0.45816758 0.045100756 1.4253645 0.4885321 -1.7919106 -2.8026006 0.42082992 -5.9718432
-0.3158113 -0.4085739 1.3266066 0.6461044 0.03742578 -0.41688275 -0.07376801 0.002276851
0.20764202 0.28370973 -0.16718459 0.015861744 0.013700857 0.0049141417 0.0014228132 -0.09473707
0.06124943 -0.09868881 -0.08364686 0.00054840423 -0.010841969 -0.031510584 -0.06358869 -0.035545588
0.027605154 -0.16518793 0.12332892 0.91229373 -0.72059304 0.20995009 0.5109427 0.435383
0.2726614 0.82419 -0.37433514 0.16780888 0.08488646 0.055101067 -0.083343916 0.28894055
-0.43242452 0.55907863 -0.1980548 0.1774453 -0.17808996 -0.23547569 -0.062296085 0.18403898
-0.14106774 0.16388781 0.5997804 -1.3497622 -0.5304695 -1.1122332 1.4181355 2.9477596
-0.17979836 6.938725 1.5639398 6.5147533 4.047119 -3.6622996 5.1127405 -3.8314216
2.3788583 -1.3533133 -0.22791716 -0.6857433 1.4739741 -0.9341971 -0.89724785 1.131516
-0.8274063 -4.458167 0.21005249 1.4838506 0.5468958 1.4248749 0.14283529 -0.36090538
1.426731 3.075832 -0.06316473 -0.86117643 0.040400617 -6.0678706 -1.2544816 -2.6705284
0.17150657 -0.14252484 1.4246975 -0.89263844 -0.5628593 0.5222572 0.37429214 -0.07309719
-0.11622281 -0.10247292 0.149881 0.09921377 -0.10145372 0.030884169 9.8201635e-05 0.1392364
0.07614135 -0.1423401 0.11351427 -0.027182382 -0.026944026 -0.049652755 0.03552787 0.004308716
0.021169277 0.13321035 0.11479991 -0.18308072 -0.12134446 -0.022228641 0.08585921 0.19935127
-0.20973709 0.004547135 -0.04546369 0.024237223 -0.14445573 -0.2121274 -0.73444694 0.58051085
0.31864825 0.11825527 0.06825049 -0.9137947 -0.0076099993 -0.37331975 0.16969982 0.4831248
-0.028147956 -0.9196729 -0.23449759 2.1942122 -3.2598717 -0.17647488 -0.52731586 3.540692
1.369806 1.1415159 -2.3817768 0.06889234 3.203569 0.841249 -2.107538 1.7363096
-2.686912 -3.5751088 2.1154757 -0.72925055 -0.03943687 -1.4439744 -0.5528234 -0.6218747
-0.034601875 0.92389065 0.09382079 -1.3891592 -1.029707 0.2390242 0.024394741 0.8471396
1.2615155 -0.3526321 0.07598339 0.21998937 -0.7274484 -2.6430337 -6.990981 -1.4340011
0.19218433 0.21083504 0.3996956 0.03210441 0.13884313 -0.24848789 -0.17825189 0.030897262
-0.0032518953 0.09843414 -0.038947638 -0.090332754 0.022717617 -0.000415431 0.030537447 0.047488537
0.022684794 -0.006286909 0.02263021 -0.028989669 0.018785909 -0.050809633 -0.028059093 -0.022398233
0.011338302 -0.027024332 -0.004297593 -0.106503375 0.49141833 -0.15421543 -0.36573172 0.03918215
0.20256408 0.14482176 0.14379315 0.15843783 -0.39576682 -0.06592959 -0.16228056 -0.020605998

net.0.bias f4 [256]
00000000: 33e4 15c0 311e e0be af4b c53f c639 0abf
00000010: a729 b33f 5001 5cc0 98e8 10c0 3a65 a2bf
00000020: a981 c7bf 1404 2840 e5d5 da40 bbd8 1e3f
00000030: ab99 40c0 c1ef 98bf cced 0bbd 89f5 97bf
00000040: 52a5 6ac0 e270 5abf c8be 4cc0 5427 f1bf
00000050: cb06 3dbf 7f39 c2bf dcdb c9bf dbcc acbf
00000060: 2501 07bf 16d4 9540 6919 2ec0 901c 96bf
00000070: 3934 45c0 2937 18c0 f844 5cc0 d328 773f
00000080: 2a6f e8bf 3a7d 8740 0498 9ebe 9cf0 14c0
00000090: 1108 22bf f9fb 553d 5492 9bbf 4405 f1bf
000000a0: f5c1 57c0 8c59 46c0 14aa debf 7ba1 9abf
000000b0: edf9 b940 ca49 f7bf d7e2 c2bf baf1 2fc0
000000c0: e893 d240 f5a4 6740 2912 23c0 1911 6ac0
000000d0: 9ed1 c2be 6c11 1840 dbaa 0dc0 0b87 47c0
000000e0: 8f39 4bc0 c1f7 a6bf cc9e 9abf e2f1 ccbf
000000f0: 12d6 da3f fb5a 8bc0 64cf f0bd 7f81 d8bf
00000100: ab29 02bf d64c 31c0 7c1c 1cc0 0faf 82bf
00000110: 51b6 39bf 7dd1 73bf 9e56 0b40 c2f0 66bf
00000120: c82b 9cbf a25c 653f d3e2 a2bf c058 28c0
00000130: ba21 e740 6ca7 debf 9bdd f0bf ee4f 22c0
00000140: d152 9dc0 5bc5 09c0 a92e 16c0 349e 42c0
00000150: 6e3a e13e b7ff 47c0 7f53 87bf 107e 8abf
00000160: c325 92bf 90bc acbf bb48 37c0 ae2c abbf
00000170: 5781 b740 b0dc 32bf d5e5 4fc0 bdd1 6bc0
00000180: 43af 2b40 a962 de3e 06bc c1bf a6bf 2140
00000190: 87f8 23c0 8001 3bc0 fc7b 10c0 0163 30c0
000001a0: 981a 05c0 2c84 f9bf e586 4fc0 c5f6 2ebf
000001b0: cc07 39c0 6ef7 83c0 e520 c1bf b14a 03c0
000001c0: e43d 26bf 118c 71bf f9b3 5a40 e4d4 42c0
000001d0: 46f0 71c0 53ef 3cbf 016f 18c0 951c acbf
000001e0: c41f 80bf 37f8 babf 7263 53bf 044f fdbf
000001f0: 7977 49c0 e07a 8c40 3d0d 8e40 f36f e5bf
00000200: 0bbe 6e3f 63f1 aebf d11a 08c0 517b 2d40
00000210: 0c31 a4bf 647e 8abf 8bae 3abf 5e7e 53c0
00000220: 665c 74bd 9369 aebf 9728 19c0 78f2 1541
00000230: efd9 9c3f 96e5 3cc0 6bee f9bf f3c3 e2bf
00000240: f250 2abd 7290 dbbe 4cb7 55bf 46f8 22c0
00000250: ad59 f5be af92 b0bf 066b 7bbf 0eb2 b73f
00000260: 9e9a a5bd 6c57 3740 ea47 8f3d 12f9 f8bf
00000270: 2060 06c0 f0d9 cabf c715 c740 c875 a4bf
00000280: 1cb5 24c0 a170 e040 6aa9 f3bf 8648 1940
00000290: 8952 f7bf 7325 ccbf 9b88 c0bf 3ebc edbf
000002a0: 6859 773f f258 2b3f ba91 23bf bf5e bcbf
000002b0: 7882 b440 f692 08c0 b369 22c0 7db6 cdbf
000002c0: f747 b0bf e930 31be 256a 833f 648e 9140
000002d0: ee88 65c0 0708 25c0 4f29 2fc0 7362 33c0
000002e0: 7ebf dbbf 1019 1ec0 99ae 0cc0 f5fa 7fc0
000002f0: 97d1 e2bf fa8f bdbf 1246 debf c974 e73f
00000300: ab49 e240 3f59 ac3e c89b 0a41 382b 80bf
00000310: cc72 2ac0 a61d 32c0 e1fa 19c0 7842 01c0
00000320: c0c8 ec3f 73e5 2bc0 2ab7 47c0 65fd 57bf
00000330: 3592 a7bf 67ea fcbf 0537 8240 e57b 0cc0
00000340: 4132 dabf fb34 41c0 1020 b4be d9cf 8440
00000350: 1e40 06bf ee21 093f ed22 c6bf 74b6 e8bf
00000360: ba29 dc3f c086 84bf c911 a540 6d63 3c40
00000370: 269e dbbf 4de6 16c0 c6ce c4bf dda2 11c0
00000380: 31a8 273d befc a8bf ab40 8240 2a32 1cc0
00000390: 8bef fabf ee8f 96bf c153 81be 9a73 15c0
000003a0: 7c88 0fc0 3ff7 00c0 a55a abbf c0d8 10c0
000003b0: 3cfd 24be a289 10c0 a020 35c0 dda7 4440
000003c0: d323 cebf ca8f 4bbf 6430 f240 115f 13bf
000003d0: 768c 2d40 cd59 29c0 1eb7 f1bf 1c05 1cbf
000003e0: a779 febf 634d 5ebf 153a e640 0906 c2bf
000003f0: 1ec1 f5bf 56ce 8c40 ad29 173f 9e3b 6ec0
-2.3420532 -0.43773034 1.5413722 -0.53994405 1.3997086 -3.43758 -2.2641964 -1.2687142
-1.5586444 2.625249 6.83861 0.62049454 -3.0093791 -1.1948167 -0.034162328 -1.1871806
-3.6663404 -0.85328496 -3.1991444 -1.8840127 -0.7383849 -1.5173796 -1.5770221 -1.3500017
-0.5273612 4.6821394 -2.720301 -1.1727467 -3.0813124 -2.3783667 -3.4417095 0.9654667
-1.8158925 4.2340364 -0.30975354 -2.3271856 -0.6329356 0.052242253 -1.2154031 -1.8829732
-3.3712132 -3.0992155 -1.7395654 -1.208053 5.8117585 -1.9319394 -1.5225476 -2.7491288
6.580555 3.6194432 -2.5479834 -3.6572936 -0.3805055 2.3760633 -2.2135532 -3.1176174
-3.175388 -1.3044358 -1.2079711 -1.6011317 1.7096579 -4.354856 -0.117583066 -1.6914519
-0.5084483 -2.7703147 -2.4392385 -1.0209674 -0.7254382 -0.9524153 2.1771617 -0.9021112
-1.2200861 0.8959447 -1.2725471 -2.6304169 7.222867 -1.7394843 -1.8817629 -2.5361285
-4.9163594 -2.1526706 -2.346598 -3.040906 0.4398989 -3.1249826 -1.0572356 -1.0819721
-1.1417774 -1.3495045 -2.863814 -1.337301 5.7345386 -0.6986799 -3.2484028 -3.6846764
2.6825721 0.43434647 -1.5135505 2.5273223 -2.562044 -2.9219666 -2.2575674 -2.7560427
-2.0797482 -1.9493461 -3.2426083 -0.6834529 -2.891101 -4.123954 -1.5088164 -2.0514338
-0.6493819 -0.9435435 3.4172347 -3.0442438 -3.7802901 -0.7380268 -2.3817751 -1.3446223
-1.0009694 -1.4606999 -0.82573617 -1.9789739 -3.147917 4.3899994 4.439116 -1.7924789
0.9325873 -1.3667415 -2.1266367 2.7106516 -1.2827468 -1.0819821 -0.7292258 -3.3045878
-0.05965843 -1.3625969 -2.3931024 9.371696 1.2254008 -2.9515128 -1.9525884 -1.7716049
-0.0415811 -0.4288364 -0.83482814 -2.5464034 -0.4791998 -1.3794764 -0.9821018 1.4351213
-0.080861315 2.8647108 0.069961384 -1.945101 -2.099617 -1.5847759 6.2214084 -1.2848444
-2.573554 7.0137486 -1.9036076 2.3950515 -1.9322063 -1.5948929 -1.5041689 -1.8573072
0.966208 0.66932595 -0.63894236 -1.4716414 5.6409264 -2.1339698 -2.5377014 -1.6071316
-1.3771962 -0.17303814 1.0266768 4.5486317 -3.5864825 -2.578615 -2.7368963 -2.8028839
-1.7167814 -2.4702797 -2.1981566 -3.9996922 -1.7720212 -1.4809563 -1.7365134 1.8082515
7.0714927 0.3366184 8.663033 -1.0013189 -2.6632566 -2.7830596 -2.4059374 -2.019682
1.8498764 -2.6858795 -3.1205544 -0.84371024 -1.3091494 -1.9759034 4.0692163 -2.195062
-1.7046586 -3.0188587 -0.35180712 4.150372 -0.52441585 0.535674 -1.5479409 -1.818068
1.7200234 -1.0353622 5.158421 2.9435685 -1.7157638 -2.3578064 -1.5375602 -2.2755654
0.040931884 -1.3202131 4.070394 -2.4405618 -1.9604353 -1.1762674 -0.25259212 -2.3351808
-2.2427053 -2.0150907 -1.3387038 -2.2632294 -0.16112226 -2.2584004 -2.8301163 3.0727456
-1.6104683 -0.7951628 7.568407 -0.57566935 2.711698 -2.646106 -1.8884008 -0.60945296
-1.9880875 -0.8683683 7.19459 -1.5158092 -1.919956 4.4001875 0.5904797 -3.7223887

net.2.weight f4 [256, 256]
00000000: a33e 1f3e 9640 7d3d cbc3 a8be bb92 213d
00000010: 9414 d6be 3022 28be 7f45 143e 2a1a b7be
00000020: 807a 1bbe ee23 8fbd ef36 3d3e 7dff 19be
00000030: 2e05 31be d943 9cbe e39c 8bbe 0212 41bf
00000040: 48f7 86be 71ae 32bd 3cc5 64be 3f97 b73e
00000050: 8d09 babd ec40 2a3d d27f c6be cb04 1dbe
00000060: d887 bfbe 5e22 09bf d534 d7bd 41fe 9aba
00000070: 9ad0 813c 7c91 f9be e579 b3be 8a01 01be
00000080: 342a 083d a2cb 94be 121a bdbe 1006 d5be
00000090: 4eef 29be 7e36 aebc 62d6 7bbe 92ef 47be
000000a0: 226e a33d 821c f6bd cd40 9dbd 1b42 103e
000000b0: 7b32 77bd f7b4 e8bd 37da a33e 6796 15be
000000c0: ee16 dabd d2ae 6f3e f645 b8be ccad 35be
000000d0: f23a b6bd 2b35 26bd b570 b23d ccd9 06be
000000e0: 13d3 2bbf 9ca5 383d 9923 e8be 56de 33be
000000f0: 063d 8ebe cb72 7bbe d733 2cbe 0a9c 5b3e
00000100: d93f 77bd 0dc5 f63d 11b8 f3bc d477 04bf
00000110: 1e4a a93d c551 7bbe 1691 59bd 0578 e63d
00000120: cdfb f4bd d16f a6be 6ecd 88be 06ec 02bf
00000130: dba6 0b3e f17d 08be a30a b9be 3b26 9ebe
00000140: ef43 93be 6367 87be 1152 21be 803b 36be
00000150: 75c1 9abe 1929 2b3e 63ab b73e e05a 03bf
00000160: 4e60 573e a3c5 8dbc 09bc 9dbe f6ca cebe
00000170: 75bb 36bf e0ee 0bbe 0b1c da3d 82c0 6ebe
00000180: cb1f 99be 7679 623e a52b e7be 0d07 623d
00000190: 89df 0bbe ef83 793c 29cd 9cbe 0628 973d
000001a0: 5813 85be e75d e5be a1d2 adbe e34b 89bb
000001b0: ad40 2e3d aad8 bdbd 33a2 10bf 9c13 c6be
000001c0: e2f7 f1bd 47e8 4cbe cb7b 33be 4895 6fbc
000001d0: 4aec 29bd cf7c 56be 09f4 353d 27ee b2bc
000001e0: baf9 513e bc24 913d 460a e73d 2492 b03d
000001f0: d643 73bd c1f6 a3bd e878 c1be 8de6 21bd
00000200: 3c10 673e c1b9 60bd 5df7 44be a715 a93c
00000210: 4a35 69be 1a7b bcbe 4bf4 ddbd d26b 8ebe
00000220: 8c82 93bd e94b 233d d848 543e f804 96be
00000230: ba44 0b3e 6d13 96be 5ae3 b63d aad3 2bbe
00000240: d1a3 09be 2b0a e0bc f084 6ebe 62ad a6be
00000250: 1dc0 ea3c 2d19 b33e 9a1d 71be 9716 1fbe
00000260: 4059 28bf 8d47 50bc 05b5 d23d 0131 f3bd
00000270: 8c64 f6be 8304 b7be 1b75 01bf 1511 d5be
00000280: 2ce5 c3bc f67a 89be df28 e7be 5189 bfbe
00000290: c589 713e 89fa b2be e584 e53b c27a 12bd
000002a0: 865e 95be 7a88 02bf 97ea 59be 9d2f abbe
000002b0: 7d0c 8dbe 3431 b6be 72d2 6bbd f4a8 a8be
000002c0: 474a 8cbe cbd8 a3be 4b76 a3be ffb8 f0be
000002d0: 2e28 23be 7676 493e fc97 58be 9f1a e1be
000002e0: 16b6 b8be 0b14 1bbe 6704 b73c 3e5b 4bbe
000002f0: 47db fd3d f2ca a5be 8c9a cdbe 08c3 ccbd
00000300: 1c6b 18bf 35df f03d 3219 1ebe 8855 243e
00000310: 5d2e bebd cc7a c3be e585 afbd 6db5 65bd
00000320: fbf5 ebbe 85f4 ebbd bb86 d1bd 2b06 953d
00000330: 62f5 e9be 7d70 e6be 383c 853d e058 93bc
00000340: c7d9 f43d 0b74 07bd f443 193e e41f 44bc
00000350: d21e f3bb 5533 01bf 814a b4bd ab58 acbe
00000360: 66da 78be 6413 97bc 49d1 b9be beb0 94be
00000370: 633b bebe f57d 82bd 1dab a8be a526 94be
00000380: 3b68 043e 7c5b 8dbe 18d9 d0bd cd03 013d
00000390: be71 b53c 89fb 0fbf a031 d9bd 6329 cd3e
000003a0: e360 9ebe a8ae 01bf 5db8 85bd a9d9 46be
000003b0: 9b17 0ebf d83f 1fbe 3c24 0f3e 4768 5c3e
000003c0: 3737 823d 745d f53d 4dd0 6ebe 78b0 bdbe
000003d0: 9766 593d 8925 f6bd 5e38 ae3c 0935 a53e
000003e0: 97c1 1c3e 58d5 6b3e 77b4 babd 79c9 173e
000003f0: 9e0f 8d3e f842 6dbd 47c0 c2be 7c7b b13d
0.15551238 0.061829172 -0.32961878 0.039446574 -0.41812575 -0.16419291 0.14479636 -0.3576215
-0.15183449 -0.06989275 0.18477987 -0.15038867 -0.17287132 -0.30520514 -0.27268133 -0.754181
-0.26360536 -0.04362339 -0.22340864 0.3585758 -0.09083853 0.04156582 -0.38769394 -0.1533386
-0.37408328 -0.53568065 -0.10508124 -0.0011825041 0.01584654 -0.48743808 -0.35053936 -0.12598243
0.033243373 -0.2906161 -0.36933953 -0.41606188 -0.16595194 -0.021266218 -0.245935 -0.19524983
0.079799905 -0.12017156 -0.076783754 0.14087717 -0.060350876 -0.11362641 0.32002422 -0.14608155
-0.10648905 0.23406532 -0.35990876 -0.1774208 -0.08897962 -0.04057805 0.087129034 -0.1316902
-0.6711895 0.045079812 -0.4533966 -0.17565283 -0.27780932 -0.24555509 -0.1681665 0.21446243
-0.060363624 0.12049303 -0.029750856 -0.51745343 0.0826609 -0.24542911 -0.05311688 0.11253361
-0.1196209 -0.32507184 -0.2671923 -0.51141393 0.13637869 -0.13329293 -0.36140928 -0.30888543
-0.28762767 -0.26446065 -0.15753962 -0.17796135 -0.3022572 0.16714896 0.35872945 -0.5131054
0.21032831 -0.017306155 -0.30807522 -0.40389222 -0.71379787 -0.13665342 0.1064988 -0.23315623
-0.2990707 0.22116646 -0.45150486 0.055182505 -0.1365949 0.015229209 -0.30625275 0.07380681
-0.2599132 -0.44798204 -0.3394976 -0.0041899546 0.04254215 -0.09269841 -0.56497496 -0.38686836
-0.11814858 -0.20010482 -0.17527692 -0.014622994 -0.04148511 -0.20946048 0.044422183 -0.021842076
0.2050542 0.07087085 0.112812564 0.08621624 -0.059390865 -0.08006049 -0.37787557 -0.03952651
0.22564787 -0.05486465 -0.19234987 0.020640207 -0.22774234 -0.3681267 -0.10837611 -0.27816635
-0.07202634 0.039867315 0.20730913 -0.29300666 0.13600436 -0.29311696 0.089300826 -0.16779962
-0.13441397 -0.027348598 -0.23292899 -0.32554156 0.02865606 0.34980145 -0.23546448 -0.15535961
-0.65761185 -0.012712372 0.10288433 -0.11874581 -0.48123586 -0.3574563 -0.50569314 -0.41614595
-0.023912989 -0.26851624 -0.4514837 -0.37409452 0.23587711 -0.34956768 0.0070043677 -0.035761602
-0.29173678 -0.50989497 -0.21280895 -0.33434764 -0.2754859 -0.35584414 -0.057573743 -0.329414
-0.2740042 -0.32001337 -0.31926188 -0.4701614 -0.15933296 0.19674096 -0.21151727 -0.43965623
-0.3607642 -0.15144365 0.022340966 -0.19859025 0.123953395 -0.32381397 -0.40156972 -0.09998137
-0.59538436 0.11761323 -0.15439299 0.16048253 -0.09286187 -0.38179624 -0.0857046 -0.056081224
-0.46086106 -0.11521248 -0.10230776 0.07276567 -0.45695025 -0.45007697 0.065056264 -0.017986715
0.119556 -0.03306965 0.14967328 -0.011970494 -0.0074194456 -0.5046895 -0.08803273 -0.33661398
-0.24302062 -0.018441863 -0.36292484 -0.29041094 -0.37154683 -0.06371681 -0.3294305 -0.28935733
0.12930386 -0.2760886 -0.10197657 0.031497765 0.022148963 -0.5624319 -0.10605168 0.40070638
-0.30933294 -0.5065713 -0.06529305 -0.19418968 -0.5550477 -0.15551698 0.13978666 0.21524154
0.06358188 0.119807154 -0.23321648 -0.37048697 0.053076353 -0.12018878 0.021267112 0.32267025
0.15308224 0.23030603 -0.09116452 0.1482295 0.27550977 -0.057925195 -0.3803732 0.08666131

net.2.bias f4 [256]
00000000: 14ab 97bf b9ee c1be cef6 6540 5609 19bf
00000010: cbea 85be 0433 b63d 4393 dfbd 90ee 83bd
00000020: 1d92 073c 0d73 94bd 7e16 b23e 4952 88bd
00000030: bd0d 66bf 91cc cabe d5d5 a53e bb0a f23e
00000040: f209 8bbe 4abf efbe 5775 213f 27c6 bf3f
00000050: ecc8 f7be 69c2 d13f 2ee4 39be f68e 0840
00000060: a4fd 2cbe 47f4 a83e 11e4 b23f 220d 5dbe
00000070: 824d 9c3f 3c29 793f 0b17 8abc 5c70 4bbe
00000080: 59ae 4f3f c004 17be db0f de3e d575 88be
00000090: f0b2 413f 96d9 523f 8e71 9fbd 1e07 c33f
000000a0: cf76 a2bd e7c9 92bf 52f2 94be a8c4 c340
000000b0: 9789 633f afd7 2f3f 76aa 09be a4b4 3dbe
000000c0: 45ce af3e 1021 913d ea55 3a3f 36b4 c93e
000000d0: b0f2 96be 2483 843f b029 3e3f 3244 673e
000000e0: 3644 b23c 93f0 013e 5c41 b5be dcef 3b3f
000000f0: a50f 353f 57aa e03d 8913 0541 351b 5abd
00000100: dd62 39bf cf79 9dbe 5d0b 28bf 9b45 273c
00000110: 038d 25be 712d 453f 2da2 72be 3294 91bd
00000120: b04f 0d3f d6fa 903f b9fb ad3e 5613 e4bd
00000130: cc33 c63f 7a7a 38be a930 34bd 32d8 643e
00000140: 959d 943b e5e5 1c3f 9f04 a1bf 9ed9 7cbe
00000150: fd26 98bd 5046 b23c 4eea 063f a10c 3dbe
00000160: bb76 153f 1c4d 97be bc15 863f e17a 80be
00000170: 0929 0fbd 72c3 723e fc13 11bf e3dd 663f
00000180: 87e2 113f 73a7 12be 4dda 283f eb8b 4cbd
00000190: 67dc 673f 7eb4 993f 1b6a 803f db2a 38bd
000001a0: 44eb 553f effc c7bc 879d e8bd b984 373e
000001b0: 4f79 a53f 1b53 673e 12f0 8b3f 9ba9 7540
000001c0: bfb6 873f 252c 753e 5d89 1b3f e589 103f
000001d0: 7954 a9bd b6d7 b1bd d3ec b83d 42d7 423d
000001e0: 11e1 563e ed44 e1be 8a61 67bd d12b 003f
000001f0: 70aa 103f baec c73c 17de e3bc 862d 6e3f
00000200: 875d 2abf c588 4e40 9343 b540 0e80 d040
00000210: 3e5b 1840 0302 c7be 6c7e 8cbe 5bc0 adbe
00000220: b6b1 90be 42f5 96be 4604 d23e f589 c4be
00000230: e624 39be ada4 273f 3579 dfbe f6b9 97bd
00000240: 4eae 183f 510d 893f 6476 ffbd f077 173f
00000250: 0c15 7cbe 6ade 1fbf 50d9 833f 74c2 a4bd
00000260: 6d8c 8bbe d956 4ebe 078f 3740 a8b1 bc3f
00000270: 18aa e2be cffd 393f 2c4f 16be f93f 31bd
00000280: 85fc 043f 25ff 0240 3cf0 4bbe dbbd 3c3e
00000290: 7d91 2fbe 8f98 833c d705 59bd 9ebc 383f
000002a0: ba95 e9be e560 443e 019c e3bd bd1e 683d
000002b0: 54e3 f9be 0d1d 8abd e1d5 8440 1337 2cbe
000002c0: 5023 b5be 0a51 2bbc 15c7 3dbf 0dbd 823f
000002d0: 1de0 b93f 09d1 9d3f 3086 8a3f 7aef 71bd
000002e0: 8cf6 a33e 569d 483f b555 f53d 48cb fe3e
000002f0: 48e3 f43e 199d 93be 91a0 ad40 2511 843f
00000300: bd54 b83f 6045 8ebe adac aebe f030 b0be
00000310: e33b a93e 4a59 f63e 6806 41bf 6a7f 5a3f
00000320: f713 503f f489 2abf 8202 9f3f f866 71be
00000330: bd7d 973f d096 4a3f 5184 8f3f c547 0c3e
00000340: 9bc8 ed3d d43c 353f 42b2 79be ff55 e1bd
00000350: a57a d3be a35b b23f 4262 9540 a6e4 a1bd
00000360: 78ee a13f 8125 afbf 289a 143f b948 6dbd
00000370: bf24 4cbe f1b4 0cbc 7b2b 57be 8e6d 523f
00000380: 414d 3a3d 0c22 0fbe 3b4a 7abf 9507 1ebe
00000390: 149e 29bf 50e8 e0bd 9861 b4bd b4c2 3e3f
000003a0: b4c3 b7be 2b52 c0bf c85b 83be 979a 89bd
000003b0: d070 8abe a228 e5be e317 403f f4f0 9abe
000003c0: 7142 ac3f e863 9040 7f18 fa3e a327 0740
000003d0: 24bf dd3e 8ccf af3f 0b24 573e 40f8 54be
000003e0: 20aa c3bd cf88 5e3e de21 023e 8a6d 033f
000003f0: 0315 003f 2906 a0be ed3c 993f 4d7d 893f
-1.1849084 -0.37877443 3.5931888 -0.5977987 -0.26155695 0.08896449 -0.1091676 -0.064419866
0.008274582 -0.07248507 0.34782785 -0.0665632 -0.8986471 -0.39609197 0.32389703 0.47273812
-0.27156025 -0.4682563 0.6306967 1.4982346 -0.4839548 1.6387454 -0.1815345 2.1337256
-0.16893631 0.3299887 1.397585 -0.21587041 1.2211154 0.97328544 -0.01685669 -0.1986708
0.8112541 -0.14747906 0.43371472 -0.266524 0.7566366 0.8236326 -0.07785331 1.5236547
-0.07932817 -1.1467866 -0.29091126 6.117756 0.8888182 0.6868848 -0.13443932 -0.1852594
0.3433706 0.07086384 0.72787344 0.39395303 -0.2948203 1.0352521 0.7428236 0.22584608
0.021761041 0.12689428 -0.35401428 0.7341287 0.70726997 0.1096999 8.317269 -0.053248603
-0.7241648 -0.30756995 -0.6564234 0.010209466 -0.16167073 0.77022463 -0.23694678 -0.07108344
0.5519972 1.1326549 0.33981112 -0.111365005 1.5484557 -0.18015471 -0.04399172 0.22348097
0.004535387 0.6128829 -1.2579535 -0.2469239 -0.074293114 0.021762043 0.5270127 -0.18461849
0.58384293 -0.29551017 1.0475383 -0.2509375 -0.034951244 0.23707369 -0.5667112 0.9018232
0.5698628 -0.1432169 0.659581 -0.049938124 0.9057068 1.2008207 1.0032381 -0.044962745
0.8356211 -0.0244126 -0.11358171 0.17921723 1.2927645 0.22590296 1.0932639 3.838477
1.0602645 0.23942621 0.60756475 0.5646041 -0.08268065 -0.08683722 0.09029546 0.047568567
0.20984294 -0.439979 -0.056489505 0.5006686 0.56510067 0.024404872 -0.027815862 0.93038213
-0.6654896 3.2270977 5.664499 6.5156317 2.380569 -0.38868722 -0.27440202 -0.33935818
-0.28260583 -0.29483992 0.41018885 -0.38386503 -0.18080482 0.6548565 -0.4364716 -0.07408516
0.5964097 1.0707189 -0.12473753 0.59167385 -0.24617404 -0.6244875 1.0300694 -0.080449015
-0.27255574 -0.20150317 2.8681047 1.4741716 -0.44270396 0.72652906 -0.14678639 -0.0432739
0.51947814 2.0468228 -0.19915861 0.18431799 -0.17145343 0.016063957 -0.052984085 0.72162807
-0.45622045 0.19177587 -0.1111374 0.05666994 -0.4880625 -0.06743822 4.1511083 -0.16817884
-0.35378504 -0.010456333 -0.741319 1.0213944 1.4521519 1.2329417 1.0822201 -0.059066273
0.32024038 0.78365076 0.11979238 0.49764466 0.47829652 -0.28830793 5.4258504 1.0317732
1.440086 -0.27787304 -0.34116116 -0.34412336 0.33053502 0.48114997 -0.754004 0.8535067
0.81280464 -0.6661675 1.242264 -0.23574436 1.1835247 0.7913637 1.1212255 0.13699253
0.11610528 0.7079594 -0.24384406 -0.110027306 -0.41304508 1.3934215 4.6682444 -0.07904939
1.26509 -1.368332 0.58047724 -0.05793068 -0.19935893 -0.008588062 -0.2101268 0.8219842
0.04548383 -0.13977832 -0.97769517 -0.1543258 -0.66256833 -0.1098181 -0.08807677 0.74515843
-0.35891497 -1.5025076 -0.2565596 -0.06718939 -0.27039194 -0.44757563 0.7503645 -0.30261958
1.3457776 4.5121956 0.48846814 2.1117942 0.4330989 1.3735213 0.21009843 -0.20797825
-0.09553933 0.21731876 0.12708232 0.5133902 0.5003206 -0.312547 1.1971718 1.0741364

net.4.weight f4 [1, 256]
00000000: 783c 27be 7220 45bf b47a 313c 261c c2bd
00000010: e3c7 43bf fa49 5bbf f9b3 e4ba 94e3 343d
00000020: bb0e 98ba 38d9 31bf d52b e6be 0ef8 c2bf
00000030: 025b f4be c9c6 3abf a765 6cbb d414 adbc
00000040: 04f7 57bf 400e 543c 7b7e 663c d674 d5ba
00000050: f9e6 09bd a200 34be dc77 0cbf e458 3cbd
00000060: d21f 6cbf a301 603c 3ade 63bd 38e1 72bf
00000070: 999f ebbc 2d9c 91bd f7d3 22bf 50c3 1bbf
00000080: dd16 7d3a 92c0 1cbf 43de df3b 7edd 1abf
00000090: d755 4ab9 f292 9dbb 53b0 f5bd be13 0bbe
000000a0: 2447 4abf 2b5c 7a3c 3d2c 33bf b078 e63c
000000b0: df6b 883b b917 023b 8339 51bf a274 38bf
000000c0: 8498 b1bb b397 3c3b 006b 83ba 7d3a 00bc
000000d0: e34f 28bf 4bf8 6dbe f148 923b d233 b0bd
000000e0: ea22 49bc 57ad 35bc ba54 05bf a87a 86be
000000f0: cba8 e93a 741b aa3b 4d0c 163f e740 6cbf
00000100: 832c 31bf 2014 0dbf b4e8 4dbd 0525 35bf
00000110: 9455 27bf 0189 5e3b 1c8d 11bf 9779 6bbf
00000120: 5232 8ebd e85c 65ba ff56 68ba ea8b 6cbf
00000130: 3ac3 33be 3b8b 5fbf 71ad 5bbf 3fd1 f8bc
00000140: ddb4 bd3b 7f75 253c 7923 f7be 473d 24bf
00000150: fa44 983c 8184 01bd 2f11 603b 16c5 65bf
00000160: 7e1e 4fbd 0511 1ebf 3053 6b3a e59d 41bf
00000170: 007a d93b efbb b43b 65b7 cabe 72a0 03ba
00000180: 7ee3 a4b9 de63 84bf 8c34 3c3b 051b 3fbf
00000190: a7c7 c9bb 647c a83d add2 0a39 4c3d 4cbf
000001a0: bdf2 b8bb 0beb 4ebf 7804 61bf f656 473a
000001b0: 5e0a e4b9 beff 7d3b b285 47bb b674 713c
000001c0: c81d 05bb cd95 ca39 87d5 dfbd 3e60 c73a
000001d0: e788 64bf 7a5e 96bb 6828 5fbf cd2c 95bb
000001e0: bb9c b43b 4bc2 30bf fa47 5dbf 8835 f23a
000001f0: 0490 15bc 3c96 65bf d1a5 2dbf a182 99be
00000200: 5b6e 27be 55a8 8c3c d573 743d 1f07 e33c
00000210: 25e5 65bd 5a4a 71bf 8836 19bf 43ee e4be
00000220: 8482 4ebf 1cfd febe de64 753c ce4d cfbe
00000230: dc02 42bf 937f 6abb 23c5 11bf f32d 84bf
00000240: 96cb 053d 3c95 5fbb d20c dabe 2d1a e73a
00000250: 4185 c2be fe48 87be 28c5 173b a451 40bf
00000260: 93f3 2dbf d275 43bf 4446 7a3c c7b2 a5bb
00000270: 1d89 16bf 77fa 0b3b ea1a 33bf 6090 4fbf
00000280: 2626 b3ba ab75 963b fb8a 0abf 46e0 8e3b
00000290: 220f 47bf 0caa 82bf 21b7 1ebf 959a 22bc
000002a0: 01bb 5bbf 1ba0 bbb9 1eac 45bf 46ea 4bbf
000002b0: 6f2b 1cbf 86f6 61bf 2b02 ea3d e6f9 49bf
000002c0: f33f 32bf 0ad6 31bf 8cc1 cdbe 9bf0 28bf
000002d0: 20d1 2abe 7393 f7be 3955 3cbb aa54 173b
000002e0: 3241 03be ac08 01bf b805 cbbc edf9 d1be
000002f0: 5766 de3b 6b1e 43be e18b 033c ddb8 4fbe
00000300: 6d74 c4be 06b4 30bf 557f 76bf b355 1cbf
00000310: 5c2e e4bc 5517 69bf 63a1 1dbf 795a f4bb
00000320: 2f7f 923b 777f 08bf 3336 c1bb 6ab3 07bf
00000330: 3a92 78bc 32a3 153b 15cf 2abf 3e37 c03b
00000340: fbb8 aabb 95d3 bfbb 2beb 80bf 8344 63bf
00000350: 4e6e 4cbf 02a8 8ebc 4036 023d f12f 55bf
00000360: 2206 ddba 98cd 16bf c216 a1bd e37b f7be
00000370: 1c12 25bf 40fb f7bc 235f 1fbf a850 00bc
00000380: 1e16 75bf 1c15 3ebf 90df 35bf b56c 43bf
00000390: 1f4c 3dbe 097d 8dbf df63 42bf 351c 88be
000003a0: 1ff8 06bb e656 1cbd cca2 42bf 5d18 753f
000003b0: a258 13bf 8675 23bf ae30 93bd 0747 18bf
000003c0: bab4 7ebb fdd8 173c f85d 22bc 2523 b43c
000003d0: 3a2c 65bb 5faa beba d416 993a 6649 0ebf
000003e0: 8969 68bf 1377 a1bd 8c13 64bf e446 7c3b
000003f0: 8f7c 523b 9f63 50bf 9b98 963c c7e0 7fbe
-0.16331661 -0.7700263 0.010832477 -0.09478025 -0.7647688 -0.85659754 -0.0017448656 0.044162348
-0.001160107 -0.69472075 -0.44955316 -1.523195 -0.47725683 -0.7295957 -0.0036071332 -0.021128096
-0.8436129 0.012942851 0.014068241 -0.001628543 -0.03366754 -0.17578366 -0.5487039 -0.04598321
-0.92236054 0.013672265 -0.055631854 -0.94874907 -0.028762626 -0.07109866 -0.6360468 -0.608449
0.0009654591 -0.6123134 0.0068319156 -0.6049422 -0.00019296199 -0.004808777 -0.11996522 -0.1358175
-0.790148 0.015280764 -0.6998938 0.02813372 0.00416325 0.0019850566 -0.8172838 -0.7205297
-0.0054197926 0.0028776943 -0.0010026395 -0.007826445 -0.657469 -0.23239248 0.0044642617 -0.08603634
-0.012276391 -0.011088691 -0.5208241 -0.26265454 0.0017826793 0.005191261 0.5861252 -0.92286533
-0.69208544 -0.55108833 -0.05027075 -0.7075961 -0.65364957 0.0033956172 -0.5685594 -0.91982406
-0.069431916 -0.0008749501 -0.0008863061 -0.9240099 -0.17554942 -0.87321824 -0.85811526 -0.030373214
0.005789383 0.010098814 -0.4826925 -0.64156 0.018587578 -0.031620506 0.003418993 -0.89753854
-0.05056619 -0.6174472 0.00089769345 -0.7563155 0.006636858 0.0055155675 -0.39593044 -0.00050211616
-0.00031450012 -1.0342977 0.0028717844 -0.74650604 -0.0061578336 0.08226851 0.00013239188 -0.7978103
-0.005644171 -0.808274 -0.87897444 0.0007604206 -0.00043495273 0.003875717 -0.003044468 0.014737299
-0.002031194 0.00038640053 -0.10929399 0.0015211178 -0.89271396 -0.004588899 -0.8717103 -0.00455246
0.005511848 -0.6904647 -0.8643795 0.0018479088 -0.009128574 -0.89682364 -0.6783114 -0.29982474
-0.16350691 0.01717011 0.05968078 0.027713357 -0.056126732 -0.94254076 -0.59848833 -0.4471303
-0.806679 -0.49802482 0.014977662 -0.40489048 -0.75785613 -0.0035781607 -0.5694143 -1.0326523
0.032664858 -0.003411605 -0.42587906 0.0017631702 -0.3799229 -0.26422876 0.0023158286 -0.75124574
-0.6794979 -0.76351655 0.015275542 -0.0050567123 -0.5880297 0.0021359005 -0.6996294 -0.81079674
-0.0013667985 0.004591664 -0.5411832 0.0043602316 -0.77757466 -1.0208144 -0.6199818 -0.009924551
-0.8583222 -0.00035786707 -0.77215755 -0.7965435 -0.61003774 -0.8826679 0.11426195 -0.7889694
-0.6962883 -0.6946722 -0.40186727 -0.65992135 -0.16681337 -0.48354682 -0.002873732 0.0023091235
-0.12817839 -0.5040386 -0.024783 -0.4101099 0.006787102 -0.19054572 0.008028955 -0.20285363
-0.38370076 -0.69024694 -0.96288043 -0.61068267 -0.027854137 -0.91051227 -0.6157438 -0.0074570742
0.004470728 -0.53319496 -0.0058963536 -0.5300814 -0.015171582 0.0022832868 -0.6672223 0.0058659604
-0.0052100397 -0.00585408 -1.0071768 -0.88776416 -0.7985581 -0.017414097 0.031790018 -0.8327628
-0.001686279 -0.5890746 -0.07865669 -0.48336706 -0.6448076 -0.030271173 -0.6225454 -0.00783173
-0.95736873 -0.7425096 -0.71044254 -0.7633775 -0.18486069 -1.1053783 -0.7593364 -0.2658402
-0.002059467 -0.03816881 -0.7602966 0.957403 -0.5755712 -0.638512 -0.07187019 -0.5948338
-0.0038865046 0.009268043 -0.009910099 0.021989414 -0.0034968988 -0.0014546624 0.0011679777 -0.5558075
-0.90786034 -0.0788404 -0.89092326 0.0038494403 0.00321177 -0.8140201 0.018383315 -0.2498809
