Q3/ddpg_actor_step6450000.pth (torch, 357342 bytes, 6 tensors)

net.0.weight f4 [256, 67]
000000 1c 79 bb be e0 63 09 be 71 7b 57 40 dc 32 65 bf
       -0.36615837 -0.13417006 3.3669093 -0.8953073
000010 0c a1 76 be ea f5 02 3f 40 57 d3 be 9e 36 9e bf
       -0.24084872 0.51156485 -0.41277504 -1.2360418
000020 70 90 06 40 80 46 9c 3f 2d ce 0d 40 71 39 14 40
       2.1025658 1.2209015 2.215709 2.316006
000030 20 5b 89 3f 5a 85 96 bd 09 a3 f5 3f 57 ca 06 3f
       1.0730934 -0.073496535 1.9190379 0.52652496
000040 9e 94 7a bc 7b 12 38 bf ae 62 95 bf 08 44 ff 3f
       -0.015294222 -0.719032 -1.167074 1.9942636
000050 20 a3 e7 be 87 e2 c5 bf bc 89 b4 bf da cf 68 bf
       -0.45241642 -1.5459756 -1.4104533 -0.90942156
000060 57 02 8b 3f cc aa 29 3f c5 b5 5a 3f 59 fd e8 bd
       1.0860089 0.6627624 0.8543361 -0.11376447
000070 a4 eb 80 bf 8a 40 88 3f 1d 20 98 3e 76 f3 85 be
       -1.0071912 1.0644696 0.29712 -0.26162308
000080 4f 25 e6 3e 98 86 f4 3e 4b 84 a7 bd 1f ac b4 3f
       0.4495034 0.47758937 -0.0817953 1.4115027
000090 8d f7 b9 3e 66 81 85 3f 91 0c ab bf 50 d1 cf 40
       0.3632168 1.0430114 -1.336321 6.494301
0000a0 e6 68 d0 3e 5c 0b ec 3d 13 9f 43 40 fb a9 85 be
       0.4070503 0.11525604 3.0565841 -0.26106247
0000b0 f9 10 da 3d f9 ae 8a bc 82 ba 94 3e 8c c6 12 be
       0.106477685 -0.016929137 0.29048544 -0.14333552
0000c0 53 3b 77 bd 59 b2 94 3e ac c7 ea bd 70 d1 b7 3d
       -0.06035931 0.29042318 -0.11463866 0.08975494
0000d0 07 77 9a be 84 1f 11 bd b5 df 1a 3e 20 dd 0d 3e
       -0.30168936 -0.035430446 0.151244 0.13853884
0000e0 7e fd f8 bd 85 20 b5 bd e8 d1 3f 3e ba 2f 88 3d
       -0.12157725 -0.08844093 0.18732417 0.06649728
0000f0 d9 ca 04 be b9 b7 8f 3c 1d be 6b bc 86 a9 b7 3b
       -0.12968005 0.01754366 -0.014388588 0.0056049256
000100 f8 6b d0 bc 1f 89 be 3c 7f 64 ee bd b1 e6 50 3f
       -0.025442109 0.023258744 -0.11640262 0.8160201
000110 d3 fc 26 3f 76 7c f8 3e 52 f1 c2 bd d2 f5 94 be
       0.6522953 0.48532456 -0.095186844 -0.29093796
000120 a6 51 00 bf 3b 33 e1 3f f5 65 03 40 25 a0 47 3f
       -0.50124586 1.7593759 2.053098 0.77978736
000130 bc a1 a1 3c 6f be 87 be 2c b6 e2 bf 75 e1 0d 40
       0.019730441 -0.26512477 -1.7711844 2.2168858
000140 a5 ba 0d 40 d8 d6 bf 3e 0e 13 96 c0 19 75 77 3e
       2.2145169 0.374686 -4.689826 0.24165763
000150 c2 85 c5 bf 54 cb 86 3f 5e 1d 91 bf bf cd f9 3f
       -1.5431445 1.0530801 -1.1337087 1.9515914
000160 d1 cf 03 c0 45 54 31 3f d6 51 ae bc 49 f5 c6 be
       -2.059559 0.6926921 -0.021279257 -0.38859013
000170 0d 9f c8 3e 07 b4 54 3e 8a 41 2d 3d e7 eb b3 3f
       0.39183846 0.207718 0.04229883 1.4056367
000180 12 b4 ac 3e c2 bb 82 be 97 d7 62 bf 48 ac 9e 3f
       0.33731133 -0.25533873 -0.88610214 1.2396326
000190 8f ab 72 bd e8 3e 11 3d a5 d7 92 3d 87 c5 29 3f
       -0.059245642 0.035460383 0.07170037 0.6631703
0001a0 cf ac be 40 22 5d 01 bf 29 6c ea bf d6 26 13 3f
       5.958595 -0.50532734 -1.8314258 0.57481134
0001b0 b9 93 2f be 9a 09 d6 be 19 41 04 bf 99 5c ae be
       -0.17146195 -0.418042 -0.5166183 -0.3405502
0001c0 09 31 d0 bd 39 a7 af 3c 05 de d9 bd 82 57 80 3e
       -0.10165603 0.021442043 -0.1063805 0.25066763
0001d0 9e 1a 12 3e 55 f6 1c be 6b ac ab be 37 af 57 3e
       0.14267966 -0.15328343 -0.33529982 0.21062933
0001e0 8b 7f bc 3d de 2d 0a 3e 28 ad b2 3e 36 e9 b8 3e
       0.092040144 0.1349406 0.34897733 0.36115426
0001f0 97 08 6d 3d bd cc 91 bd cd 98 1c 3d f1 e6 0a 3e
       0.05786952 -0.07119129 0.03823166 0.1356466
000200 7b 1c 09 3e 4d 9b 1c 3e 06 b7 01 3e 8d 62 cc 3d
       0.1338977 0.15293618 0.12667474 0.099797346
000210 b4 ef 94 3e c3 fb 8f 3d 97 86 63 3f dd d4 07 bf
       0.2908913 0.070304416 0.8887724 -0.5305918
000220 33 55 07 3e 44 41 33 3f 71 be e7 bf bd 1e 4b 3d
       0.13216095 0.7002146 -1.8104993 0.04958986
000230 00 f4 ef 3f 9a 06 09 40 8b d2 a9 3f f6 28 ff bd
       1.8746338 2.141028 1.3267378 -0.124589846
000240 f0 10 a8 3f 44 2f 8f bf 06 20 dd bf 84 15 c9 be
       1.3130169 -1.1186299 -1.7275398 -0.39274228
000250 f5 26 cc be 83 ac 13 c0 8f 89 69 3f 1c 5b 37 40
       -0.39873472 -2.3074043 0.9122552 2.8649359
000260 f9 3d 57 3e 13 43 b5 3f 8d c4 67 bd 18 35 bc 3f
       0.21019734 1.4161094 -0.05658393 1.4703703
000270 48 ce 11 40 c6 cb 8b 3f 81 50 07 bc 59 12 bd 3f
       2.2782154 1.0921562 -0.00825894 1.4771224
000280 23 08 b4 3e fc 09 08 c0 e9 bf bf 3f 38 67 46 3f
       0.35162458 -2.1256094 1.4980441 0.7750125
000290 f0 2f 0a 3e 7f 8f b8 be fd 3b 2d bf 3b 7c 01 3f
       0.13494849 -0.3604698 -0.6766966 0.50580186
0002a0 ce 93 23 bf 10 b4 48 bf 2e 54 9a be c1 ab a2 bf
       -0.6389741 -0.78399754 -0.3014235 -1.2708665
0002b0 cd c8 a4 3f ad 97 19 3f a5 6e c5 3f 84 15 37 bf
       1.287378 0.59997064 1.5424391 -0.71517205
0002c0 9c 26 f8 3d e2 bc 2a 3f 11 47 b4 3e cf fe 94 3e
       0.12116739 0.6669446 0.3521047 0.29100654
0002d0 24 66 7b 3e 60 0b c8 3e f0 65 d2 3c 5c b9 ac 3e
       0.24550682 0.39071178 0.025683373 0.33735168
0002e0 df 67 36 bd 5c 2c 0c 3c e7 93 a3 bd a6 d8 5f 3c
       -0.044532653 0.008555498 -0.079871945 0.013662493
0002f0 b0 64 c1 3d 6a 14 f8 3e 2b 1a a2 3e c9 96 1c 3e
       0.09443033 0.48453075 0.3166059 0.15291895
000300 b5 73 c1 3e 0b 04 2b 3d 36 e2 a3 3b 30 09 41 3e
       0.3778359 0.041751903 0.0050013317 0.18851161
000310 e8 f6 ee 3d c1 77 a4 be be 8c ae 3c 55 a8 9d 3d
       0.116681874 -0.32122615 0.021307345 0.076981224
000320 70 00 0e be 00 08 c7 bf ad 62 a0 bf 2f e5 32 bf
       -0.13867354 -1.5549316 -1.2530113 -0.69880956
000330 fa 4a b9 3f b5 4c f3 be a2 1a ab 3f c7 77 97 3e
       1.4476006 -0.4751946 1.3367503 0.2958357
000340 32 ed 02 c0 bf c0 0c c0 37 2f d5 bd 5c ae 16 bf
       -2.0457273 -2.1992643 -0.10409396 -0.588598
000350 2a b2 4f bf c8 67 84 3f 39 09 f5 3f 18 42 29 bf
       -0.8113123 1.0344172 1.914344 -0.66116476
000360 64 22 44 c0 76 02 10 3f e4 f5 d3 bd 21 e9 92 bc
       -3.064599 0.56253755 -0.10349634 -0.01793343
000370 75 a1 7c 3f 4e cd 54 bf 94 9a 00 3f f8 3e 1b bf
       0.98683864 -0.8312577 0.5023587 -0.6064296
000380 fb ea e5 3d 4d 9f 8f 3f 7e 77 41 3f b2 05 b4 3d
       0.112264596 1.122049 0.75572956 0.08790149
000390 42 20 53 3f 40 21 73 bf 54 e2 d2 3d bc e6 60 be
       0.82471097 -0.9497261 0.10297075 -0.21963018
0003a0 33 f0 10 be 4c 3e 89 bf e2 87 9a 3e 06 bd a2 3f
       -0.14154129 -1.0722136 0.30181795 1.2713935
0003b0 25 d6 98 be 68 60 95 3f fd 83 72 40 2b 88 bc c0
       -0.2985088 1.1670046 3.789306 -5.891622
0003c0 78 71 72 bf df 8b 12 be cf 58 36 be dc 39 f2 bf
       -0.9470439 -0.14311169 -0.17807315 -1.8923907
0003d0 f6 0a 80 be 0a af 9f ba 3b f5 cf bd f2 84 c5 bd
       -0.25008363 -0.0012182903 -0.10154196 -0.09644498
0003e0 c2 ce 9a 3d c8 df 69 3c d2 04 8a bd 62 7e 6a 3e
       0.07558967 0.014274545 -0.06739201 0.22899774
0003f0 b4 16 d9 3c d7 bf 25 3e 93 06 22 bd 22 e7 47 3e
       0.026500084 0.16186462 -0.03955705 0.19521764

net.0.bias f4 [256]
000000 7d a4 3d bf 81 35 48 bf 9e ca b9 be 32 0c 0d bf
       -0.74079114 -0.7820664 -0.36287397 -0.55096734
000010 31 74 a9 be 53 6e 4f 3e 1a 5b 19 bf df 6c 10 3d
       -0.3309646 0.20256929 -0.59904635 0.035260078
000020 49 23 7f 3e 84 3c ff 3d ea 74 e9 bf e1 4c 7a 3f
       0.24915804 0.12462714 -1.8238804 0.9777356
000030 e3 0a 09 c0 a3 1e 87 be 34 f9 48 bd 72 b9 25 bf
       -2.1412895 -0.2639056 -0.049065784 -0.6473609
000040 ca 2c a4 be 2e 2c 97 3e 37 cb 5b be de 2f 14 3e
       -0.3206542 0.29525894 -0.21464239 0.14471385
000050 76 eb 2a bf 66 4c 1b bf 39 6d 8c 3f 94 32 10 bf
       -0.66765535 -0.6066345 1.0970832 -0.56327176
000060 3b c9 b5 bf db 4c 1c bf 16 67 e4 bf c9 73 44 bf
       -1.4202036 -0.6105477 -1.7843959 -0.76739174
000070 0c 6c 96 3f 1c a9 01 be 1a 02 62 be 2b e0 e1 be
       1.1751723 -0.12662166 -0.22071114 -0.4411634
000080 89 99 da bc 00 da 86 3f 5f c7 c6 be 39 2e 8f 3f
       -0.02668454 1.0535278 -0.38823983 1.1185981
000090 10 dd 05 be 0d 6c da be 37 9f 45 bd 9d eb 5a 3e
       -0.1307261 -0.4266056 -0.048247542 0.21378942
0000a0 e3 24 ab bd 9d b6 5f 3d d2 c9 c0 bf 17 18 25 bf
       -0.08356645 0.054617513 -1.5061591 -0.64489883
0000b0 db b9 9b bd fe 41 01 3e dd 6c b4 3e f4 7c 87 bf
       -0.076038085 0.1262283 0.35239306 -1.0585008
0000c0 4b 84 74 bf 06 81 a9 3e 7e e5 51 bf d7 3a 85 3f
       -0.95514363 0.3310625 -0.819908 1.0408581
0000d0 c2 3a c5 3f 6f 7f 7e be 26 e0 27 bf 4e e6 7d bf
       1.5408556 -0.248533 -0.655764 -0.9917954
0000e0 91 b4 de be cb b5 9d 3d 45 a8 82 be 0d 92 79 bf
       -0.43497136 0.0770069 -0.25519004 -0.9748848
0000f0 48 f9 da 3c d9 7b 59 3f 20 86 f0 be bb c7 66 bf
       0.026730195 0.849546 -0.4697733 -0.90148515
000100 b2 b1 71 be 0f a1 c7 bd 3f 14 95 bf e7 27 2b bf
       -0.23602942 -0.09747516 -1.1646804 -0.6685776
000110 6d 82 bb 3e e1 06 e6 3f 8b 7b 48 be 58 67 e4 be
       0.36622944 1.7970849 -0.19578378 -0.44610095
000120 78 61 6b 3e b6 2f 01 bf 60 98 cb be 94 96 47 bf
       0.229864 -0.50463426 -0.3976469 -0.7796414
000130 3e 96 05 3f 9a 04 59 bf 73 24 65 bf 51 b3 23 bf
       0.52182376 -0.84772646 -0.8950874 -0.6394549
000140 57 7c 98 bf cc c7 f2 be ca 35 d8 bf 1d 61 89 bf
       -1.1912946 -0.47418058 -1.6891415 -1.0732762
000150 10 32 90 bf 2f a3 42 bf ae da 54 be 26 e8 ce 3e
       -1.1265278 -0.7603025 -0.20786545 0.4041149
000160 d9 39 c8 bf a5 66 36 bf b3 a4 8e be 61 0a 8b be
       -1.5642654 -0.71250373 -0.2786003 -0.27156356
000170 97 ba 9d bf cd 1d 05 bf 8b 05 15 bf c3 3b 3a 3e
       -1.2322568 -0.519986 -0.5821158 0.1818686
000180 4f 49 64 be d4 c8 f4 be 2a 7a 54 be ec e3 86 3f
       -0.2229359 -0.4780947 -0.20749727 1.0538306
000190 24 39 04 bf fe 86 84 3f db 47 86 3f 0d 08 00 bf
       -0.5164969 1.0353696 1.0490679 -0.50012285
0001a0 60 5c 5d bd 6b 75 91 be 60 af 41 bf c6 69 de bf
       -0.054043174 -0.28409895 -0.75658226 -1.737603
0001b0 7e bf 62 3e 5c b7 e3 3e ad 65 73 3e 07 9c a9 be
       0.22143361 0.4447583 0.23769255 -0.33126852
0001c0 a4 d0 3e 3c ff 37 75 3f 32 8e cb 3e 38 74 ee be
       0.0116464235 0.9578857 0.39756924 -0.46573043
0001d0 21 25 04 bf fa 4c cc bf 28 fb 30 bf be 2c d7 be
       -0.51619154 -1.5960991 -0.69133234 -0.42026323
0001e0 75 06 9f 3d 33 09 78 be c3 5e 01 c0 f3 e5 fb be
       0.077649035 -0.24222259 -2.0214088 -0.49198875
0001f0 07 d1 f0 3d 61 13 e2 39 14 9e fa bd 44 74 a3 bf
       0.11758619 0.00043120518 -0.12237182 -1.2769856
000200 e2 d7 48 bf 4f d1 4e bf 43 c1 c1 be 90 4a cf 3e
       -0.7845441 -0.8078813 -0.3784276 0.40486574
000210 db c8 c8 be 9b 4b 1c 3f 96 d7 23 40 4c 39 22 3d
       -0.3921574 0.61052865 2.5600333 0.039605424
000220 05 bc 1f 3f 23 1c 28 be a2 9c 48 3f a6 79 8e 3d
       0.6239627 -0.16416983 0.78364 0.06956796
000230 80 7e 0c bf 31 71 bb bf ad 06 2a be bf 92 4d 3e
       -0.54880524 -1.4643918 -0.16604109 0.2007551
000240 2b 85 4f bf 41 bc e5 bf c9 7e 7a be 26 46 31 be
       -0.81062573 -1.7948076 -0.24462427 -0.17311916
000250 4f bc 04 bf 66 9f bd be b2 d5 81 3e af 22 93 bf
       -0.51849836 -0.37035674 0.2535835 -1.149496
000260 88 c2 55 be 03 7d 36 bf dc 7d a3 bf 6b 28 96 bf
       -0.20874989 -0.712845 -1.2772784 -1.1731085
000270 3c bb c2 bf 5e e3 26 3e 71 51 db bf 0c 55 bf 3e
       -1.5213389 0.16297671 -1.7134229 0.37369573
000280 e9 d1 24 be ca ce 97 bf f4 78 0c be ac 4e 4f bf
       -0.160957 -1.1859982 -0.13718015 -0.8097942
000290 45 72 4f 3f 5f b6 e1 3e 18 ed f7 bf 12 9c bf be
       0.81033736 0.4408445 -1.936923 -0.3742376
0002a0 e4 bb 99 bd ce b6 91 bf 9c 08 2a bf fb 6c 1b be
       -0.075065404 -1.1383913 -0.66419387 -0.15178291
0002b0 e1 f7 49 bf f9 47 c0 3e 52 56 a6 bb b8 1b 79 bf
       -0.7889386 0.3755491 -0.005076208 -0.9730792
0002c0 e7 cc 17 3f 38 15 6e 3e 50 ee 98 bf d8 84 04 bf
       0.5929703 0.23250282 -1.1947727 -0.51765203
0002d0 83 7b 8b bf 20 6c 37 be 6c a4 4f bf e0 45 80 bd
       -1.0897068 -0.1791234 -0.8111026 -0.062633276
0002e0 fa 17 cd bd 12 c4 d6 be a8 fa 09 3f 3c 32 43 3e
       -0.10014339 -0.41946465 0.53898096 0.19062132
0002f0 b6 ad 9f 3e 62 98 9c 3f 49 04 ff 3e 8b d3 94 3e
       0.31187218 1.2234004 0.49807957 0.29067644
000300 54 81 e7 be a5 5e 5d 3f 51 89 e8 3e d2 8a 2e bf
       -0.45215857 0.8647254 0.45417264 -0.68180573
000310 1b 6a 57 bf 41 f3 17 bf 0a 7f 26 bf c9 14 03 c0
       -0.8414628 -0.5935555 -0.65037596 -2.0481436
000320 e7 14 df bd 65 c1 3a 3f c7 bb 91 3e 04 18 ac 3f
       -0.10892659 0.72951347 0.28463575 1.3444829
000330 fc fd 90 3e 92 d7 89 bf 01 8a 39 bd 52 a2 4e bf
       0.28318775 -1.0768912 -0.045297626 -0.8071643
000340 91 8c 3e 3e 07 90 41 bf 44 1e 9c bf 82 17 f8 bd
       0.1860831 -0.75610393 -1.2196736 -0.12113859
000350 3c 7c 30 3f 67 1d 39 bf db 34 98 be 4d eb dc bd
       0.68939567 -0.7231049 -0.29727826 -0.107870676
000360 b5 3d 9e be 61 1b 28 3f 22 dc 2a bf 53 d4 6f bf
       -0.30906454 0.65666777 -0.66742146 -0.93683356
000370 bd 5a c1 3e c8 2e f9 3f 35 0f c5 3f 7e 7f 20 3e
       0.3776454 1.9467402 1.5395266 0.15673634
000380 2a cd 8b 3f 09 52 75 bf 21 5c ca 3e 5f 69 4f 3e
       1.0921986 -0.958283 0.39523414 0.2025504
000390 43 69 05 3d 52 1f 92 3e 86 10 1e bf da bc 53 bd
       0.03257109 0.2853952 -0.6174396 -0.051693775
0003a0 63 22 f0 be 60 a2 91 be 2f 5c 74 3e 71 93 6c be
       -0.46901235 -0.28444195 0.2386329 -0.2310312
0003b0 78 56 ed 3e 4c b9 d8 3b f5 f4 96 bf d2 c3 78 3e
       0.46355033 0.006613886 -1.1793505 0.2429345
0003c0 2b ac 7a be 44 e2 a0 3e d1 14 a0 bf c5 58 97 bf
       -0.2447974 0.31422627 -1.2506353 -1.1823965
0003d0 ef c6 44 bb 66 ca 8e bf 89 c4 45 bf b1 73 fc bf
       -0.00300258 -1.1155517 -0.77253014 -1.9722806
0003e0 c2 93 b8 bf b3 b1 7e 3e 2d 02 20 bf bc e9 a2 be
       -1.4420092 0.24872474 -0.6250332 -0.3181895
0003f0 0b 49 c3 bf 34 93 ce 3f 49 c2 57 3f 8f 19 9b bd
       -1.5256666 1.6138673 0.8428083 -0.07573234

net.2.weight f4 [256, 256]
000000 fe b2 66 bf 7d 59 cf 3e 3b ef a7 3f a7 f6 a5 3e
       -0.9011687 0.40497962 1.3119882 0.32414743
000010 c4 fb 96 3f b4 4a 8b bf d0 c6 93 bd 93 b5 0a 3f
       1.1795583 -1.0882173 -0.07215655 0.5418331
000020 ed f4 f2 3c 75 3d c2 be a2 67 ca 3f 64 1c 19 3f
       0.029657805 -0.37937513 1.5812876 0.59808946
000030 4b a0 ec 3e 95 c2 9a 3e 16 90 31 bf 76 b1 96 3d
       0.46216044 0.3022658 -0.6936048 0.07358067
000040 e5 f5 90 bc 02 09 f3 3c 2d 69 d2 3f 29 38 2c 3f
       -0.017695377 0.029667381 1.6438347 0.67273194
000050 f0 b8 5a 3e a2 e1 ac bc 79 5d 45 bf a6 4e 2e bf
       0.2135961 -0.021103684 -0.7709575 -0.6808876
000060 0d cd a1 be 46 b9 c3 be b0 66 42 3e 67 8d bd bf
       -0.31601754 -0.3822729 0.18984485 -1.4808778
000070 a6 b2 89 bd c8 cd b1 be 1b 21 a0 3e 03 7d 4e 3f
       -0.067235276 -0.3472731 0.31275257 0.806595
000080 45 72 0e be f8 3f 39 bf bf e3 23 3e 4e f5 33 bf
       -0.13910778 -0.72363234 0.16004847 -0.7029618
000090 c8 31 71 bf e6 d8 1c 3a 15 b4 0c bd 2e e6 12 3f
       -0.94216585 0.0005983248 -0.034351427 0.57382476
0000a0 d1 bd eb be 47 5d 3f 3c 19 9d 02 3e d4 b6 9e bd
       -0.46043256 0.011679954 0.1275524 -0.077497154
0000b0 5d 2d 8b bf b0 0b 2d 3f 3c a0 57 3f 5a 9e 96 be
       -1.0873219 0.6759596 0.84228873 -0.29417688
0000c0 cc 35 c6 be 98 19 81 3f ff 31 04 bf 6d 8d 53 be
       -0.3871292 1.0085936 -0.5163879 -0.20659418
0000d0 ae 69 d2 3e c8 d9 84 3e a8 06 df bd 41 2b e6 be
       0.41096252 0.25947404 -0.108899415 -0.44954875
0000e0 69 d7 14 3e c2 89 bb bd 52 d2 ce 3c 2f 1f ef 3c
       0.14535297 -0.091571346 0.025246773 0.029189674
0000f0 63 f9 d1 bb 2a 4b a6 bf 14 1e d1 3e b2 b4 4c bf
       -0.006407903 -1.2991688 0.4084326 -0.7996322
000100 f5 e1 81 3d 0d 81 57 3e 39 9a 00 3f bf 29 79 be
       0.06341926 0.21045323 0.50235325 -0.24332331
000110 64 cd 52 bf 7f c6 dc bf 1b da ae bf fd ad 11 bf
       -0.8234465 -1.7248076 -1.366031 -0.5690611
000120 ad 7d 53 3c c5 4c 02 3f 79 ea 86 3e 35 4a a0 bc
       0.012908381 0.5089839 0.26350763 -0.019566635
000130 a4 89 25 be 04 42 33 be 1e 28 18 c0 e5 4e 77 bf
       -0.16165787 -0.17505652 -2.3774486 -0.9660476
000140 b0 04 53 bf ca 36 84 be bc 2d 03 3f 4d 4a 7a 3e
       -0.8242903 -0.2582305 0.5124166 0.24442406
000150 83 a5 14 3f 30 57 cc be 2d f0 93 bd 01 8b 5f 3f
       0.5806505 -0.3991027 -0.07223544 0.8732148
000160 fe 70 88 3f aa 49 36 be fd e6 e8 be cf 68 1a bd
       1.0659482 -0.17801538 -0.4548873 -0.03769761
000170 9c c4 d7 bd 47 04 d2 be 55 95 3b 3f 0c ec 93 3e
       -0.10535547 -0.41018888 0.7327474 0.28891027
000180 e5 08 b5 bd 8f db d0 3e 60 7e 70 3c 26 fa e8 3e
       -0.08839587 0.4079251 0.014678568 0.45503348
000190 7c 5b de 3d 18 f2 d2 be f2 0a 95 bf 3c cb 8e bf
       0.10857293 -0.41200328 -1.1643965 -1.1155772
0001a0 7b e2 3a 3f 37 a4 5d 3e 65 0b cc 3e 57 cf d9 3e
       0.7300183 0.21644674 0.39852443 0.42541
0001b0 dd 5d cd 3e 0a 07 c1 3e aa 75 5f 3f bc 86 2f bf
       0.40110675 0.37700683 0.87288916 -0.68564963
0001c0 95 44 40 bd d1 98 9b 3f fd 0c 8e 3f 56 b7 78 bf
       -0.046940405 1.2156011 1.1097714 -0.9715475
0001d0 93 d5 68 3f 2d 34 8b 3f 52 6c 34 bd 57 29 ab 3e
       0.9095089 1.0875298 -0.044048615 0.33429977
0001e0 16 71 8a bf 72 06 00 bf 32 b7 21 3e 87 5b b2 be
       -1.0815761 -0.50009835 0.1579254 -0.34835455
0001f0 9e c6 48 3f 50 10 d5 bf 44 10 b4 3d 8c d1 07 3f
       0.78428066 -1.6645603 0.08792165 0.5305412
000200 bc f7 f0 be d6 4c 6e bf 79 a8 64 be c7 f4 cc 3e
       -0.47064006 -0.9308599 -0.22329892 0.400305
000210 5a 03 db bd ac fd a9 3f 2f 3d ab 3d 63 c1 2b bf
       -0.10693999 1.328054 0.08361279 -0.6709196
000220 e5 3a c0 bd 3b bc c6 3e 74 89 8e bf 7a 87 38 bf
       -0.09386233 0.38815483 -1.1135697 -0.7208172
000230 37 61 88 3e 9b cf 0b bf 71 3f 78 bf 38 18 68 bf
       0.2663667 -0.54613656 -0.96971804 -0.90661955
000240 a6 bc e3 bc 75 3b 1c bf 1e 88 57 bf 7b 27 13 3e
       -0.027799916 -0.61028224 -0.84192073 0.1437053
000250 d5 9b 0e 3f 28 05 c3 3e 95 7d 49 bf 0d 92 0a bf
       0.5570653 0.3808987 -0.7870725 -0.54129106
000260 c0 bb 00 bf 78 8b 82 3e 27 86 09 bf 7b da 47 3d
       -0.50286484 0.2549703 -0.53720325 0.048792344
000270 ae 40 04 bf 04 3a fc bc e1 30 65 3d c0 a1 d7 be
       -0.51661193 -0.030789383 0.055954818 -0.42115593
000280 f0 a3 13 3f f3 96 28 3f 53 96 36 3f fc 0d 0d 3f
       0.57672024 0.6585533 0.71323127 0.55099463
000290 cc 1e 3d 3d 33 e9 68 bf c0 e5 1b 3f 23 e8 07 bf
       0.04617195 -0.90980834 0.60897446 -0.5308859
0002a0 60 33 78 3e c4 5c 3d bf d9 3d 07 3e 28 63 3f 3f
       0.24238348 -0.73969674 0.13207187 0.74760675
0002b0 8f 6b c3 3e 7d 82 77 bf f4 3e 19 3f 2c 99 f0 3e
       0.38167998 -0.96683484 0.59861684 0.4699186
0002c0 d4 5e 87 be 14 5d 4f be 01 1b f2 3e c5 83 db bd
       -0.26439536 -0.2025035 0.47286227 -0.107184924
0002d0 88 4d 44 3e 95 58 9d be 77 0f 33 bf c2 f2 ef bd
       0.19170201 -0.30731645 -0.6994547 -0.11716224
0002e0 db 86 53 bf 24 21 dc 3d 01 a7 fa be 1f cf 3f bf
       -0.8262765 0.107485086 -0.4895554 -0.74925417
0002f0 a5 16 ab 3e 8b 9c c3 3d da 83 a5 3e d9 7b 91 bf
       0.33415714 0.095513426 0.32327157 -1.136592
000300 4e db 9e be 66 0f b0 3e 44 ea 38 3a 49 d6 99 bf
       -0.3102669 0.34386748 0.0007053951 -1.201852
000310 ac ba 1e 3f a7 0e cc 3e 37 da cc 3e b3 9b 22 bf
       0.6200359 0.3985493 0.40010235 -0.6351883
000320 9e 31 0e bc 79 d5 ca bc 0f b3 b5 3f e7 64 dc be
       -0.008678822 -0.024759995 1.4195269 -0.43045732
000330 f0 ec 2f 3f 1f 60 84 bd f1 98 1d 3f 34 ca 16 3f
       0.6872091 -0.06463646 0.61561495 0.5890229
000340 9a 3f c3 3e 5e fb c5 be 91 90 5d 3f dd 40 33 be
       0.38134462 -0.3866834 0.86548716 -0.17505212
000350 e2 4c 15 3e 0f 84 66 3e 1f 63 75 3e 40 d2 b4 3e
       0.1458011 0.22511314 0.23963593 0.35316658
000360 ba 2d 50 3e ef 64 1e bf 4a 95 11 bf 8c 60 09 bf
       0.20329943 -0.6187276 -0.5686842 -0.53662944
000370 18 06 6e 3f b3 53 ad be 5a 64 55 be a9 6d 97 3e
       0.9297805 -0.3385292 -0.20839062 0.29575852
000380 44 ad 5f bf 0d 87 0c 3f c5 91 b1 be 69 b3 7c 3e
       -0.8737376 0.5489357 -0.34681526 0.24677815
000390 20 94 47 3e 2d ff 42 be a2 c5 09 3d 53 7a 44 3e
       0.19490099 -0.19042654 0.033635743 0.19187288
0003a0 14 25 89 3f a2 3a d5 bf 7b 27 e8 3e d6 20 b3 3e
       1.071444 -1.6658518 0.4534262 0.3498599
0003b0 c0 f8 67 bc f3 8b 45 be 28 ce 2c 3f 5b cf 01 3f
       -0.014158428 -0.19291668 0.6750207 0.50707024
0003c0 41 3a a7 3f 8c 24 9f 3d d4 61 8a 3f ae 10 a9 3e
       1.3064653 0.07770643 1.0811105 0.33020538
0003d0 b0 57 28 3f b3 0e 2e 3e 33 63 d5 be 74 05 90 3f
       0.657588 0.16997795 -0.41677245 1.1251664
0003e0 58 ba 39 3f 9b e5 2d 3f 63 6a 37 bf 81 bb 0e be
       0.72549963 0.67928475 -0.7164671 -0.13938715
0003f0 9f 04 4e 3d 18 e0 ae bf f0 25 e3 be 41 f7 f4 3c
       0.050297376 -1.3662138 -0.44364882 0.029903056

net.2.bias f4 [256]
000000 88 72 c8 bd ce ef 1f bf 51 d8 9a 3e e3 ad 05 bf
       -0.0978747 -0.6247529 0.3024316 -0.52218455
000010 0d 0c 2e 3f d9 24 23 3f 32 c5 61 be 70 62 8d be
       0.6798714 0.637281 -0.2204788 -0.27614164
000020 58 93 65 be b2 4f 8e 3f 79 16 31 3f 8d bc 0f bf
       -0.22419488 1.1118071 0.69174916 -0.5614708
000030 5d c7 e6 be 73 eb 7b 3e a4 f5 82 3c 23 91 bf be
       -0.45073977 0.24601535 0.015986271 -0.37415418
000040 bc d9 13 bf aa 19 d8 be de 41 94 be 51 34 38 3e
       -0.5775411 -0.4220708 -0.28956503 0.17988707
000050 93 27 31 bf 7a 90 67 bf b5 25 b1 3c c5 95 f2 be
       -0.6920101 -0.9045483 0.021624425 -0.4737989
000060 9a 2e 7b 3e 5b 18 a1 be 0d 8a d1 be 4c f1 89 be
       0.24529496 -0.31463894 -0.40925637 -0.26941907
000070 c2 7b 1a be 4a 65 83 bc c7 5b cc be d7 3a e4 3d
       -0.15086272 -0.01603951 -0.3991377 0.11144035
000080 06 25 6b be e1 23 06 bf 42 d1 45 3f 00 9d ca be
       -0.22963342 -0.52398497 0.7727243 -0.39572906
000090 b7 db 52 3e e3 86 28 3f e6 cc 0d 3f 94 ba 01 3d
       0.20591627 0.6583082 0.55390775 0.031672075
0000a0 3b 9e de be 66 b3 33 bf c5 df 54 bf 2f f6 2e 3e
       -0.43480095 -0.70195615 -0.83153945 0.17086099
0000b0 3d 13 d6 be 25 94 91 be 46 ab 2c 3c bf ce 1b bf
       -0.41811553 -0.28433338 0.010538882 -0.60862345
0000c0 5c a8 9f 3c ea cb 15 bf bf 3b 8a 3e 4e 89 ac be
       0.01948946 -0.58514273 0.26998708 -0.33698505
0000d0 f0 64 5b be b4 81 ec 3c 3d 2a c4 be c6 8d cf be
       -0.21425223 0.028870441 -0.38313475 -0.40537852
0000e0 d7 fc f4 be d6 0e ad be 38 02 e8 be e3 c1 05 bd
       -0.47849151 -0.3380038 -0.45314193 -0.032655608
0000f0 8b 3d ce 3e ba cb 4c bf 70 51 90 3d b0 3e 2d bf
       0.4028133 -0.7999836 0.07046783 -0.6767378
000100 49 53 0d 3f 40 b3 ac bd a9 0d aa be ae a9 2b 3e
       0.5520521 -0.08432627 -0.33213547 0.16763946
000110 ff f1 63 3e 20 78 9c 3e 66 ab cc 3e 1f 2a 29 bf
       0.22260283 0.30560398 0.39974517 -0.66079897
000120 82 a4 a5 be d1 ec 35 bf 58 45 23 be 26 74 b0 be
       -0.32352072 -0.7106448 -0.15944421 -0.34463614
000130 1f de ef be fb 28 db be 97 f0 29 bf 7e 84 aa bf
       -0.46849152 -0.42804703 -0.66382736 -1.3321683
000140 bd 5c 72 3e 66 49 f7 be 6b 0b d0 3d a2 52 ce be
       0.2366819 -0.48298186 0.10158428 -0.4029742
000150 e3 32 2f bf b6 59 83 3f 05 a8 23 be 90 db 02 bf
       -0.6843702 1.0261753 -0.15982063 -0.51116276
000160 45 3c 3c bf e2 71 33 bf 03 f8 c7 be 7c 29 35 bf
       -0.73529464 -0.70095646 -0.39056405 -0.70766425
000170 98 f8 43 3b a0 ed 4b bf 2d af f1 3c 82 28 62 3f
       0.0029902812 -0.7965946 0.029502476 0.8834306
000180 86 e0 72 bf b5 43 d1 3f b5 f5 00 bf 69 72 2b bd
       -0.94873846 1.6348788 -0.5037492 -0.041857157
000190 ec 39 46 3d 60 36 25 be bf bb 87 be 1f 6a 7a 3f
       0.048395082 -0.16134024 -0.26510426 0.9781818
0001a0 1a 11 6f be 03 2d d9 3e ec 15 8b bd 84 db cc bd
       -0.23346367 0.42417154 -0.06791291 -0.10002807
0001b0 d8 f0 15 3e ea 97 00 be a2 76 8f 3e ac 72 ee 3e
       0.14642656 -0.1255795 0.28020197 0.46571863
0001c0 bc 12 39 3e 36 4b 4e be ad ff 36 bf ce 71 b5 3e
       0.18073553 -0.20145878 -0.7148388 0.3543839
0001d0 0b 26 21 3f 96 a4 07 3e e6 1e ed 3e cd 6d 62 be
       0.62948674 0.13246378 0.46312636 -0.22112198
0001e0 e6 64 b3 be 0c 80 1b 3e f4 f3 80 3e 37 a7 79 bc
       -0.35037917 0.15185565 0.2518612 -0.015237621
0001f0 86 13 b7 be ab 6a a8 3e 1c 79 31 be 09 93 9d be
       -0.35757083 0.3289388 -0.17331356 -0.3077624
000200 ee c3 be bd 86 16 16 bf 5d e7 e9 bd f7 8b 4e bd
       -0.09314714 -0.5862812 -0.11421082 -0.05042645
000210 7b 90 27 3d ca d3 38 bf 9a 66 83 3d 7c 14 0b be
       0.04090927 -0.72198164 0.06416054 -0.13582033
000220 98 1b 74 bf e9 12 55 3e ee f2 0d bf 64 30 6f bf
       -0.95354605 0.20807995 -0.55448806 -0.93433213
000230 c9 f4 1b 3e 32 b6 e2 bb cf d5 58 bf 4b dd 95 bf
       0.15230097 -0.006918692 -0.84701246 -1.1708158
000240 f2 55 4d be 8d dd 48 3e 9e 06 c1 3e 64 31 85 be
       -0.20052317 0.19615765 0.3770036 -0.26014245
000250 9a d8 15 bf b9 52 91 bd d6 ce 74 3d 71 ae b0 bf
       -0.5853363 -0.07095856 0.059767567 -1.3803235
000260 e0 09 dd be ef 49 02 be 51 70 02 bf bb b2 42 be
       -0.43171597 -0.12723516 -0.5095263 -0.19013493
000270 6b 66 bb 3e 01 42 65 be 86 42 cf be 0f 3f 86 3d
       0.36601576 -0.2238846 -0.4048044 0.06554996
000280 39 8b 54 3e fd 8b c7 be b3 6e 10 bf dd a1 0c be
       0.20756234 -0.3897399 -0.56418914 -0.13733621
000290 56 cb 2d bf 12 89 a8 be 85 e1 e2 be e0 6e b2 3e
       -0.6788839 -0.32917076 -0.44312683 0.34850216
0002a0 2f 26 98 3d 2d 32 16 bf f7 37 f8 bd 44 f1 93 bf
       0.07429158 -0.5867031 -0.121200494 -1.1558003
0002b0 b1 5f 59 3c 40 62 ed bd 43 2a d7 3e fb d4 7c 3f
       0.0132674435 -0.11591005 0.4202443 0.9876248
0002c0 67 36 18 bf b7 83 5d bf 69 0b b5 be 91 92 1c bf
       -0.5945801 -0.86529106 -0.35360268 -0.6116114
0002d0 43 17 39 be 28 41 1e bf 7c f8 c9 be 20 74 22 3e
       -0.1807528 -0.6181817 -0.3944739 0.1586461
0002e0 a8 31 17 bf 2e 69 ae be 75 c8 3d 3e 8c 75 fb 3e
       -0.59060144 -0.3406462 0.185335 0.4911312
0002f0 ce 59 94 be 07 61 58 bf 38 d5 49 be 69 9d b8 be
       -0.28974766 -0.8452305 -0.19710243 -0.36057594
000300 70 cf 93 3e e7 d6 6c 3e 4d 6f 85 be ba bb 11 bf
       0.288692 0.23128854 -0.26061478 -0.56927073
000310 bc 15 96 be 51 3c 87 bf 5f 99 08 3d 02 8b 83 3e
       -0.29313457 -1.0565282 0.03334939 0.25691992
000320 e5 db 21 3e d1 10 27 3f 1e 8b f3 3d 5b f5 74 bf
       0.1580654 0.65260035 0.11891769 -0.9568688
000330 4c e5 27 3e 32 72 c1 bc 85 ac bf 3e bb 08 dd 3d
       0.16396064 -0.023614023 0.3743631 0.10792681
000340 92 1a 3a bf 14 f8 4f 3b c5 6a 05 bf ac 14 65 be
       -0.72696793 0.003173356 -0.5211604 -0.22371167
000350 fd 05 7f 3f bc 33 51 3d 63 b1 86 bf 52 6c 46 3e
       0.9961851 0.05107473 -1.0522884 0.19377258
000360 99 51 c2 3e 5f 7e f4 3e 85 18 de 3e 6a 06 c8 3e
       0.3795288 0.47752663 0.43378082 0.39067394
000370 56 64 7c 3e a8 65 73 bf 41 60 8f 3e de 40 5e be
       0.2464765 -0.9507699 0.28003123 -0.21704432
000380 a3 64 45 3e a3 3d 05 3e 85 1d 68 be 57 30 2e be
       0.19276671 0.13011794 -0.22667511 -0.17010628
000390 45 0d 36 3f 82 97 c8 be 31 bc 80 be 83 a5 69 bf
       0.71114 -0.3917809 -0.2514358 -0.91268176
0003a0 7d 0e 69 3f aa fd 45 bf 7a cd 11 bf 78 73 ef 3e
       0.9103773 -0.77340186 -0.5695416 0.46767783
0003b0 56 aa 4a bf f2 62 26 3f c2 8e 09 bf 25 d8 a9 3c
       -0.7916616 0.6499473 -0.53733456 0.020732949
0003c0 65 77 c8 be b7 4a 17 3f 5c 03 3d be 6a 2a ca be
       -0.3915359 0.5909838 -0.18458313 -0.39485484
0003d0 c1 35 32 bf 02 b4 16 be d9 ec 82 be 99 61 0b 3c
       -0.6961327 -0.14717105 -0.25571325 0.008507156
0003e0 df f9 4f be cf 68 a4 be fe b6 e4 3e a1 5c 50 bf
       -0.20310162 -0.32111213 0.44670862 -0.8139134
0003f0 c6 77 fb 3c 92 43 a5 be cf 8b 0f bf d3 6f 58 3f
       0.03069676 -0.32278115 -0.56072706 0.8454563

net.4.weight f4 [21, 256]
000000 9c ac 42 bf a5 71 d9 be 21 c0 a6 be 2d 13 47 bc
       -0.7604463 -0.42469516 -0.32568458 -0.012150568
000010 8d c4 c7 be 19 c8 2d 3e b6 20 af 3d 79 da 40 bf
       -0.39017144 0.16970862 0.08551161 -0.7533336
000020 b5 68 e5 be 83 ef 04 3f d8 0c 04 bf 8b 0a 7f bf
       -0.44806448 0.51927966 -0.515821 -0.9962546
000030 c3 6b 94 be 26 e7 32 bf 5c 41 74 be 56 65 e7 be
       -0.28988466 -0.69883955 -0.23853058 -0.451945
000040 29 38 f1 bd 23 ff ed 3e 6e 6e 75 3f f2 f7 44 bf
       -0.1177829 0.46483716 0.9587163 -0.76940835
000050 f5 36 26 3e 27 f2 31 bf 97 40 0a 3f 3d de 66 be
       0.16231902 -0.6951012 0.54004806 -0.22545715
000060 0a 86 17 3f 66 2e 82 3e db f4 2e bf f3 22 7c bd
       0.591889 0.25426024 -0.6834237 -0.061556768
000070 2b 44 ae 3e d1 c5 4d be 33 7e 8a 3f a8 1b 8d 3f
       0.34036383 -0.20094992 1.0819763 1.1024065
000080 39 dc 89 be ba d3 85 be 5f 03 0f bf 38 6e 17 3d
       -0.2692583 -0.26138097 -0.5586452 0.036970347
000090 02 bf 9a be 47 a2 71 bf 70 16 4d 3f 00 fc 3f 3c
       -0.30223852 -0.9438824 0.8011236 0.011717796
0000a0 ba 58 78 be f6 d7 c5 3e 78 31 26 3f 32 2b 08 3f
       -0.24252596 0.38641328 0.64919233 0.5319091
0000b0 40 6f c7 be 4e 85 0b bf 5a 03 90 bf d1 de 46 bc
       -0.38952065 -0.5450028 -1.1251023 -0.0121380845
0000c0 53 bb 90 3e c4 67 51 3f 18 ac 18 bf 75 8f 9f bd
       0.28267917 0.8179896 -0.59637594 -0.07791034
0000d0 40 33 b0 bd 00 d5 9d 3f 65 7e 4e 3e 6d 5c 5d 3f
       -0.08603525 1.2330627 0.20165403 0.86469156
0000e0 38 85 e8 3e fd 4a 00 bf ca 92 8b bd 0a b1 9b 3e
       0.45414138 -0.50114423 -0.06815107 0.30408508
0000f0 78 81 de 3e 9c 53 06 3e ff d2 a5 bf 48 76 e0 be
       0.43458152 0.13117832 -1.2955016 -0.4384024
000100 17 ca ab 3e 83 1e bf be 54 aa 8b be d4 19 3d 3f
       0.3355262 -0.37327966 -0.27278388 0.73867536
000110 2b 94 74 3e 4b 45 a4 3e 9a 8a a4 3e e0 fa 86 bf
       0.23884647 0.32084116 0.32136995 -1.0545311
000120 03 51 22 be e9 62 f7 3e 7d bf 6e be 92 b5 fe bc
       -0.15851216 0.4831765 -0.23315234 -0.031092439
000130 bf 0a 29 3e 3d 9a 38 bf ea 57 c5 3d 07 ba 8d 3f
       0.16508006 -0.7211035 0.09635909 1.1072396
000140 5e 42 b9 be eb ae 66 bf 15 21 b2 3e 42 08 64 be
       -0.36183447 -0.90110654 0.34790865 -0.22268775
000150 77 a6 69 3f 7b c2 e4 bd ba 18 08 3f 6a 04 06 bd
       0.9126963 -0.11169907 0.5316273 -0.032719053
000160 e0 5f 3a 3f cf 8c 43 bf d6 5a 5a be 5e ef 06 bf
       0.72802544 -0.7638673 -0.21323714 -0.52708995
000170 4b c4 47 3d e1 fa 0d bf 27 fb 1b bf 32 7d 4d 3e
       0.048771184 -0.55460936 -0.60930103 0.2006729
000180 57 ce a1 3e 9a 32 49 3e cb 6a 8e be c0 9d 83 3f
       0.31602737 0.19648209 -0.27815852 1.0282516
000190 9c 6c 86 bd 85 90 dd 3e ba 2c cf bf 95 a7 a5 3e
       -0.06563684 0.43274322 -1.6185524 0.32354417
0001a0 e6 36 ae be 69 2f 18 bf a9 ae 1e bf f6 9c 72 bf
       -0.3402626 -0.5944734 -0.6198526 -0.94770753
0001b0 4b 9c 9b 3e 4a 95 cf 3e 6a 6b ef 3e ae 49 05 bf
       0.3039268 0.40543586 0.46761638 -0.5206555
0001c0 7f 0e 28 bf 79 c7 ad 3d e0 83 21 bf 65 81 8b 3f
       -0.6564712 0.08485312 -0.6309185 1.0898863
0001d0 60 72 c0 be cb 31 9d 3e f6 c5 a5 3e 5b 13 5d bf
       -0.3758726 0.30702052 0.32377595 -0.8635766
0001e0 b7 94 c1 be 65 b9 d9 bd 46 e6 bc bd e1 50 7a 3e
       -0.37808773 -0.10631064 -0.09223609 0.24444915
0001f0 1f 73 31 bf 6a fa 13 bf 4a ce 71 bf 3e 39 2d bf
       -0.69316286 -0.57803977 -0.944554 -0.6766547
000200 65 91 36 bf ef b6 df 3e 8c fb 9e 3f b8 5f 20 3f
       -0.71315604 0.43694255 1.2420516 0.62646055
000210 0e 20 bf bc 72 ed 33 bf 29 e2 37 be 0b 04 8e bf
       -0.023330715 -0.7028419 -0.17957367 -1.1094984
000220 66 dc 9a 3f 21 33 32 be 03 ac 0a 3f 49 2b 55 3f
       1.209851 -0.17402317 0.5416872 0.8326917
000230 71 0c 8a bf 20 45 f2 3e be d0 b7 bd f3 18 0a 3f
       -1.0785047 0.47318363 -0.08975361 0.5394432
000240 02 3d 07 3f 0c 8d fb 3d 23 09 eb 3e 7a 22 36 3f
       0.52827466 0.12282762 0.45905408 0.7114636
000250 a2 51 24 bf db 60 5c bf 0e 59 d8 bf 6f 04 41 3e
       -0.6418706 -0.8608529 -1.6902177 0.18849348
000260 d5 3c b9 3e 43 d0 70 be 71 92 3e be fe 0d b6 bf
       0.36179224 -0.23516946 -0.1861055 -1.422302
000270 21 d5 3c be 13 65 4d 3e b9 c6 9f bf 58 c9 ad 3d
       -0.18440677 0.20058088 -1.248252 0.08485669
000280 74 30 6a bd 3d 07 7a be 39 bc 55 3e 10 79 a9 bf
       -0.057175115 -0.24416824 0.20872582 -1.324007
000290 62 a9 6c be d2 a9 44 be 41 b0 73 3c 53 86 0c 3f
       -0.2311149 -0.19205406 0.014873565 0.5489246
0002a0 fa 24 97 be 81 8c 93 bf bc 8b e2 3f 61 8f 9d bf
       -0.29520398 -1.1527253 1.7698894 -1.2309381
0002b0 4f 18 3c be aa 65 8c 3e 50 b1 d5 bf e3 bf aa 3e
       -0.18368648 0.27421314 -1.6694736 0.33349523
0002c0 51 25 85 be c3 e0 b4 3d 3c a0 c5 bf cd bd ab be
       -0.26005033 0.088319324 -1.5439525 -0.33543244
0002d0 9c 7d 8e 3f ea 87 20 bf 72 b0 94 bc b2 a7 ef 3e
       1.1132083 -0.6270739 -0.018150542 0.4680763
0002e0 f6 ce 10 3f 80 d6 87 be 1d 3f c4 3e c0 04 6c bf
       0.565658 -0.26530838 0.38329402 -0.9219475
0002f0 47 13 4f bf a9 f3 fb bd 03 c8 5f be a7 2a c1 3e
       -0.8088879 -0.12302334 -0.21853642 0.37727854
000300 eb 3b 50 bf e1 8f 1e 3e 4a ce b0 3e 3c 34 4c bf
       -0.8134143 0.15484573 0.34532386 -0.79767203
000310 3b e5 7a bf e5 ed ec be bc 48 36 bf 8a 4f 57 bf
       -0.9800603 -0.4627525 -0.71204734 -0.8410574
000320 18 15 04 3f cf cf 73 be 31 a8 a4 be f0 56 6b 3f
       0.51594687 -0.23809741 -0.3215957 0.9192953
000330 1d d7 1a bd 2d 5c 65 3e e8 97 1d 3e 65 68 d4 3f
       -0.037802804 0.22398444 0.15389979 1.6594359
000340 6c 81 08 be 83 34 f8 3e 55 49 9e be b9 68 60 bf
       -0.1333062 0.48477563 -0.30915323 -0.87659794
000350 91 3b fc 3e f8 1d aa be 3b 4c 0d 3f a9 b0 f0 3f
       0.49264196 -0.3322599 0.55194443 1.8803912
000360 48 3a 84 bf 6c 4c a9 3e 7b 5e 58 3e 63 e6 03 bf
       -1.0330286 0.33066118 0.21129791 -0.5152342
000370 d1 cc e5 3e 30 e8 f1 be aa 9c c9 be ed e1 d8 be
       0.44882825 -0.47247458 -0.39377338 -0.42359868
000380 ef b5 b4 3e 92 b4 10 bc 42 0a a5 3f 56 b8 b6 bf
       0.35295054 -0.008832114 1.2893755 -1.4275005
000390 0b 16 9e be 9e 90 07 40 57 80 3a bf fb 09 75 3e
       -0.30876192 2.1182017 -0.7285208 0.23929588
0003a0 48 cd 64 bf 8a 74 19 bf 8a 98 1e bf 49 f5 56 bf
       -0.89375734 -0.5994345 -0.61951506 -0.83968025
0003b0 68 a7 ef be 71 58 ac be 75 83 b3 bf ea 5d 5c 3b
       -0.46807408 -0.33661225 -1.4024493 0.0033625313
0003c0 c8 07 7c be 66 0b 41 be 2f b6 6b 3f e2 3a 01 3f
       -0.24612343 -0.18852004 0.92074865 0.50480473
0003d0 b0 9a e0 bf e5 04 8a 3e 47 a6 80 bf 34 af 06 bf
       -1.7547207 0.2695686 -1.0050744 -0.5261109
0003e0 10 77 90 3e f1 ae 9a bc b8 2d 0b bf 01 7e 7f 3f
       0.28215837 -0.018882247 -0.54366636 0.9980164
0003f0 64 f1 e2 be db bb 11 bf ba 72 eb 3c 95 14 97 3e
       -0.4432479 -0.5692727 0.02874123 0.2950789

net.4.bias f4 [21]
000000 44 1c 7e 3c b3 3d 6b 3f a7 11 1b be f7 8e a9 be
       0.015509669 0.9189102 -0.15143453 -0.33116886
000010 e4 7b 11 3f 05 d9 4f bf 1d 21 0c 3f b0 02 cf be
       0.5682967 -0.8119052 0.54738027 -0.40431738
000020 9a 26 cb be 8f 2e d6 bd 93 d9 af be 8e 45 fd 3e
       -0.39677888 -0.10458099 -0.34345683 0.4946713
000030 18 07 5d 3f 32 7a e6 3e 53 32 08 3e fb f2 c2 3e
       0.8633895 0.45015103 0.13300447 0.38076004
000040 c4 03 f9 3e 8a f1 29 3e a6 b3 c8 bc 3e b8 f4 3e
       0.48635685 0.16596046 -0.024499726 0.47796816
000050 3a ac de bb
       -0.0067954333
