Q3/ddpg_actor_step9600000.pth (torch, 357342 bytes, 6 tensors)

net.0.weight f4 [256, 67]
-0.13441513 0.87039983 0.3664666 4.3116307 -4.566645 0.07916702 -3.5710025 2.9310937
-1.0805734 0.23212624 0.25381157 -0.6570516 -2.9051783 3.6780493 -2.2972662 -3.8155837
-0.10093984 1.868759 -0.42471626 0.7483926 -1.3758702 4.7573266 0.8706387 -0.13880381
-0.5896174 2.021255 1.4336421 1.9408082 0.66027296 0.69121647 -0.9592996 0.1086724
2.2845695 0.20277965 -0.16582245 -0.39547446 1.4944305 -5.302513 5.429467 -0.12747209
-0.13902149 0.057893578 0.37844777 0.050261345 0.70922524 0.03063798 -0.0272066 0.65516347
-0.00057109597 0.039803732 -0.042848453 0.16357534 -0.12069199 0.0011557973 -0.05538786 0.32851145
0.3692332 0.48620862 -0.1785233 0.13971734 -0.056217823 -0.054211117 0.2233046 0.10754345
-0.04234306 -0.022001294 -0.05831541 -0.43727437 0.01956538 -0.6700673 3.4663422 -1.8456469
-1.1179441 0.34106758 -2.007444 -1.8406295 -0.6614377 -0.9525694 -0.37871808 0.6163527
-3.9528308 -3.2432148 -1.837709 -0.2830055 -0.38964444 -1.3588377 0.8265804 1.1089811
2.6946313 5.9261913 -1.5195332 -0.6696439 1.0663604 -2.5267458 0.7771325 -0.98869616
0.85031205 0.27099362 0.12110847 -0.8819035 -0.9843584 -1.3926617 -0.8209183 0.2637523
8.234378 -4.9191613 -1.727937 -0.38249722 0.38634795 -2.2953568 0.8787513 -0.17862529
-0.2985207 -0.18434979 0.110592574 0.14081393 -0.13878894 0.17874582 -0.25729543 0.29763106
-0.05531998 0.11086906 -0.28663388 -0.048866145 0.023687245 -0.0023453727 0.070950344 -0.044384107
-0.13697961 -0.12030067 0.05761274 -0.10077583 0.13161463 -0.005817929 0.05613135 -0.6236773
0.7071855 -2.9745955 0.18518013 -0.4907952 2.4482284 7.1247773 -0.4665995 -0.9770822
0.26136076 -0.07677842 0.77921736 -0.8848878 4.2496605 -2.29169 -4.133477 -2.8647065
2.45825 -0.47019652 -1.6871723 -2.1197982 0.80284965 1.1002584 -0.19774757 -2.7639656
1.9805069 3.5114417 -1.4982792 0.88929284 0.7939921 -0.40425158 0.85881877 -1.0865692
-0.115211956 0.21169655 0.54731435 7.8853345 -2.2792041 -1.7911388 -0.48311138 0.58905274
-0.5112803 0.20441289 -0.8926047 0.22837703 0.16303349 -0.3660692 0.36314702 0.17339696
-0.030235516 -0.13767615 -0.08700875 -0.076551996 0.090965055 -0.4590847 -0.011363756 0.17439102
-0.16343027 0.09638002 0.065521955 -0.153537 0.03586022 -0.12011045 -0.004829552 -0.011091866
-0.090332046 -0.30863813 -0.5828698 0.78071976 0.19527486 -1.7829088 -0.34741592 -2.706998
0.5557469 0.4965726 -1.9977106 0.114446655 0.98886526 -1.7061001 2.4952273 1.2999833
-3.2837543 -1.7569163 2.3157468 -2.3155 5.0256395 2.245827 6.6430645 -0.86053056
2.664653 1.4675868 4.021463 0.02218045 0.45264181 1.0907805 -1.1683017 -0.63643855
-0.29617745 0.280965 -0.2412789 -0.13887396 -0.53693616 -0.41849488 0.33606592 1.6019629
-6.416007 -0.8790429 0.71128654 1.0849845 0.983564 0.17584257 -0.28657985 -0.61523896
0.14439352 -0.2219811 -0.31159526 -0.38929284 -0.08284685 -0.19299151 0.04920155 0.067875825
00000000: 1fa4 09be 86d2 5e3f 83a1 bb3e e1f8 8940
00000010: f521 92c0 5222 a23d 4e8b 64c0 0a97 3b40
00000020: 3b50 8abf 80b2 6d3e 97f3 813e 8934 28bf
00000030: 71ee 39c0 2965 6b40 6906 13c0 8632 74c0
00000040: 8cb9 cebd 7f33 ef3f 6974 d9be a896 3f3f
00000050: 841c b0bf 053c 9840 2ee2 5e3f 9622 0ebe
00000060: 2af1 16bf 3e5c 0140 9681 b73f 676c f83f
00000070: a607 293f 90f3 303f a994 75bf a38f de3d
00000080: 6336 1240 78a5 4f3e 5ccd 29be a17b cabe
00000090: 8049 bf3f 30ae a9c0 32be ad40 0b88 02be
000000a0: a65b 0ebe d121 6d3d e8c3 c13e d7de 4d3d
000000b0: c98f 353f 80fc fa3c 60e0 debc cbb8 273f
000000c0: 9ab5 15ba 3d09 233d dc81 2fbd 4b80 273e
000000d0: 5d2d f7bd 1f7e 973a 61de 62bd a732 a83e
000000e0: 220c bd3e 56f0 f83e d0ce 36be 1012 0f3e
000000f0: a944 66bd 7a0c 5ebd f6a9 643e be3f dc3d
00000100: eb6f 2dbd 0f3c b4bc 24dc 6ebd 6de2 dfbe
00000110: 9347 a03c 8889 2bbf 8dd8 5d40 283e ecbf
00000120: cb18 8fbf 69a0 ae3e f679 00c0 bf99 ebbf
00000130: fb53 29bf 97db 73bf 56e7 c1be 4ac9 1d3f
00000140: 2efb 7cc0 d590 4fc0 0c3a ebbf 19e6 90be
00000150: 7a7f c7be 65ee adbf c69a 533f 18f3 8d3f
00000160: d774 2c40 5ca3 bd40 1080 c2bf c86d 2bbf
00000170: 7f7e 883f 34b6 21c0 28f2 463f 311b 7dbf
00000180: 0dae 593f adbf 8a3e b807 f83d 6ec4 61bf
00000190: e9fe 7bbf bd42 b2bf b427 52bf 8b0a 873e
000001a0: 03c0 0341 c569 9dc0 0a2d ddbf add6 c3be
000001b0: 66cf c53e 20e7 12c0 d8f5 603f 8ce9 36be
000001c0: b5d7 98be 31c6 3cbe 5c7e e23d 8731 103e
000001d0: b01e 0ebe 2509 373e 3abc 83be 1963 983e
000001e0: 3497 62bd 510f e33d adc1 92be de27 48bd
000001f0: c10b c23c d3b4 19bb 6a4e 913d 1ccc 35bd
00000200: 6244 0cbe 3360 f6bd 56fb 6b3d 8f63 cebd
00000210: fcc5 063e 53a4 bebb fde9 653d 51a9 1fbf
00000220: 1c0a 353f c65f 3ec0 dc9f 3d3e 8249 fbbe
00000230: c6af 1c40 2dfe e340 21e6 eebe 0f22 7abf
00000240: 14d1 853e 013e 9dbd ca7a 473f 0288 62bf
00000250: 38fd 8740 0dab 12c0 7245 84c0 5a57 37c0
00000260: f853 1d40 99bd f0be 43f5 d7bf c6aa 07c0
00000270: 8e87 4d3f 44d5 8c3f 577e 4abe d0e4 30c0
00000280: 4081 fd3f 76bb 6040 9dc7 bfbf b2a8 633f
00000290: 1143 4b3f 10fa cebe 8cdb 5b3f b314 8bbf
000002a0: 3ff4 ebbd fbc6 583e cb1c 0c3f a954 fc40
000002b0: 7bde 11c0 0944 e5bf 605a f7be 29cc 163f
000002c0: 44e3 02bf 9d51 513e be81 64bf abdb 693e
000002d0: 40f2 263e 6c6d bbbe 68ee b93e f98e 313e
000002e0: 79b0 f7bc fafa 0cbe a531 b2bd 4bc7 9cbd
000002f0: e34b ba3d 260d ebbe 0c2f 3abc 8f93 323e
00000300: 445a 27be e362 c53d 6030 863d ce38 1dbe
00000310: 2be2 123d 78fc f5bd 3841 9ebb a8ba 35bc
00000320: 0200 b9bd d105 9ebe f536 15bf 40dd 473f
00000330: 22f6 473e 5b36 e4bf 80e0 b1be 753f 2dc0
00000340: 6e45 0e3f c43e fe3e fbb4 ffbf 0263 ea3d
00000350: 4626 7d3f 7d61 dabf ceb1 1f40 da65 a63f
00000360: 0829 52c0 a2e2 e0bf 3235 1440 2731 14c0
00000370: 0ad2 a040 a1bb 0f40 fc93 d440 bb4b 5cbf
00000380: ad89 2a40 e2d9 bb3f d3af 8040 c6b3 b53c
00000390: abc0 e73e b29e 8b3f e98a 95bf a3ed 22bf
000003a0: 92a4 97be a5da 8f3e d111 77be fa34 0ebe
000003b0: a674 09bf f644 d6be d510 ac3e 1f0d cd3f
000003c0: ee4f cdc0 f508 61bf e016 363f c6e0 8a3f
000003d0: daca 7b3f 1310 343e 98ba 92be 4d80 1dbf
000003e0: e5db 133e 034f 63be 6a89 9fbe 6451 c7be
000003f0: 9cab a9bd 919f 45be 9187 493d 7b02 8b3d

net.0.bias f4 [256]
-0.2059176 0.8792688 -1.0197663 0.59819585 0.70783484 -0.4714938 -0.2908913 0.035892304
-1.7325219 -1.2395353 0.6883743 -0.07177912 -0.023077559 -0.42891464 -1.7286973 -0.7086232
-0.88289326 -0.49918577 1.4831208 -0.9994444 -1.5142335 0.33917826 -1.8748692 -0.5515038
-0.8844014 -1.7370101 -0.19981962 -0.88331646 -0.660357 -0.2064823 0.27215016 -0.122269146
-0.37950912 0.95356786 -0.010181003 1.2811201 -0.22054449 -0.1764107 0.96790105 -0.44131342
0.119494975 -1.7868224 0.7122174 0.068288125 0.95079017 -0.12578842 0.14386716 -0.46254146
-0.9887424 -0.37544036 0.6703827 -0.65522915 0.7960152 1.1288623 0.30121663 -0.6796094
0.3957826 2.0259154 -1.790931 -0.26985002 -1.9807048 -0.34410784 -0.59230334 0.26873177
0.15198633 -0.4789186 0.99478257 -0.43302178 -0.5406869 -0.65285367 -0.25272167 -0.86423707
-0.8251371 -1.1633198 -0.9017633 -0.6157378 -0.9205837 -0.5482743 -0.6790182 0.14184628
0.79397047 -1.1462331 -1.5240706 0.86436415 -1.2206669 -0.63989884 0.45457458 -0.94639975
-0.100335605 0.41177925 0.61801684 0.5873319 -2.4666917 -0.78898764 -1.5726018 0.10115537
-1.6795143 -0.91259295 -0.83367103 -0.113438055 -0.5987823 -0.82682353 0.5303809 -1.1106476
0.072543375 -1.0717462 -1.680531 0.48397443 -0.8957897 -0.4034115 -0.15388568 -0.6799442
-0.51874197 0.17618099 -1.7566857 -0.5082945 -0.38262618 0.5676181 -0.98204494 -0.103309505
0.37226474 -0.9009208 0.8695914 -0.9201369 0.3376688 -0.025141146 -0.89072305 -0.9356064
1.4474009 0.4747894 0.044992562 0.02127318 -0.94205785 -0.9237134 0.28744698 -0.23626603
-0.9808635 0.05042776 -0.46027467 0.3195678 -2.4850476 -0.56676507 -1.1628253 -1.1344665
0.06850735 -1.5050068 -1.0493778 -0.90021783 -0.6500775 -0.79730976 1.8498341 -0.03418053
0.2484507 -1.8388261 -0.31785396 0.11131569 1.3293465 0.5952628 -1.1753312 -0.98821825
-2.1584086 -1.3242036 0.11057647 0.29594094 -2.3692431 0.5671462 0.596127 -1.1770154
0.6869407 1.1864307 -0.2046573 0.081233785 0.51865643 0.29518119 -1.5232842 -1.453628
-1.0355779 -1.1890119 -0.6031221 -0.30383632 0.3183598 0.9585908 0.27657527 0.25115237
-1.6282208 0.012084274 -1.3102295 -1.6767497 -1.7745908 -0.5628545 -0.7517183 0.58965355
-1.0575701 0.089598045 -1.6661216 -0.7305464 -1.3836832 -0.21865961 0.26615158 -0.9912366
-0.63059264 -0.7970267 -1.2068224 0.16604254 -0.106695995 -0.982053 -0.05064736 -0.778786
0.254883 -0.3365984 -0.516314 -0.24287851 -0.12664507 -1.6155722 -0.7884971 -0.33779022
-1.1718277 -0.5298724 -0.93616146 0.67735094 -0.730199 -0.65498716 -0.571012 1.8547734
1.7731547 -0.044417202 -1.1543953 -0.5866442 -1.9383202 0.15512785 -0.77749485 1.3957866
0.644373 -2.0934036 -0.03404287 -1.5705161 -0.95047855 0.22238894 0.6802068 -1.6422715
-1.3858308 -1.2108539 -1.7543044 -1.0684531 -0.0778173 0.31022993 -1.7596012 1.1352319
1.3344038 -1.3477263 0.3776097 0.54239976 -1.7163727 -0.8270231 -0.14191967 0.41773146
00000000: 10dc 52be c317 613f b487 82bf 5d23 193f
00000010: aa34 353f a367 f1be b4ef 94be cf03 133d
00000020: 47c3 ddbf 18a9 9ebf 4c39 303f ee00 93bd
00000030: 260d bdbc b39a dbbe f445 ddbf 5468 35bf
00000040: 4b05 62bf 4795 ffbe e7d6 bd3f 97db 7fbf
00000050: 67d2 c1bf c6a8 ad3e b7fb efbf 5a2f 0dbf
00000060: 2168 62bf 5956 debf 849d 4cbe 0721 62bf
00000070: 280d 29bf 1970 53be 4457 8b3e 3f68 fabd
00000080: 054f c2be 061d 743f 39ce 26bc befb a33f
00000090: 6ad6 61be 02a5 34be 5dc8 773f d5f3 e1be
000000a0: c8b9 f43d 99b6 e4bf e153 363f a5da 8b3d
000000b0: fc66 733f aece 00be ea51 133e 3cd2 ecbe
000000c0: 391e 7dbf b839 c0be 339e 2b3f 19bd 27bf
000000d0: a7c7 4b3f 8f7e 903f 1139 9a3e e2fa 2dbf
000000e0: 04a4 ca3e 99a8 0140 3a3d e5bf c829 8abe
000000f0: bc87 fdbf e72e b0be 31a1 17bf 3697 893e
00000100: 4ea2 1b3e d234 f5be 12aa 7e3f 08b5 ddbe
00000110: 756a 0abf 6b21 27bf bc64 81be a43e 5dbf
00000120: 2f3c 53bf aae7 94bf f6d9 66bf fea0 1dbf
00000130: 60ab 6bbf b45b 0cbf 23d4 2dbf 2740 113e
00000140: a641 4b3f c4b7 92bf bf14 c3bf f846 5d3f
00000150: d03e 9cbf 69d0 23bf 00be e83e 4147 72bf
00000160: c17c cdbd bbd4 d23e 5a36 1e3f 625b 163f
00000170: 47de 1dc0 18fb 49bf 044b c9bf 8c2a cf3d
00000180: 53fa d6bf b19f 69bf 776b 55bf 3652 e8bd
00000190: cc49 19bf b5aa 53bf 0bc7 073f b329 8ebf
000001a0: 9f91 943d fb2e 89bf a41b d7bf 7fcb f73e
000001b0: 7952 65bf f48b cebe 3594 1dbe d310 2ebf
000001c0: 46cc 04bf ca68 343e 14db e0bf 971f 02bf
000001d0: 94e7 c3be 6b4f 113f 4c67 7bbf ef93 d3bd
000001e0: 7c99 be3e bfa2 66bf 8b9d 5e3f 188e 6bbf
000001f0: ede2 ac3e cef4 cdbc 6d06 64bf e783 6fbf
00000200: 6f44 b93f 9917 f33e 1f4a 383d 1845 ae3c
00000210: b42a 71bf 7b78 6cbf 402c 933e b9ef 71be
00000220: df19 7bbf 578d 4e3d 1fa9 ebbe 649e a33e
00000230: 050b 1fc0 8417 11bf 76d7 94bf 3336 91bf
00000240: 954d 8c3d 10a4 c0bf 0352 86bf ad74 66bf
00000250: 7b6b 26bf 7e1c 4cbf 5dc7 ec3f e200 0cbd
00000260: dc69 7e3e a75e ebbf c1bd a2be 7bf9 e33d
00000270: 0728 aa3f 2563 183f 4171 96bf dffb 7cbf
00000280: 5e23 0ac0 817f a9bf eb75 e23d 9285 973e
00000290: aea1 17c0 7e30 113f c79b 183f 71a8 96bf
000002a0: 59db 2f3f f6dc 973f af91 51be e65d a63d
000002b0: abc6 043f fd21 973e fafa c2bf 7b10 babf
000002c0: d18d 84bf 8b31 98bf 3666 1abf 6f90 9bbe
000002d0: 0e00 a33e 3566 753f 469b 8d3e 0b97 803e
000002e0: 8a69 d0bf 1efd 453c 9ab5 a7bf bc9f d6bf
000002f0: cb25 e3bf 3c17 10bf 9c70 40bf 89f3 163f
00000300: 755e 87bf 2e7f b73d 7943 d5bf 1705 3bbf
00000310: 881c b1bf 4ee8 5fbe 0545 883e afc1 7dbf
00000320: 856e 21bf f109 4cbf 2879 9abf 0e07 2a3e
00000330: 6e83 dabd d367 7bbf 9b73 4fbd 855e 47bf
00000340: 0680 823e a056 acbe 282d 04bf 25b5 78be
00000350: 3faf 01be 12cb cebf f2da 49bf d7f2 acbe
00000360: 73fe 95bf b8a5 07bf 47a8 6fbf df66 2d3f
00000370: 52ee 3abf 3dad 27bf d82d 12bf 3769 ed3f
00000380: bcf6 e23f d0ee 35bd 3ac3 93bf 502e 16bf
00000390: e01a f8bf d6d9 1e3e e709 47bf 23a9 b23f
000003a0: a1f5 243f 53fa 05c0 8970 0bbd ac06 c9bf
000003b0: 9052 73bf edb9 633e 0822 2e3f f435 d2bf
000003c0: e762 b1bf 43fd 9abf 0c8d e0bf 12c3 88bf
000003d0: ad5e 9fbd 75d6 9e3e 9d3a e1bf 474f 913f
000003e0: becd aa3f 4c82 acbf 0f56 c13e b6da 0a3f
000003f0: 1ab2 dbbf c9b7 53bf 6453 11be e6e0 d53e

net.2.weight f4 [256, 256]
0.016954621 -0.10419991 1.4218299 -0.039247163 1.1693888 1.0634311 1.9587238 0.9380958
1.1269106 -0.13637981 0.426367 -0.4941763 -0.8950656 0.5666777 -1.1570829 0.17425787
-0.671982 0.10678733 -0.27768013 1.1085674 -0.004573364 1.7956121 -1.1446241 -0.7292145
-0.4562725 0.07382691 1.5422418 -0.30070844 -0.29972735 -1.3584416 1.3282073 0.20548007
-0.5300401 -1.1781328 0.48236045 -0.36422005 1.2628152 -0.30735412 -0.050686397 0.3111505
0.7884606 0.05451101 -0.35656807 -2.2034721 1.4411368 -0.8403816 1.2629305 -1.2493837
0.44829768 -1.1210058 -1.0474946 0.20050374 -1.0779082 -1.19944 0.34205362 1.1743568
0.47890925 0.86069393 -0.20252317 1.8295485 -2.0554726 -2.0631316 -0.08836149 0.9854206
0.49510115 1.5402634 0.55876577 -0.41587365 -0.17624657 -0.8407676 0.19385867 1.2794071
0.16011901 -2.5081973 0.56903666 0.48191795 -0.3147222 -0.28233394 -0.39061806 0.5590577
-0.5767244 -0.4208134 -0.4107933 0.2937109 -0.63574666 -0.68967474 -1.3035434 -1.3147155
-0.2528308 -0.89684147 -0.8644465 -0.40138143 -0.23768653 -0.5803966 0.284188 0.15523662
-0.43517032 0.93764263 0.65108585 -1.7564802 1.7281966 0.92617583 -1.6828582 -0.3871208
-0.082874775 0.049159557 0.5566747 0.63841075 -0.16624896 -1.0833925 1.7125205 -1.2690221
1.3209809 0.39688438 -0.45701244 -0.57182074 -0.61454976 -0.7382655 -1.8930095 -0.85972166
1.0367001 0.17247388 -2.8091617 -0.17013815 -0.24835329 0.3475653 -0.21598324 0.28960758
-0.89124465 0.21310493 0.32650396 0.6045741 0.030129366 -0.6341741 0.97048134 1.6346837
-0.31086472 -0.3037784 -0.24730782 -1.0939574 -1.1776524 0.5427091 0.070205145 1.6577201
-0.59287864 0.14612526 -0.25971204 -0.010497087 -1.6852536 -1.4616715 -1.2600662 -0.7860874
0.0030620135 0.6589368 -0.058990464 -0.5285583 -1.0830288 1.9042451 1.0812873 -0.6953263
-0.23487331 -1.5434864 -0.83941203 0.25930348 -2.184158 -0.37046167 -0.23021741 -0.89935255
-0.7312397 -0.5344573 -1.6356932 1.1703844 0.79636616 0.11950465 0.3019745 -0.04792681
-0.29410562 -0.81349343 0.6951458 0.10688354 -0.35618553 -0.20561425 1.1872218 -0.6744097
-0.09220719 0.45949912 0.49226728 0.24415259 0.58109194 -0.021102604 -1.3468539 -0.30353147
0.32138804 -0.41425085 0.813635 -2.6017606 0.40864128 0.2700402 -0.6328881 -0.0063394327
-1.7287946 -0.11566468 -1.0488812 1.4026464 0.0481421 0.29169407 0.14649111 0.8794187
0.9944129 0.18214728 -2.4601896 0.327521 -1.598581 0.23105654 0.20709935 0.49073637
1.2697395 1.0177115 1.9289947 0.31141233 -0.76972115 -1.5724541 0.19652611 -1.3581161
0.46596095 -0.05392901 -0.52826905 -1.0263509 -0.92205894 1.4440198 0.3683031 0.7435694
-1.2025094 -0.63559043 -0.37413782 -0.16875812 0.3201481 -0.0064288825 -1.1347988 0.5347865
0.72068393 -0.82049114 -0.1704261 -0.3654324 -0.47856075 -2.2674716 0.66501737 0.5114195
-1.5388322 -1.742231 -0.04458053 -0.23419456 -0.028045686 0.61988455 0.33662906 -0.6240589
00000000: 6be4 8a3c c366 d5bd 86fe b53f a2c1 20bd
00000010: 88ae 953f 831e 883f 76b7 fa3f 0c27 703f
00000020: 9b3e 903f 26a7 0bbe c74c da3e ad04 fdbe
00000030: 0523 65bf ca11 113f 4b1b 94bf a870 323e
00000040: 0307 2cbf 51b3 da3d 172c 8ebe 89e5 8d3f
00000050: 28dc 95bb 9ed6 e53f 0b83 92bf cdad 3abf
00000060: 8d9c e9be 9032 973d 2e68 c53f 75f6 99be
00000070: dd75 99be 6ae1 adbf b202 aa3f 5e69 523e
00000080: b5b0 07bf 0ecd 96bf f3f7 f63e 0d7b babe
00000090: eea3 a13f 855d 9dbe 8a9c 4fbd 1e4f 9f3e
000000a0: 8ed8 493f f046 5f3d 1790 b6be b005 0dc0
000000b0: 2c77 b83f 4023 57bf b5a7 a13f ceeb 9fbf
000000c0: 4687 e53e 1e7d 8fbf 4e14 86bf da50 4d3e
000000d0: e5f8 89bf 4087 99bf a721 af3e 5351 963f
000000e0: 9833 f53e 7056 5c3f 3c62 4fbe a52e ea3f
000000f0: dd8c 03c0 590a 04c0 def6 b4bd 8644 7c3f
00000100: e67d fd3e 5a27 c53f 460b 0f3f 64ed d4be
00000110: fb79 34be 8c3c 57bf e382 463e 9dc3 a33f
00000120: 3df6 233e 4e86 20c0 63ac 113f f3bd f63e
00000130: 4523 a1be 138e 90be 17ff c7be 681e 0f3f
00000140: 36a4 13bf db74 d7be 8053 d2be 4661 963e
00000150: 4bc0 22bf 868e 30bf 83da a6bf 9948 a8bf
00000160: 0a73 81be 6797 65bf 5e4c 5dbf de81 cdbe
00000170: 1964 73be df94 14bf 1781 913e 59f6 1e3e
00000180: a5ce debe 5909 703f 90ad 263f 58d4 e0bf
00000190: 8c35 dd3f dc19 6d3f e667 d7bf b334 c6be
000001a0: 40ba a9bd 885b 493d 3c82 0e3f e36e 233f
000001b0: 2b3d 2abe 9bac 8abf df33 db3f 516f a2bf
000001c0: e715 a93f 6e34 cb3e 89fd e9be d862 12bf
000001d0: 2253 1dbf f8fe 3cbf 234e f2bf b816 5cbf
000001e0: 97b2 843f fe9c 303e 4ec9 33c0 b238 2ebe
000001f0: 5350 7ebe 14f4 b13e b62a 5dbe 7247 943e
00000200: 9c28 64bf 2e38 5a3e 872b a73e 5ec5 1a3f
00000210: dcd1 f63c 3c59 22bf 7771 783f 513d d13f
00000220: a929 9fbe d888 9bbe 433e 7dbe cc06 8cbf
00000230: 50bd 96bf fcee 0a3f b7c7 8f3d 2c30 d43f
00000240: e5c6 17bf dca1 153e faf8 84be f9fb 2bbc
00000250: 64b6 d7bf 0d18 bbbf d949 a1bf 063d 49bf
00000260: 10ac 483b 15b0 283f fc9f 71bd 994f 07bf
00000270: b0a0 8abf 4ebe f33f 9f67 8a3f e800 32bf
00000280: a182 70be f690 c5bf b5e3 56bf 6dc3 843e
00000290: 3fc9 0bc0 27ad bdbe 1dbe 6bbe f83b 66bf
000002a0: 8632 3bbf 32d2 08bf 655e d1bf 28cf 953f
000002b0: a7de 4b3f dbbe f43d 679c 9a3e e74e 44bd
000002c0: 0395 96be 1b41 50bf 13f5 313f c2e5 da3d
000002d0: f35d b6be 8b8c 52be e2f6 973f 1da6 2cbf
000002e0: 20d7 bcbd 7843 eb3e 750a fc3e 2303 7a3e
000002f0: 71c2 143f 5edf acbc b565 acbf 7a68 9bbe
00000300: f98c a43e b018 d4be 624a 503f 3f83 26c0
00000310: 6e39 d13e b642 8a3e f404 22bf 04bb cfbb
00000320: 2449 ddbf 9be1 ecbd bd41 86bf eb89 b33f
00000330: a730 453d ed58 953e c401 163e 9521 613f
00000340: d891 7e3f d184 3a3e bf73 1dc0 d5b0 a73e
00000350: 4d9e ccbf 169a 6c3e da11 543e cc41 fb3e
00000360: d386 a23f 5f44 823f 4ce9 f63f 7071 9f3e
00000370: 720c 45bf 2d46 c9bf 243e 493e c0d6 adbf
00000380: 6f92 ee3e aae4 5cbd a43c 07bf 775f 83bf
00000390: 0e0c 6cbf a4d5 b83f 3992 bc3e 905a 3e3f
000003a0: d4eb 99bf 0eb6 22bf fe8e bfbe eece 2cbe
000003b0: 74ea a33e 60a9 d2bb 1641 91bf c5e7 083f
000003c0: be7e 383f b50b 52bf 2e84 2ebe f519 bbbe
000003d0: ea05 f5be 411e 11c0 943e 2a3f 63ec 023f
000003e0: 74f8 c4bf 6d01 dfbf 139a 36bd b3d0 6fbe
000003f0: 11c0 e5bc c1b0 1e3f a55a ac3e 53c2 1fbf

net.2.bias f4 [256]
-0.06312924 0.4310434 0.07911511 -1.1726114 -0.13489617 -0.057941545 -0.06287085 -0.35019785
-0.57090855 -0.03464562 -0.18854296 -0.26765084 -1.0400074 -0.33307064 -0.2081844 -0.20851403
0.12805426 -0.5190252 -0.6677301 -0.60959494 0.09271309 -0.3712289 0.39427456 -0.3664593
-0.052523162 -0.71294856 -0.20419696 0.5549941 -0.55620754 -0.40720132 0.08057475 -0.3123063
-1.1026994 -0.41599452 0.32186985 0.109363 -0.91009015 -0.54466826 -0.084657595 -0.11105303
0.42881343 -0.7431031 -0.25185934 -0.21038316 -0.08755793 -0.3051151 -1.1240841 -0.50434613
-0.15484165 -0.7582072 -0.006362536 -0.32038957 -0.46451485 0.7578896 -0.21655999 -0.71397203
0.046026055 0.068170644 -0.7961241 -0.1820571 0.11594428 -0.84271985 -0.31810778 -0.99834
-0.5562538 -0.46010157 -0.36691785 0.088166624 -0.28494975 -0.17011955 -0.06513306 -0.085471846
-0.41804436 0.12484883 0.28757378 0.08119995 0.036330663 -0.3149007 -0.07382776 -0.41670546
0.08806991 0.14853711 -0.39930445 -0.12662736 -0.06532508 -1.0514613 -0.30104348 0.021604149
0.3602619 -0.9017111 -0.62685496 -0.5690203 -0.36458552 0.50886565 0.025272474 -0.69198316
-0.62592864 -0.39201215 0.4693458 -0.94616777 -0.04472521 -0.31759387 0.02903228 -0.008407155
-0.5317318 -0.28287044 -0.60783213 0.0037651798 0.7862553 -0.23239233 0.106050506 -0.42640877
-0.2876939 -0.7361281 -0.47443917 -0.28725114 0.24331336 -0.045376718 -0.15721832 0.23757003
-0.091118254 -0.034550272 0.34218547 -0.4947496 0.14644362 -0.3270857 -0.108890824 -0.13780098
-0.019864865 -0.6000167 -0.33002797 -0.5655652 -0.32613772 0.11616727 -0.21643072 -0.7235919
0.26203123 -0.3305453 -0.11268211 -0.29933977 -0.104855746 -0.55637777 -0.73938835 -0.546984
0.27809134 -0.45513314 -0.22917156 -0.33907276 -0.036889784 0.1486537 -0.44075856 0.64869994
-0.1790231 -1.0168201 -0.64506036 -0.18152843 -0.36013877 -0.18651028 -0.17783311 0.045694496
-0.16719715 -0.008754286 -0.45234367 -0.23547359 -0.13907495 -0.5785007 0.42645785 -0.07351787
0.3579981 -0.16757502 0.1470231 0.375823 0.050615303 -0.34631482 -0.16925652 -0.39974755
-0.073410936 0.27431014 -0.7003808 -0.28026626 -0.24435851 -0.801948 -0.1286585 -0.18464789
-0.5140379 -0.18514195 -0.01485222 -0.034052756 -0.3708465 0.023932345 -0.62587535 -0.73119044
-0.5959462 -0.61018187 0.37932763 0.17074056 -0.50838625 0.36455587 0.10988569 -0.18547411
-0.46257016 -0.43913063 -0.16377117 -0.37019444 -0.14962189 -0.43164748 -0.6546502 -0.21644397
0.299975 -0.08944372 -0.5844398 -0.8363678 0.6125698 -0.06934807 -0.059229866 0.02978217
-0.58723265 0.1504061 -0.46410212 -0.3170979 -0.44076827 -0.025909863 0.64347243 -0.5095683
0.10349833 0.056929212 -0.9189228 -0.35183966 -0.013952998 -0.64973456 -0.40456608 -0.03392191
-0.78813404 -0.71590173 -0.7834455 -0.19159967 0.67808425 -0.26704618 0.059498858 -0.34526446
-0.8384706 -0.8682896 0.52198863 -0.47749886 -0.18406337 -0.2820005 -0.617419 -0.4006199
-0.8218034 0.22588906 -0.31991857 -0.08501009 -0.63810605 -0.5362144 0.13126439 -0.45597383
00000000: e749 81bd b8b1 dc3e 1a07 a23d 2118 96bf
00000010: 3922 0abe 1d54 6dbd 6fc2 80bd 224d b3be
00000020: 1027 12bf 91e8 0dbd 6811 41be 8809 89be
00000030: f61e 85bf 3c88 aabe 4b2e 55be b484 55be
00000040: a820 033e d6de 04bf 5cf0 2abf 6a0e 1cbf
00000050: 5ce0 bd3d b711 bebe 5bde c93e 8ea0 bbbe
00000060: 8722 57bd cc83 36bf 0219 51be 1814 0e3f
00000070: 9e63 0ebf b17c d0be 6004 a53d 9de6 9fbe
00000080: 4125 8dbf 3cfd d4be 20cc a43e b5f9 df3d
00000090: abfb 68bf 616f 0bbf f660 adbd c56f e3bd
000000a0: 6f8d db3e 013c 3ebf b5f3 80be af6e 57be
000000b0: 9251 b3bd 0c38 9cbe fde1 8fbf d41c 01bf
000000c0: cf8e 1ebe de19 42bf d27c d0bb 1a0a a4be
000000d0: e4d4 edbe 0e05 423f e7c1 5dbe dfc6 36bf
000000e0: d185 3c3d 0d9d 8b3d cace 4bbf 2d6d 3abe
000000f0: 3274 ed3d 7dbc 57bf 06df a2be 3693 7fbf
00000100: a666 0ebf 6f92 ebbe a8dc bbbe b490 b43d
00000110: efe4 91be d233 2ebe 7b64 85bd dd0b afbd
00000120: e909 d6be beb0 ff3d df3c 933e 294c a63d
00000130: 76cf 143d aa3a a1be 0233 97bd 6b5a d5be
00000140: ff5d b43d 1d1a 183e a271 ccbe 9aaa 01be
00000150: 28c9 85bd 4996 86bf 5f22 9abe 2ffb b03c
00000160: 3f74 b83e 8ad6 66bf 9179 20bf 50ab 11bf
00000170: f4aa babe 0545 023f 3808 cf3c cf25 31bf
00000180: dc3c 20bf d1b5 c8be 184e f03e 0d38 72bf
00000190: c831 37bd aa9b a2be 1bd5 ed3c 2abe 09bc
000001a0: 931f 08bf 65d4 90be e39a 1bbf 3cc1 763b
000001b0: 0748 493f 41f8 6dbe 0231 d93d 4052 dabe
000001c0: 9d4c 93be e472 3cbf b1e9 f2be 9512 93be
000001d0: 2327 793e f0dc 39bd d7fd 20be 8f45 733e
000001e0: 359c babd 9684 0dbd ef32 af3e d24f fdbe
000001f0: 51f5 153e c777 a7be 2702 dfbd b31b 0dbe
00000200: a4bb a2bc b29a 19bf 6df9 a8be e2c8 10bf
00000210: 86fb a6be 1be9 ed3d 04a0 5dbe 523d 39bf
00000220: f528 863e 3c3d a9be e1c5 e6bd 1043 99be
00000230: 9cbe d6bd c66e 0ebf 8e48 3dbf 2507 0cbf
00000240: fd61 8e3e 3607 e9be f3ab 6abe f29a adbe
00000250: be19 17bd ad38 183e 1bab e1be 3311 263f
00000260: d551 37be 2927 82bf ad22 25bf 97e2 39be
00000270: 1c64 b8be 8dfc 3ebe e219 36be 272a 3b3d
00000280: bb35 2bbe 236e 0fbc 9799 e7be fd1f 71be
00000290: aa69 0ebe 9f18 14bf af58 da3e 8990 96bd
000002a0: 874b b73e c998 2bbe 398d 163e df6b c03e
000002b0: fe51 4f3d 2d50 b1be 9551 2dbe b6ab ccbe
000002c0: 7958 96bd 6172 8c3e 284c 33bf 0f7f 8fbe
000002d0: 1e39 7abe 774c 4dbf 0ebf 03be 5614 3dbe
000002e0: fd97 03bf da95 3dbe ba56 73bc e77a 0bbd
000002f0: 98df bdbe c40d c43c 5e39 20bf 4c2f 3bbf
00000300: ee8f 18bf e134 1cbf 3b37 c23e 9dd6 2e3e
00000310: 9a25 02bf 11a7 ba3e c00b e13d edec 3dbe
00000320: ffd5 ecbe bbd5 e0be a1b3 27be 208a bdbe
00000330: 7b36 19be e600 ddbe 2897 27bf 7da3 5dbe
00000340: 5396 993e 452e b7bd d99d 15bf 331c 56bf
00000350: 60d1 1c3f 5c06 8ebd 049b 72bd bdf9 f33c
00000360: e154 16bf 0f04 1a3e cb9e edbe a85a a2be
00000370: 61ac e1be ec40 d4bc 9cba 243f 1173 02bf
00000380: eff6 d33d 9b2e 693d 863e 6bbf 5424 b4be
00000390: 1e9b 64bc 0155 26bf 4923 cfbe b3f1 0abd
000003a0: 27c3 49bf 5645 37bf e28f 48bf b432 44be
000003b0: ee96 2d3f 47ba 88be 13b5 733d 81c6 b0be
000003c0: 02a6 56bf 3a48 5ebf 0ca1 053f bb7a f4be
000003d0: 1c7b 3cbe 5f62 90be 2c0f 1ebf 0d1e cdbe
000003e0: b561 52bf 764f 673e 5ecc a3be c519 aebd
000003f0: eb5a 23bf 5945 09bf 2c6a 063e 6775 e9be

net.4.weight f4 [21, 256]
-1.2303059 0.41868007 0.2512751 0.84253585 -0.40673265 -1.6446364 0.2570919 -1.1119409
1.2071204 -0.0093646925 -0.09718844 0.1796935 -1.4928203 1.0915141 0.9225788 0.2564885
-1.168105 -0.2633291 -0.2096606 1.2021704 1.3145587 -0.48609695 0.9467169 -0.78383297
0.35502702 0.49181157 1.6894932 -1.031638 -0.8606498 1.1175421 -0.115547806 -0.20165028
-0.13942257 0.9181731 0.14327583 0.28566906 1.3231336 -0.45646843 1.5983688 -0.1216066
-0.41465652 0.95367885 0.017102152 1.6525966 0.68118924 0.6828253 0.4010345 -0.43225133
-0.44199124 -0.22455901 -0.3124822 -0.689045 1.2108105 -0.25491437 -0.52847713 1.769837
0.4929931 0.5413542 1.3627104 -0.09122744 0.05956069 1.2379818 -1.1449369 0.02281686
0.38200864 -1.1744298 -0.7252013 0.2613847 -0.8028959 -0.26172963 -1.9279776 -0.71219325
0.4225926 -0.30083567 -0.58721477 0.5962747 0.16322273 -0.09895703 -1.355524 0.60886276
-1.336224 -0.31788883 0.23161747 0.10359444 -0.0029766136 0.38035968 0.69524574 0.8138033
-0.2999393 1.0561293 0.07352692 -0.5721187 -0.29575095 0.7119214 -1.1134152 1.3430846
0.5168013 2.639856 -0.026451625 -0.36973852 0.88546103 0.554891 0.72352064 0.33056575
-0.1402061 -0.5394565 -3.6649356 0.50018674 0.09230123 0.2593667 0.83916765 0.07611745
-0.9384056 0.18033901 0.07931323 -0.71047735 0.99434304 0.48250586 -0.83038855 -0.7267421
-0.39621714 0.18420649 -0.46431345 -0.24065006 0.6900669 -0.42820054 0.4790353 -0.06424735
0.008798868 0.019970763 -0.04176038 0.57610464 0.11112531 0.14788425 -1.1874093 -1.15465
0.15738325 0.77482206 -0.62727314 0.21760052 0.6661566 1.0228568 -0.92609006 0.046827927
2.405581 0.45469987 0.5774808 -1.2899735 1.4509653 -2.5355713 -0.46458218 0.012096558
-2.0641344 -0.27792665 0.54939115 -0.34469908 -0.17415339 -0.106912024 -0.75296664 -0.3310637
-0.032264408 -0.4656622 -0.38166806 2.2124505 0.10902724 -0.7214324 -1.5848894 1.21688
-1.963424 1.110123 -0.1824654 -0.014508387 -0.67828006 -0.0994405 -0.5922354 0.40956956
-0.75311416 -1.2715007 0.9025069 0.1841184 0.38560447 -1.6505737 -1.0564789 -1.0615987
0.54171634 0.015437376 0.49848637 -1.075686 0.3406237 0.18363409 -0.92614216 0.23624736
-0.21364863 -1.1554543 0.06275437 0.4276155 0.7681745 -0.34124526 0.108949885 0.022423767
-0.090296835 1.9553891 -0.5069455 -0.16605619 0.4007738 -0.20835757 -0.7595209 0.3095384
0.6743554 -0.38500458 0.43290895 -0.14335461 0.24423054 -0.6124584 0.8079248 0.42177007
-0.27321354 1.3662494 0.4744211 -0.5119752 0.5615753 0.5764753 1.3507842 -0.72759175
-0.72395974 -0.7124207 0.00807923 -0.77430284 1.1367136 1.1081047 -0.1393737 0.32496306
-0.58869517 1.6047864 -1.3841001 1.3839573 0.09394309 1.1850188 -0.74941456 -0.27702907
-0.4562014 -1.5001557 -0.43366355 0.11968372 1.2991956 -0.59332967 0.34782138 0.21369849
0.55355865 -0.22484067 1.5457448 -1.3390609 -0.8008053 -1.1996365 1.1153455 0.70984757
00000000: aa7a 9dbf 3c5d d63e 21a7 803e 6eb0 573f
00000010: 433f d0be 7283 d2bf 8da1 833e 1454 8ebf
00000020: ec82 9a3f 5e6e 19bc bc0a c7bd 9301 383e
00000030: bc14 bfbf bcb6 8b3f 202e 6c3f 7652 833e
00000040: 7784 95bf 12d3 86be 45b1 56be b8e0 993f
00000050: 7643 a83f b3e1 f8be 0a5c 723f 47a9 48bf
00000060: 1ac6 b53e bace fb3e 5041 d83f b70c 84bf
00000070: 8c53 5cbf 9f0b 8f3f 54a4 ecbd 697d 4ebe
00000080: cac4 0ebe 640d 6b3f e6b6 123e 3743 923e
00000090: 715c a93f 3bb6 e9be 5997 cc3f e20c f9bd
000000a0: dc4d d4be 4c24 743f d019 8c3c 4988 d33f
000000b0: 6b62 2e3f a4cd 2e3f 6554 cd3e 0c50 ddbe
000000c0: ad4c e2be ccf2 65be abfd 9fbe 4165 30bf
000000d0: d7fb 9a3f 2384 82be 474a 07bf 058a e23f
000000e0: 9769 fc3e 3096 0a3f 4b6d ae3f 74d5 babd
000000f0: e9f5 733d 3076 9e3f 4b8d 92bf 6cea ba3c
00000100: a396 c33e b753 96bf cba6 39bf 37d4 853e
00000110: 968a 4dbf 6d01 86be f8c7 f6bf 4c52 36bf
00000120: 0f5e d83e 2207 9abe b553 16bf 75a5 183f
00000130: dc23 273e fca9 cabd cf81 adbf 6ede 1b3f
00000140: 6309 abbf 53c2 a2be 212d 6d3e 5229 d43d
00000150: 4a13 43bb 81be c23e a0fb 313f 6a55 503f
00000160: a591 99be 3f2f 873f 4895 963d 5f76 12bf
00000170: ab6c 97be 7b40 363f 6484 8ebf 32ea ab3f
00000180: 174d 043f 67f3 2840 14b1 d8bc 5e4e bdbe
00000190: 93ad 623f 560d 0e3f a638 393f ea3f a93e
000001a0: 3092 0fbe d219 0abf 4e8e 6ac0 3d0c 003f
000001b0: 6d08 bd3d b6cb 843e b1d3 563f 77e3 9b3d
000001c0: 593b 70bf caaa 383e fa6e a23d d8e1 35bf
000001d0: 448d 7e3f 020b f73e 5894 54bf c50b 3abf
000001e0: f9dc cabe a0a0 3c3e 7eba edbe f86c 76be
000001f0: 39a8 303f 1a3d dbbe 1d44 f53e 1d94 83bd
00000200: 2129 103c ba99 a33c ef0c 2bbd 987b 133f
00000210: ab95 e33d f86e 173e 07fd 97bf 92cb 93bf
00000220: 1329 213e bd5a 463f f994 20bf acd2 5e3e
00000230: 3d89 2a3f f9ec 823f 3d14 6dbf a4ce 3f3d
00000240: 0af5 1940 6cce e83e c8d5 133f da1d a5bf
00000250: 3bb9 b93f cd46 22c0 b7dd edbe a430 463c
00000260: c71a 04c0 674c 8ebe e6a4 0c3f 667c b0be
00000270: 4455 32be b1f4 dabd 6cc2 40bf 2e81 a9be
00000280: af27 04bd 476b eebe ff69 c3be ca98 0d40
00000290: ac49 df3d cbaf 38bf a8dd cabf b9c2 9b3f
000002a0: 7a51 fbbf 8318 8e3f 36d8 3abe 96b4 6dbc
000002b0: c3a3 2dbf 76a7 cbbd bd9c 17bf 1ab3 d13e
000002c0: 17cc 40bf 89c0 a2bf b10a 673f 8989 3c3e
000002d0: f36d c53e 0046 d3bf b33a 87bf 77e2 87bf
000002e0: ecad 0a3f 0ced 7c3c 9b39 ff3e 14b0 89bf
000002f0: 3b66 ae3e 930a 3c3e a717 6dbf d4ea 713e
00000300: b5c6 5abe ede5 93bf 5d85 803d 6bf0 da3e
00000310: 16a7 443f b3b7 aebe 1e21 df3d 0cb2 b73c
00000320: 8ced b8bd 314a fa3f 2ec7 01bf a20a 2abe
00000330: 3932 cd3e b05b 55be f66f 42bf d17b 9e3e
00000340: 8ea2 2c3f 521f c5be 3ea6 dd3e 8dcb 12be
00000350: 9217 7a3e 13ca 1cbf 29d4 4e3f 3ff2 d73e
00000360: a5e2 8bbe 43e1 ae3f 53e7 f23e cf10 03bf
00000370: 66c3 0f3f e393 133f 7fe6 ac3f 7443 3abf
00000380: 6d55 39bf 3461 36bf bf5e 043c b638 46bf
00000390: d57f 913f 60d6 8d3f fbb7 0ebe 8f61 a63e
000003a0: bab4 16bf a469 cd3f 312a b1bf 8325 b13f
000003b0: 3c65 c03d b2ae 973f a2d9 3fbf c1d6 8dbe
000003c0: 3b93 e9be 1a05 c0bf 2609 debe bd1c f53d
000003d0: 0b4c a63f 74e4 17bf a515 b23e c7d3 5a3e
000003e0: 05b6 0d3f a23c 66be f7da c53f 5966 abbf
000003f0: 9301 4dbf b08d 99bf a4c3 8e3f 92b8 353f

net.4.bias f4 [21]
0.20887198 0.4451837 0.11952934 0.08452759 0.51440984 -0.011119594 0.562772 -0.11595915
-0.033438835 -0.19075075 -0.7356658 0.17460047 -0.08953876 0.5651472 -0.60674405 -0.17594461
0.24727593 0.677028 -0.22909987 -0.017540546 0.69870347
00000000: 89e2 553e 1eef e33e cccb f43d cd1c ad3d
00000010: 5db0 033f f52e 36bc d311 103f fe7b edbd
00000020: 29f7 08bd 2a54 43be 9854 3cbf 77ca 323e
00000030: 1960 b7bd 7dad 103f 9453 1bbf d32a 34be
00000040: e735 7d3e b551 2d3f 2899 6abe 31b1 8fbc
00000050: 3bde 323f
