Q3/ddpg_actor_step9850000.pth (torch, 357342 bytes, 6 tensors)

net.0.weight f4 [256, 67]
000000 84 93 45 bd 10 8e 75 3f 7f b0 5c 3e de 7c 8d 40
       -0.048236385 0.95919895 0.21551703 4.4214926
000010 aa b4 93 c0 55 a7 da 3d 9f 58 6a c0 fc 15 39 40
       -4.6158037 0.10676447 -3.661659 2.8919668
000020 95 f7 88 bf 38 72 76 3e 0b 4a 4e 3e c9 bc 14 bf
       -1.0700556 0.24067008 0.20145433 -0.58100563
000030 95 53 3b c0 77 af 6c 40 3f a6 14 c0 20 e2 73 c0
       -2.9269764 3.6982095 -2.3226469 -3.8106766
000040 59 18 53 3d e3 e6 d6 3f 3e 48 bd be 72 9e 4b 3f
       0.05153689 1.6789211 -0.3696918 0.79538643
000050 00 99 b3 bf e0 09 9b 40 29 8a 53 3f eb 92 12 be
       -1.4031067 4.8449554 0.8263269 -0.14313857
000060 a1 95 24 bf f1 ea f4 3f c3 9e ba 3f 59 1e 03 40
       -0.64290816 1.9134198 1.45797 2.0487273
000070 d4 f4 2b 3f 15 c2 65 3f 91 cf 63 bf a3 27 9d bc
       0.67170453 0.8974927 -0.88988596 -0.01918394
000080 e1 34 10 40 5a 8a 64 3e 29 06 91 be b3 e2 e3 be
       2.2532275 0.22318402 -0.28325012 -0.44508895
000090 2e eb c0 3f 5c bd b0 c0 aa 4c b1 40 0f 1c db bd
       1.5071771 -5.523115 5.5406084 -0.10698711
0000a0 f7 5e 98 be 38 22 1c 3e 44 d3 90 3e be 4a 71 bd
       -0.29759952 0.15247428 0.28286183 -0.05890917
0000b0 ca 24 52 3f ab 37 90 3d 2b 13 97 bd 0d 65 22 3f
       0.82087386 0.07041868 -0.07376703 0.6343544
0000c0 b4 a5 54 bd 21 9d 0f 3d 16 db 45 be f0 a4 81 3d
       -0.05191584 0.03506196 -0.19321856 0.063302875
0000d0 84 ca 29 bd 78 8b 44 3c 68 59 1a bd 7d de 89 3e
       -0.0414529 0.011996143 -0.03768292 0.26927558
0000e0 b7 7d 9c 3e 1f 62 0d 3f bd 40 1a be e9 79 ed 3d
       0.30564663 0.55227846 -0.15063758 0.11595518
0000f0 69 fd cd bc 82 6c d6 bd c5 b1 1e 3e f3 1c 19 3e
       -0.02514525 -0.10469915 0.15497501 0.1495245
000100 fa e9 b2 bc 7d 98 ef bc 3b f7 c2 bc 70 2d d3 be
       -0.021840084 -0.029247517 -0.02379953 -0.41245604
000110 ef 0b ff bd 28 8f 40 bf 07 a9 5b 40 b2 ab d9 bf
       -0.12453448 -0.7521844 3.4321916 -1.7005522
000120 ea 28 a3 bf 17 b4 81 3e 2d 03 00 c0 c9 ac f5 bf
       -1.2746861 0.2533271 -2.0001938 -1.9193355
000130 77 4a 32 bf 5e 3c 86 bf cb 3d c4 be 38 77 31 3f
       -0.69644874 -1.0487173 -0.38328394 0.6932254
000140 da 3b 7e c0 05 df 5b c0 cc 0a e3 bf 98 88 41 3c
       -3.972403 -3.435487 -1.773767 0.011812352
000150 da 4d d4 be e2 55 90 bf 93 b4 5f 3f 50 2c 84 3f
       -0.41465646 -1.1276209 0.8738491 1.0326023
000160 0b 40 32 40 ea 5f c2 40 62 f5 ce bf 8c 80 46 bf
       2.7851589 6.0742083 -1.6168635 -0.77539897
000170 02 9d 71 3f 92 c3 22 c0 f8 cd 54 3f 94 31 69 bf
       0.943802 -2.5431867 0.83126783 -0.91091275
000180 87 82 41 3f 57 b4 d1 3e 5c 45 e2 3b fa dd 76 bf
       0.75589794 0.409579 0.006905241 -0.9643246
000190 98 7b 89 bf fe d8 c3 bf 3b 28 49 bf e5 ce bb 3e
       -1.0740843 -1.5300596 -0.7857701 0.36681286
0001a0 6e 13 06 41 f3 af 99 c0 28 15 da bf 15 9c e7 be
       8.379744 -4.802728 -1.7037706 -0.4523627
0001b0 44 4c c4 3e b4 81 19 c0 ee 1f 7b 3f e8 50 61 be
       0.38339436 -2.3985415 0.98095596 -0.2200352
0001c0 96 0d a6 be e2 03 82 be f4 43 7c 3d 4d 77 7b bc
       -0.3243224 -0.25393587 0.061588243 -0.015348268
0001d0 d9 35 7f be 24 f6 38 3e 53 42 61 be 80 03 f1 3d
       -0.24922885 0.18062645 -0.21997957 0.11768246
0001e0 92 40 1f bc da 82 17 bb 37 ec 91 be ee 97 35 be
       -0.009719985 -0.0023118765 -0.2850053 -0.17733738
0001f0 25 19 b8 bd e7 f6 05 3e e3 9b b4 3d 9c 0e 40 bd
       -0.08989171 0.13082467 0.088187955 -0.046888933
000200 9c 04 27 be 73 6b 7d be 85 bc 2e bc 79 85 91 3c
       -0.16310352 -0.2474802 -0.010665064 0.01776384
000210 4d f8 b4 3c e5 47 6b 3d 9a 76 3b 3e ca 98 73 bf
       0.022091055 0.05744161 0.18306962 -0.9515501
000220 2b 88 42 3f a2 67 3c c0 23 b0 6f 3d 97 59 f5 be
       0.75989026 -2.9438252 0.058517586 -0.47919914
000230 cb 60 1c 40 7e d2 e1 40 84 6b d9 be 31 ca 6d bf
       2.4434078 7.056945 -0.4246484 -0.92886645
000240 50 a5 93 3e 2d 43 b1 3d 11 e5 65 3f 01 86 7e bf
       0.2883706 0.08655391 0.8980265 -0.99423224
000250 11 90 8e 40 00 ec 17 c0 d7 dd 83 c0 81 12 3b c0
       4.455086 -2.3737793 -4.12083 -2.9230044
000260 66 70 16 40 17 18 0b bf 06 36 e1 bf b2 be 10 c0
       2.3506103 -0.54333633 -1.7594612 -2.261639
000270 b2 6c 2f 3f 66 51 97 3f 35 d2 a4 bd c3 26 3f c0
       0.6852523 1.1821716 -0.08047906 -2.9867408
000280 5a 75 00 40 89 21 5c 40 a9 5f de bf 90 25 81 3f
       2.0071626 3.4395468 -1.7372943 1.0089588
000290 72 8f 39 3f 2e 20 03 bf 9e a4 7f 3f ba de 8b bf
       0.72484505 -0.5122098 0.9986056 -1.0927346
0002a0 92 ca 7a be 75 9c 96 3d f1 8b f5 3e 97 6e 02 41
       -0.24491337 0.073540606 0.4795833 8.151999
0002b0 56 6c 0a c0 bd a8 eb bf af ab d1 be 8c 67 40 3e
       -2.1628623 -1.841087 -0.40951297 0.187895
0002c0 cf 7e 06 bf 0c 10 25 3e b9 d5 75 bf 8d 80 12 3e
       -0.52537245 0.16119403 -0.9602924 0.1430685
0002d0 a7 74 06 bc bf 5e bb be 83 31 bb 3e 6f a3 ef 3d
       -0.008206523 -0.36595723 0.36561212 0.11701094
0002e0 99 36 5d 3d ba f9 0a be 63 5d b2 bd 3a 3d 30 3c
       0.054007147 -0.13571826 -0.08709218 0.010756785
0002f0 c7 61 5e 3d 8d 26 c9 be c8 77 01 bc f6 81 13 3c
       0.054292466 -0.39287224 -0.007902093 0.009003153
000300 da a2 0c be 0b 76 47 3e b3 d8 30 3d 58 5f 6f bd
       -0.13733998 0.19478624 0.04317541 -0.058440536
000310 24 07 a6 bc 69 2a 58 bd cf a7 ab bc 9a dd 96 bd
       -0.020267077 -0.05277482 -0.02095404 -0.07366486
000320 9d b7 33 be 24 54 f9 3d 43 c5 09 bf bf 6c 48 3f
       -0.17550512 0.12174252 -0.5381662 0.78290933
000330 48 c0 aa 3e e3 c5 e2 bf 4c fa 77 be 93 50 2f c0
       0.33349824 -1.771664 -0.24216574 -2.7392929
000340 3f 59 e9 3e 4e 0b 00 3f 54 24 0b c0 36 5a 8e 3d
       0.45575902 0.5001725 -2.1740923 0.069508
000350 43 fd 88 3f 19 67 ea bf 6e 12 22 40 42 7e a2 3f
       1.0702289 -1.8312713 2.5323749 1.2694781
000360 54 c0 4e c0 01 85 e8 bf 48 81 10 40 5d 3d 0c c0
       -3.2304888 -1.816559 2.2578907 -2.1912453
000370 78 f0 a2 40 ac 4d 0a 40 a9 2d d3 40 d1 a6 69 bf
       5.091854 2.1609907 6.5993237 -0.91270167
000380 f7 f3 28 40 f8 30 d8 3f d6 fa 82 40 12 ce f9 3a
       2.6398904 1.6889944 4.0931196 0.0019058606
000390 19 64 e9 3e 56 20 85 3f 96 32 b2 bf 13 79 2e bf
       0.4558418 1.0400493 -1.3921688 -0.68153495
0003a0 76 a4 af be 17 d8 84 3e 19 0e a1 be e2 5f 71 bc
       -0.3430516 0.25946113 -0.31456068 -0.014732333
0003b0 18 da 09 bf 4a 38 b3 be da e3 d7 3e 0b 9e d0 3f
       -0.5384841 -0.35003883 0.42166024 1.6298231
0003c0 a8 83 ca c0 93 30 d7 be f3 6f 3b 3f 02 ef 99 3f
       -6.3285713 -0.42029247 0.73217696 1.2026064
0003d0 b6 5d 67 3f 3a dc 70 3e 66 e3 24 be 17 ff 05 bf
       0.90377367 0.2352151 -0.1610237 -0.5234236
0003e0 0a 23 f5 3d 73 02 2c be 76 ac c2 be d5 1f a1 be
       0.11969574 -0.1679781 -0.38022202 -0.31469598
0003f0 06 48 f9 3c 01 f7 26 be 1c 1e c7 3d bd 21 48 3d
       0.030429851 -0.16305162 0.0972254 0.0488603

net.0.bias f4 [256]
000000 18 39 4a be b3 2f 77 3f c4 71 85 bf f2 99 23 3f
       -0.19748342 0.9655716 -1.0425344 0.63906777
000010 b5 f9 3c 3f b2 8d db be ff df f7 be 7c b7 8e bb
       0.7381852 -0.42881542 -0.48413083 -0.004355369
000020 da c3 ca bf 20 8c a4 bf 6d 8a 18 3f 44 79 0a be
       -1.5841019 -1.2855263 0.5958622 -0.13522822
000030 d4 4e 5b 3d 33 a1 a6 be 21 ae ed bf 9c 27 2e bf
       0.053541973 -0.3254486 -1.8568765 -0.6802919
000040 b9 84 6c bf bc fa df be 5a 82 c8 3f 0d 7c 6c bf
       -0.9239002 -0.43745983 1.566478 -0.92376786
000050 e0 5c c0 bf 10 71 ac 3e d7 30 fc bf 28 14 31 bf
       -1.5028343 0.3368001 -1.9702405 -0.6917138
000060 ba f1 4f bf 99 54 de bf c2 20 38 be ef 8c 7d bf
       -0.8122822 -1.7369567 -0.17981246 -0.9904317
000070 b2 56 3c bf 55 5d 66 be 10 b5 9a 3e 26 d7 77 bd
       -0.73569787 -0.22496541 0.30216265 -0.060507916
000080 12 eb d5 be 0b 6c 83 3f b6 e3 a7 3d c8 bd aa 3f
       -0.41780907 1.0267347 0.08197729 1.3339167
000090 df 1a 90 be 00 22 27 be 4e 16 75 3f d5 26 db be
       -0.281455 -0.16321564 0.9573716 -0.42803064
0000a0 6c 06 6a 3e fa d7 e9 bf a3 64 3b 3f cf ef 65 3c
       0.22854012 -1.8269036 0.73200434 0.014034226
0000b0 9e 52 70 3f 56 96 79 be ba 28 2e 3e d2 22 9b be
       0.93876064 -0.24373755 0.17007723 -0.30300003
0000c0 47 a6 5a bf 60 8c c1 be 39 0c 2d 3f 19 15 3d bf
       -0.8540997 -0.3780241 0.67596775 -0.7386032
0000d0 a4 58 4a 3f 88 fa 9a 3f db 2a 94 3e bb 88 36 bf
       0.79041505 1.2107706 0.28938946 -0.71302384
0000e0 86 3d d8 3e f7 82 01 40 3a bc e7 bf 22 04 81 be
       0.4223444 2.0236185 -1.8104317 -0.25198466
0000f0 0e 94 03 c0 7d f7 f7 be 64 ff 15 bf 96 77 b0 3e
       -2.0559115 -0.48431006 -0.5859282 0.34466237
000100 44 bc 18 3e ff 1f 03 bf db a4 59 3f 7b 47 e5 be
       0.14915568 -0.512207 0.85017174 -0.44781098
000110 1d f4 08 bf f5 d0 24 bf 42 94 8a be a7 bd 58 bf
       -0.5349749 -0.64381343 -0.27066237 -0.84664387
000120 5d ee 61 bf e9 a7 96 bf ac a5 72 bf ce 7d 27 bf
       -0.8825434 -1.1769992 -0.94784045 -0.6542634
000130 79 62 76 bf af b9 03 bf 7e 47 3f bf d0 1a d0 3d
       -0.9624401 -0.51455206 -0.74718463 0.10161364
000140 51 4a 45 3f 7e da 99 bf 14 9b c4 bf 30 5f 4b 3f
       0.7706652 -1.2019804 -1.5359826 0.7944212
000150 97 16 aa bf c9 29 54 bf 93 fe d9 3e 90 df 81 bf
       -1.3288144 -0.8287626 0.42577037 -1.0146351
000160 97 05 82 bd 54 50 b8 3e ea 89 0a 3f 51 12 02 3f
       -0.063487224 0.35998785 0.5411669 0.508092
000170 dc 46 19 c0 7f ae 29 bf 18 78 bc bf bb df 98 3d
       -2.39495 -0.66281885 -1.472415 0.07464548
000180 30 99 d6 bf 5c 76 5f bf 6c f9 6a bf 9e 0c 3a be
       -1.6765499 -0.8728998 -0.9178684 -0.18168876
000190 fb 79 10 bf e5 64 53 bf de 9b f2 3e 3e 3b 95 bf
       -0.5643613 -0.8257583 0.47384542 -1.1658704
0001a0 2b 01 ba 3a 9e 29 64 bf bc eb df bf d6 ed e3 3e
       0.0014191022 -0.89126 -1.7493815 0.44517392
0001b0 e4 45 63 bf 45 13 c5 be 57 e1 ee bd d7 88 1e bf
       -0.8877852 -0.38491264 -0.11664074 -0.6192755
0001c0 4e 79 15 bf 73 a5 69 3e e5 18 f1 bf 94 00 0b bf
       -0.5838822 0.2281702 -1.8835722 -0.5429776
0001d0 9f 16 f9 be 7c 4a 29 3f 16 17 73 bf cc de 27 be
       -0.4865007 0.6612928 -0.949571 -0.16393584
0001e0 d5 59 cb 3e a4 ff 47 bf 38 63 6c 3f b2 9a 61 bf
       0.39716974 -0.7812445 0.92338896 -0.8812667
0001f0 b1 50 a7 3e 18 2f 38 3b ee 5c 49 bf 58 29 8a bf
       0.3267875 0.0028104242 -0.78657424 -1.0793867
000200 e6 23 c3 3f d2 77 db 3e 14 13 70 3c dc 45 13 bd
       1.524533 0.42864853 0.014652986 -0.035955295
000210 86 b9 5f bf 72 ac 73 bf ed c1 8b 3e 13 1b 91 be
       -0.8739246 -0.95185006 0.2729639 -0.28340968
000220 eb 35 81 bf 39 72 8f 3d 4a 05 11 bf 79 23 6a 3e
       -1.009458 0.07004208 -0.56648695 0.22865094
000230 23 10 26 c0 93 8d 1a bf fc 32 95 bf df 74 96 bf
       -2.594735 -0.60372275 -1.1656184 -1.1754416
000240 15 64 73 ba e5 98 bf bf c3 44 7b bf 61 cf 5b bf
       -0.0009284628 -1.4968535 -0.981518 -0.8586331
000250 dc 80 0a bf df d3 59 bf 2e 6b f1 3f 79 18 1c be
       -0.54102874 -0.85088915 1.8860834 -0.1524371
000260 53 d3 97 3e e6 90 02 c0 e1 b5 91 be 4a c6 4c 3d
       0.29653415 -2.040094 -0.28459075 0.04999379
000270 eb 36 ac 3f a3 8e 03 3f df 4c 98 bf 44 02 7a bf
       1.345426 0.5138952 -1.1898459 -0.9765971
000280 19 cd 0d c0 af 84 a2 bf 46 c9 89 3d 47 31 84 3e
       -2.2156432 -1.2696742 0.06727843 0.25818846
000290 07 6d 1e c0 39 c9 2b 3f 05 89 1d 3f c5 8b 97 bf
       -2.4754045 0.67103916 0.615372 -1.1839529
0002a0 7f f5 54 3f 5e dd 9a 3f 94 b5 27 be e5 40 08 3e
       0.831871 1.2098806 -0.1637786 0.13306005
0002b0 22 61 2f 3f 66 51 8e 3e 10 3c c5 bf f8 54 b7 bf
       0.6850759 0.27796477 -1.5408955 -1.4322805
0002c0 91 5f 89 bf 3e 6f 90 bf 5b 57 0d bf a6 ee 93 be
       -1.073229 -1.1283948 -0.5521142 -0.28893012
0002d0 ac 53 bf 3e c4 6d 7d 3f ea 86 30 3e 24 25 a1 3e
       0.37368524 0.98995614 0.17238966 0.3147365
0002e0 40 e2 c0 bf a3 00 ab 3d ac 41 a6 bf aa a4 d5 bf
       -1.5069046 0.08349731 -1.2988791 -1.6690876
0002f0 54 e1 f0 bf 32 33 11 bf ac cc 42 bf 42 9b 15 3f
       -1.8818765 -0.5671874 -0.76093554 0.5844003
000300 7f 06 78 bf af d0 9a 3c 07 95 d7 bf 0f 7d 30 bf
       -0.9688491 0.018898336 -1.6842355 -0.68940824
000310 fb 66 b2 bf 0a d1 16 be e6 92 ad 3e e9 b2 80 bf
       -1.3937677 -0.1472818 0.33901137 -1.0054599
000320 33 93 f8 be be e6 64 bf 51 56 8e bf b2 ff 52 3e
       -0.48549804 -0.89414585 -1.1120092 0.20605353
000330 fc 67 af bd 39 96 82 bf 97 ed 16 be 81 39 31 bf
       -0.08564755 -1.0202094 -0.14739071 -0.6922837
000340 91 32 88 3e 64 b6 98 be 87 7f 0f bf fa ae 76 be
       0.2660108 -0.29826653 -0.56053966 -0.24090186
000350 cd ac eb bd 50 1a d2 bf f9 3b 68 bf 40 69 b3 be
       -0.115075685 -1.641428 -0.9071651 -0.35041237
000360 99 fb 98 bf 61 26 02 bf f0 73 7a bf f9 6f 3c 3f
       -1.1951782 -0.5083981 -0.97833157 0.73608357
000370 42 2a 1d bf ce 02 22 bf b9 b9 19 bf 74 54 f8 3f
       -0.61392605 -0.6328553 -0.60049015 1.9400773
000380 eb ce ca 3f 45 59 1a bc 78 0e a1 bf 9d 75 ec be
       1.5844396 -0.009420698 -1.258254 -0.46183482
000390 dd 85 11 c0 82 d2 18 3e ef 32 3c bf 82 f5 b9 3f
       -2.2737954 0.14924052 -0.7351522 1.4528048
0003a0 62 48 10 3f 1d 8e 08 c0 c0 85 02 bd 38 e2 d4 bf
       0.5636045 -2.133674 -0.031865835 -1.6631536
0003b0 ec 2d 80 bf 8c 06 9a 3e 1e cd 14 3f 44 7d d1 bf
       -1.0014014 0.3008312 0.58125484 -1.6366353
0003c0 1f 7f bd bf 6c 67 9b bf 6b b5 cd bf 1f fc 82 bf
       -1.4804419 -1.2140937 -1.6070989 -1.0233191
0003d0 16 f7 74 bd 3c 49 df 3e 09 84 f3 bf 3c 7b 8c 3f
       -0.059805952 0.4361056 -1.9024669 1.0975108
0003e0 10 ca ad 3f a2 44 c4 bf e5 08 01 3f b1 62 0e 3f
       1.357729 -1.5333445 0.50404197 0.5561934
0003f0 06 84 cd bf 15 43 41 bf d8 87 4c be 9b 8f bc 3e
       -1.6055915 -0.75492984 -0.19973695 0.36828312

net.2.weight f4 [256, 256]
000000 85 4b 11 be 5d 88 1c be 82 77 c8 3f 5e 54 1c be
       -0.14188965 -0.15286393 1.5661471 -0.15266559
000010 98 56 a2 3f 0c 3e 93 3f cc da fc 3f 57 8f 63 3f
       1.2682676 1.150331 1.9754272 0.88890594
000020 5c a9 92 3f e4 00 5b be 0f f4 74 3e d4 99 f1 be
       1.1457934 -0.21387058 0.23921226 -0.47187674
000030 85 f7 5b bf f4 d4 20 3f bb 47 82 bf de ae 0e 3e
       -0.8592456 0.6282494 -1.017814 0.13933894
000040 ff f4 55 bf 44 45 b5 3d 52 20 03 be 55 cc 9c 3f
       -0.8357696 0.08851102 -0.12805298 1.2249857
000050 1d af b4 bc bc d6 e5 3f e3 c2 98 bf e6 09 32 bf
       -0.022056157 1.7956157 -1.1934475 -0.69546354
000060 2f 07 c6 be 0a 25 54 3d 8a a5 ce 3f 46 02 a7 be
       -0.38677356 0.051793136 1.6144269 -0.32618922
000070 fe c3 9d be b8 07 c6 bf 19 1c ba 3f 3b 8f 3e 3e
       -0.30813593 -1.5471106 1.4539825 0.18609326
000080 4b 8d e0 be 43 5d 92 bf 57 5a a6 3e b5 d7 c4 be
       -0.43857798 -1.1434711 0.324908 -0.3844582
000090 dc 2c 9f 3f 1f 4a 46 be 3a 86 90 bd f6 12 ba 3e
       1.2435565 -0.19364212 -0.07056852 0.3634259
0000a0 c8 9b 50 3f 9d c9 85 bc e0 bd a8 be d8 27 05 c0
       0.81487703 -0.016331488 -0.32957363 -2.0805569
0000b0 58 ed b7 3f d8 ce 61 bf b8 41 a5 3f 09 81 8e bf
       1.4369307 -0.88206244 1.2910681 -1.1133128
0000c0 2e 7d 0f 3f 5e 16 96 bf 15 98 86 bf aa 1d e1 3d
       0.56050384 -1.1725576 -1.0515162 0.10991986
0000d0 3e a4 9c bf cd df a1 bf 0e 3a e2 3e 91 bb 9b 3f
       -1.2237623 -1.2646424 0.44184917 1.2166616
0000e0 47 d9 e9 3e 25 2a 6d 3f 4c d5 83 be 4a 2f e5 3f
       0.45673582 0.9264243 -0.2574867 1.7905056
0000f0 a5 f1 f5 bf 0e c8 f8 bf 5b a3 c0 bd fa fe 49 3f
       -1.9214369 -1.9436052 -0.094061576 0.7890469
000100 d4 09 44 3f 7f 18 bc 3f 90 38 0b 3f a7 87 1c bf
       0.76577497 1.4694976 0.5438318 -0.6114449
000110 bb d0 56 be 61 ec 52 bf 89 40 53 3e 10 a2 c3 3f
       -0.20978062 -0.82391936 0.20630087 1.5283833
000120 1d 0c 35 3e fa 1f 28 c0 d2 48 59 3f 3f 22 12 3f
       0.17680402 -2.6269517 0.8487674 0.57083505
000130 7b c6 c6 be 89 0a c4 be 1d 17 a9 be 22 6b 08 3f
       -0.38823304 -0.38289288 -0.33025447 0.5328847
000140 89 2d 31 bf 52 bb 12 bf 50 33 d6 be f4 f4 4f 3e
       -0.69210106 -0.5731708 -0.41836023 0.20308286
000150 51 aa 07 bf df fb 31 bf 79 dc a4 bf c1 67 c0 bf
       -0.5299426 -0.6952495 -1.2879783 -1.5031663
000160 de d0 27 be a2 39 4e bf a3 d7 57 bf 11 bc 18 bf
       -0.1638827 -0.8055669 -0.8431341 -0.59661967
000170 3f 09 0b be 75 7c 37 bf c0 fc ba 3e 5f 0e 87 3e
       -0.13577746 -0.7167428 0.36520958 0.26378152
000180 45 e9 e9 be 33 42 82 3f dc 09 d2 3e d1 6e e3 bf
       -0.45685783 1.0176452 0.41023147 -1.7768193
000190 96 4e d6 3f 72 1c 82 3f 12 c9 e8 bf bf 6a 96 be
       1.6742733 1.0164931 -1.8186362 -0.29378316
0001a0 da 64 c0 bd 97 8f ed bc 99 b1 a7 3e a3 6a 35 3f
       -0.09394236 -0.028999133 0.32752684 0.7086584
0001b0 da ef 5c be de db 84 bf e4 d2 d7 3f 6b 78 9a bf
       -0.21575871 -1.0379598 1.6861234 -1.2067999
0001c0 e7 c7 a2 3f 08 c9 83 3e b2 23 78 be 66 8d 02 bf
       1.2717255 0.25739312 -0.24232367 -0.50997007
0001d0 0e f7 1e bf de 22 3a bf 9f f0 04 c0 11 fb 54 bf
       -0.62095726 -0.72709453 -2.0771863 -0.83195597
0001e0 97 c9 91 3f d6 2f b4 3e ce 8d 32 c0 92 25 ff bd
       1.1389645 0.35192746 -2.789905 -0.12458338
0001f0 d2 bf 86 be b2 14 99 3e 5b d6 62 be 17 fc a7 3e
       -0.26318222 0.29898602 -0.22152083 0.32809517
000200 8a 35 4c bf e7 1e b1 3e 1a 48 bb 3e f7 fe 0d 3f
       -0.79769194 0.3459389 0.36578447 0.5546717
000210 cb b5 0b be 76 bd b5 be e9 45 6d 3f ed fc b1 3f
       -0.13643567 -0.3549611 0.926848 1.3905312
000220 d9 2c a2 be d3 16 85 be ff 62 85 be ad e4 93 bf
       -0.3167484 -0.25993976 -0.2605209 -1.1554161
000230 77 56 8d bf 71 7b 48 3f fe ec 31 3d 4e 71 d4 3f
       -1.1042012 0.78313357 0.043438904 1.6597078
000240 0f be 14 bf 3e a3 6b 3e b3 05 b4 be 28 7d ad 3c
       -0.58102506 0.2301149 -0.35160598 0.021177843
000250 90 f3 c1 bf be 25 ca bf a7 ce 89 bf bb 58 77 bf
       -1.5152454 -1.5792768 -1.076619 -0.96619767
000260 c1 e8 26 3c 83 0c 5d 3f e5 7d 85 3b 84 18 03 bf
       0.010187329 0.86347216 0.0040738457 -0.5120928
000270 fe 81 92 bf b7 70 f5 3f 21 4e 9d 3f 77 44 29 bf
       -1.144592 1.9175023 1.2289468 -0.66120094
000280 76 60 a8 be 98 21 cf bf 3f bb 4a bf 4b 5c d0 3e
       -0.32886094 -1.6182127 -0.79191965 0.40695414
000290 d6 95 08 c0 26 2b e8 be f3 89 8f be 85 ef 5d bf
       -2.1341453 -0.4534542 -0.28034934 -0.866936
0002a0 03 3c 8d bf 65 07 04 bf c9 2c d9 bf 5e d9 9c 3f
       -1.1033939 -0.51573783 -1.6966792 1.2253835
0002b0 c5 05 48 3f 79 dd 88 3d 1e a0 09 3e 4c 0a a7 3c
       0.78133804 0.066828676 0.13439986 0.020390652
0002c0 40 6b d9 be af b7 46 bf 9f 92 2c 3f 57 1d 36 3e
       -0.42464638 -0.7762403 0.67411226 0.1778463
0002d0 8e 07 de be 7b 36 99 be 61 60 a7 3f 5c ab 2f bf
       -0.4336514 -0.29924378 1.3076288 -0.6862085
0002e0 36 92 83 3c 89 83 0e 3f 93 13 e2 3e d1 fa 04 3e
       0.01606093 0.55669457 0.4415556 0.12986304
0002f0 24 88 00 3f d5 38 bf bb c5 aa b1 bf 57 ab 96 be
       0.50207734 -0.0058356323 -1.388024 -0.29427597
000300 9b 58 82 3e 66 1f df be 68 e6 64 3f 15 36 2a c0
       0.25458226 -0.43578643 0.8941407 -2.659551
000310 7b b5 04 3f 5f d6 83 3e 27 fc ff be 4f c4 15 3d
       0.5183942 0.2574949 -0.49997064 0.036564168
000320 46 43 d5 bf 9f 87 0a bc 6d 2a 85 bf cc 7c b8 3f
       -1.6661155 -0.008455186 -1.0403572 1.4413085
000330 54 7d e4 bd 27 78 68 3e cd 74 87 3e 5e 1e 7e 3f
       -0.11156717 0.22702084 0.264563 0.99265087
000340 d7 b4 85 3f da ce 9d 3e 47 ce 15 c0 0c 3e d3 3e
       1.0445813 0.30821878 -2.3407152 0.41258276
000350 32 78 e7 bf 25 71 4a 3e 41 9d 7f 3e 02 9a 25 3f
       -1.8083556 0.19769724 0.24962331 0.6468812
000360 f5 52 98 3f f8 40 b2 3f 8d 7f e7 3f 29 24 cf 3e
       1.1900316 1.3926077 1.80858 0.40457276
000370 05 91 47 bf 44 64 d0 bf 02 c7 70 3e d2 33 b6 bf
       -0.7795566 -1.6280599 0.23513415 -1.4234564
000380 53 8d db 3e f3 1f 3c 3c 97 dd 1c bf a7 b5 78 bf
       0.4288126 0.011482227 -0.6127562 -0.9715218
000390 bb c1 80 bf 93 73 bb 3f c2 8d 45 3e 19 fc 33 3f
       -1.0059122 1.4644645 0.19292358 0.70306545
0003a0 29 e6 a4 bf a7 42 3b bf b6 df fe be a9 d4 98 be
       -1.2882739 -0.7314858 -0.49780053 -0.29849747
0003b0 f2 e4 02 3f 3c f9 96 3b 66 2e b1 bf 80 04 34 3f
       0.5113059 0.004607348 -1.3842285 0.70319366
0003c0 3e 5d 63 3f 1c b8 38 bf 20 8b 54 be 3d 6e 5b be
       0.8881415 -0.7215593 -0.20756197 -0.21428771
0003d0 0b 1d cb be f8 2c 10 c0 2b 6b 55 3f ad 64 13 3f
       -0.39670596 -2.2527447 0.8336665 0.57575494
0003e0 cf f0 c8 bf ea a8 e2 bf aa 81 80 3d 23 b3 c3 be
       -1.5698489 -1.7707798 0.062747315 -0.38222608
0003f0 01 20 2f bc d9 af 28 3f f5 05 76 3e 1f 8f 38 bf
       -0.010688783 0.6589332 0.2402571 -0.72093385

net.2.bias f4 [256]
000000 4f 39 89 bd c2 08 c7 3e 80 98 dd 3c f4 a8 a3 bf
       -0.06700384 0.3887387 0.027050257 -1.2785935
000010 db ba bb bd 63 ca 2c bd bf ac c0 bd 39 80 a7 be
       -0.09166499 -0.0421852 -0.09407949 -0.32715014
000020 2f 41 15 bf ba 8a 02 be 9a 40 62 be e5 8a 40 be
       -0.5830259 -0.12748232 -0.22094956 -0.18802984
000030 fc dc 86 bf 21 f4 af be b5 c2 5d be 00 65 3d be
       -1.0536189 -0.34365943 -0.21656306 -0.1849556
000040 83 17 d4 3d 26 3e f7 be e0 97 28 bf f8 b8 0e bf
       0.10356047 -0.48289603 -0.6585674 -0.5575099
000050 44 76 12 3e b7 11 be be d6 76 b9 3e d1 a4 c4 be
       0.14302927 -0.3712289 0.36223477 -0.38406995
000060 fa 52 b1 bd e8 d0 36 bf fe 05 13 be 8e 48 10 3f
       -0.08658405 -0.71412516 -0.14357755 0.5636071
000070 a9 8d 0b bf 3b 7f 90 be 60 04 a5 3d ee 5a 77 be
       -0.5451303 -0.2822207 0.08057475 -0.2415578
000080 d5 b7 8e bf 47 9d f8 be 0a ca b6 3e 88 c8 29 3e
       -1.1149851 -0.48557493 0.3570102 0.16580403
000090 cd 06 7b bf a7 aa 06 bf a6 14 5c bd 0d c7 f4 bd
       -0.9805725 -0.52604145 -0.05373063 -0.119520284
0000a0 29 45 ea 3e 33 0c 47 bf 10 69 98 be f9 9d 64 be
       0.4575589 -0.7775299 -0.29767656 -0.22325887
0000b0 54 6f 08 be cc 15 64 be 51 d3 92 bf d5 f7 ef be
       -0.13323718 -0.2227394 -1.1470739 -0.46868768
0000c0 76 75 46 be e0 64 47 bf 12 83 ad bc ac 4b 8e be
       -0.19380745 -0.778883 -0.021180663 -0.27792108
0000d0 f7 0c f9 be 19 1e 4b 3f 4e 3e 22 be c7 7c 10 bf
       -0.48642704 0.793428 -0.1584408 -0.56440395
0000e0 6e bf b8 3d dc ae 3e 3a be fc 57 bf 49 62 01 be
       0.09020887 0.0007273981 -0.8437003 -0.12635149
0000f0 3b 50 c4 3d 09 a0 5a bf 42 7f b3 be 20 dd 91 bf
       0.09585615 -0.85400444 -0.35058028 -1.1395607
000100 e2 0e 17 bf 17 ad 98 be eb 0a b1 be 6e 8b d3 3b
       -0.59007084 -0.29819557 -0.34578642 0.0064558303
000110 f1 05 97 be fb db 2d be 13 77 23 bd 2b be bd bd
       -0.2949672 -0.16978447 -0.03990848 -0.09264787
000120 37 1a da be 8b c7 38 3e 93 89 94 3e 1f 5f 24 3d
       -0.42598125 0.1804487 0.2901121 0.040129777
000130 e1 63 8d 3c 36 10 9b be 63 b8 09 be cd a3 b3 be
       0.01725954 -0.30285805 -0.13449244 -0.35085908
000140 07 19 83 3d 41 ff 20 3e f9 fa e1 be b7 84 0d be
       0.06401258 0.15722372 -0.4413679 -0.13820158
000150 28 c9 85 bd 81 e0 89 bf d0 c2 a5 be 6f e2 c8 3b
       -0.06532508 -1.0771638 -0.32375193 0.0061305086
000160 c9 60 dd 3e d4 c0 60 bf 1d ed 27 bf 8f d9 09 bf
       0.43237904 -0.8779423 -0.6559618 -0.53847593
000170 b2 8b c5 be 8d 8a 0c 3f 8e 68 27 3d cc 1a 2a bf
       -0.38583142 0.5489891 0.040871195 -0.6644714
000180 4f c7 18 bf bd b7 c3 be 93 9f da 3e 3e a0 5e bf
       -0.5967912 -0.3822612 0.4269987 -0.8696326
000190 4b fd 47 3c ac b2 9f be cd ca 89 3a 6d 42 58 3d
       0.012206386 -0.31191003 0.001051271 0.052797724
0001a0 20 c1 03 bf 40 68 b4 be 0d cf 20 bf 79 38 ae bb
       -0.5146656 -0.35235786 -0.62815934 -0.0053167907
0001b0 5b 9c 4f 3f 1f 90 70 be 2b 40 3a 3d 39 6f ff be
       0.81097955 -0.23492478 0.04547135 -0.49889544
0001c0 86 84 57 be 7f c0 3a bf ad 5f cd be 03 f8 ae be
       -0.21046647 -0.72949976 -0.40112057 -0.34173593
0001d0 82 b2 97 3e f8 93 34 bd e2 00 73 be 1d fb 90 3e
       0.29628378 -0.044086426 -0.23730806 0.28316584
0001e0 c4 81 6e bd 1f a7 d2 bd 0c 84 db 3e 29 34 d5 be
       -0.058229223 -0.10285782 0.4287418 -0.41641358
0001f0 8f 46 30 3e e9 12 c9 be b2 3e 0d be b3 1b 0d be
       0.17214416 -0.3927224 -0.13793448 -0.13780098
000200 a4 bb a2 bc ec f1 23 bf 58 21 a0 be 22 f8 0e bf
       -0.019864865 -0.6404102 -0.3127544 -0.5584737
000210 39 c3 aa be 53 d7 ea 3d ef f8 93 be 43 41 49 bf
       -0.33352068 0.11466851 -0.2890086 -0.78615206
000220 08 52 83 3e 3f 5b a2 be 09 71 32 be 31 1d 79 be
       0.25648522 -0.3171024 -0.17425932 -0.24327542
000230 1b 94 84 bd 59 e8 0f bf 27 28 52 bf c1 ca 18 bf
       -0.064735614 -0.5621391 -0.8209252 -0.5968438
000240 38 31 9d 3e 2e b0 d6 be f3 ab 6a be 0e 28 b6 be
       0.30701613 -0.4193129 -0.22917156 -0.35577434
000250 70 97 d3 bd 93 11 07 3e bc 6a cc be 7a e2 36 3f
       -0.10331619 0.13190298 -0.39925182 0.71439326
000260 d1 24 22 be 72 06 80 bf f6 68 2a bf 59 d2 b0 be
       -0.15834357 -1.0001967 -0.6656641 -0.34535483
000270 86 0c bc be 11 96 3e be d9 86 02 be 41 58 05 3e
       -0.36728305 -0.18611933 -0.12746753 0.13021947
000280 bb 35 2b be 80 84 15 3c 98 2b 01 bf d6 be a9 be
       -0.16719715 0.009125829 -0.50457144 -0.3315341
000290 97 19 42 be 99 5b 19 bf 4c ed cb 3e 77 11 1a be
       -0.18955074 -0.5990539 0.3982948 -0.15045725
0002a0 30 42 b4 3e c8 4f 0a be 94 13 2f 3e 76 8f b7 3e
       0.35206747 -0.13506997 0.17097312 0.3585164
0002b0 17 82 ed bc 94 51 70 be 76 bd ba bd 01 c3 cc be
       -0.028992696 -0.2346862 -0.09118168 -0.39992526
0002c0 29 ba a6 bd d5 35 82 3e af b8 3c bf 16 4a 87 be
       -0.08140976 0.25431696 -0.73719305 -0.2642371
0002d0 34 84 9e be 2e 58 5d bf da bc 43 be ec 47 1e be
       -0.30960238 -0.86462677 -0.1911501 -0.15457124
0002e0 8e a9 0a bf 38 4f 5a be 87 f0 05 3c 6d 62 48 bd
       -0.5416497 -0.21319282 0.008175022 -0.04892199
0002f0 27 37 c4 be e1 a0 bf 3d e5 3d 20 bf 80 eb 3f bf
       -0.38323328 0.09356857 -0.62594444 -0.7496872
000300 ee 8f 18 bf a7 a5 2e bf 5e 00 b1 3e 29 7a 68 3e
       -0.5959462 -0.68221515 0.34570593 0.2270285
000310 f7 a4 0e bf 68 c0 ae 3e 63 3a bd 3d aa cd 80 be
       -0.55720466 0.3413117 0.09239652 -0.2515691
000320 22 8a 09 bf e3 e4 e7 be 6a e9 65 be 7d 62 b2 be
       -0.537264 -0.45291814 -0.22452322 -0.34840766
000330 7b 36 19 be e6 00 dd be fe c2 38 bf b5 b4 2e be
       -0.14962189 -0.43164748 -0.72172534 -0.17061122
000340 f2 03 b6 3e c6 03 00 be ff a6 11 bf b0 33 58 bf
       0.35549885 -0.1250144 -0.5689544 -0.8445387
000350 e7 e7 2a 3f ed 30 ab bd 9e a5 c1 bc 21 09 76 3d
       0.66760105 -0.08358941 -0.023638543 0.0600673
000360 d1 aa 1a bf 30 ed 0c 3e b1 a9 f5 be bf 71 95 be
       -0.60416895 0.13762355 -0.47981027 -0.29188344
000370 a1 9f df be 12 27 ad bd 9c 3d 28 3f d5 93 e6 be
       -0.43676475 -0.08454718 0.6571901 -0.45034662
000380 49 42 58 3c 9f 5a c9 3d 4f 8a 78 bf 5c 84 a6 be
       0.013199397 0.09831738 -0.9708604 -0.32522857
000390 3c 55 c0 bd 01 55 26 bf 7d 2b cb be b0 fc c5 bd
       -0.09391257 -0.64973456 -0.39681616 -0.09667337
0003a0 14 1e 48 bf 31 a9 2e bf 1c 87 55 bf 08 f0 1f be
       -0.78170896 -0.68226916 -0.83409286 -0.15618908
0003b0 a3 a9 41 3f a0 3e 8f be 6e 35 6a 3d 81 c6 b0 be
       0.7564947 -0.27977467 0.05717986 -0.34526446
0003c0 9b 7f 69 bf 6b 1c 80 bf fd 9c 04 3f 9e 73 0b bf
       -0.91210335 -1.0008672 0.51802045 -0.5447329
0003d0 f9 27 06 be 0c 30 84 be f3 68 17 bf 87 86 c4 be
       -0.13101186 -0.25817907 -0.59144515 -0.38383886
0003e0 ea 1a 3b bf cb a0 3e 3e f7 e6 aa be a9 73 c4 bd
       -0.7308794 0.18616025 -0.33379337 -0.09592373
0003f0 ca 64 1d bf d0 87 0d bf 3d e3 eb 3d ef a6 0c bf
       -0.61481917 -0.5528536 0.11517952 -0.5494222

net.4.weight f4 [21, 256]
000000 20 20 a0 bf 9d 6e c6 3e 47 73 8e 3e 35 90 2a 3f
       -1.2509804 0.38756266 0.27822325 0.6662629
000010 19 c4 b4 be ce d9 d9 bf c6 64 79 3e 0d 64 8d bf
       -0.3530586 -1.7019594 0.24354848 -1.1046158
000020 07 19 9c 3f ba b0 20 3c a0 51 99 bd cc da 2a 3e
       1.2195138 0.00980776 -0.07486272 0.16685027
000030 81 09 c6 bf 3d 3b 9f 3f 45 38 54 3f b7 fb 07 3e
       -1.547165 1.2439953 0.8289836 0.13279615
000040 d4 c8 94 bf 8e de ab be db 2b 4b be a2 63 8d 3f
       -1.1623788 -0.33568233 -0.19840948 1.104603
000050 01 09 9d 3f b3 e1 f8 be 4f fb 6c 3f 56 27 26 bf
       1.2268373 -0.48609695 0.92570966 -0.6490377
000060 db 59 ba 3e 3b 98 12 3f ce 50 d7 3f 6a 9e 79 bf
       0.3639668 0.57263535 1.6821535 -0.97507346
000070 87 1f 36 bf 8c 27 94 3f 54 a4 ec bd e2 2a 8f be
       -0.71141857 1.1574569 -0.115547806 -0.27962404
000080 85 23 04 be bd 51 65 3f 5b 3e 1d 3e 47 d9 ae 3e
       -0.12904175 0.8957785 0.15355818 0.34150144
000090 07 02 b6 3f 52 30 d8 be ee 79 d7 3f 72 62 0a bf
       1.4219369 -0.42224365 1.6834085 -0.54056466
0000a0 c5 22 e8 be c8 9c 64 3f 21 a4 a5 bd 1e ae db 3f
       -0.45339027 0.8930173 -0.08087946 1.7162511
0000b0 ef b8 26 3f c0 cb 0f 3f 05 03 c9 3e bd 46 84 be
       0.65125936 0.5617027 0.39260116 -0.2583522
0000c0 70 1c 00 bf 09 05 e7 be e2 ef 2e bf fc d1 30 bf
       -0.5004339 -0.4512103 -0.6833478 -0.6907041
0000d0 e6 a7 ac 3f a5 18 9f be 1a a7 07 bf 31 51 f3 3f
       1.3488739 -0.3107349 -0.5298935 1.9009153
0000e0 77 20 04 3f 6d 9d 18 3f dd ca c1 3f 00 5d 24 be
       0.5161204 0.5961521 1.5140034 -0.16051102
0000f0 d3 65 06 bc e4 c2 a1 3f 07 bb 96 bf 25 9b 4a be
       -0.008202988 1.2637601 -1.1775826 -0.19785745
000100 d9 f3 cd 3e 9b fb 96 bf 63 f9 58 bf 2f f6 ad 3e
       0.40225103 -1.1795534 -0.84755534 0.33976886
000110 f5 7f 33 bf 68 8c b9 bd d5 d0 f9 bf 87 8e 07 bf
       -0.7011712 -0.090599835 -1.9516855 -0.52951854
000120 45 41 9f 3e 78 6c b7 be ea d2 15 bf e8 ad 0d 3f
       0.31104484 -0.35824943 -0.58524954 0.55343485
000130 42 88 71 3d 0d 95 5a be e2 4f c1 bf 9b 57 18 3f
       0.058967836 -0.21345921 -1.5102503 0.59508675
000140 0d 30 ae bf ec 5c d5 be 60 66 0c 3e 92 ff 21 3e
       -1.3608414 -0.41672456 0.13710928 0.15820149
000150 4a 13 43 bb 1d 07 09 3f 1e 37 0d 3f ec ee 50 3f
       -0.0029766136 0.5352648 0.5516223 0.81614566
000160 04 43 2e bf 56 fb 83 3f e0 8a 96 3d ea ad 13 bf
       -0.6807101 1.0311077 0.07350707 -0.57687247
000170 13 e9 bf bd be 40 51 3f 0b 7d aa bf 59 d3 94 3f
       -0.09370627 0.81739414 -1.331941 1.1626998
000180 9f e1 bd 3e 54 dd 22 40 44 ff 00 3e c4 fc ff be
       0.37086198 2.5447588 0.12597376 -0.49997532
000190 7e 37 5c 3f 6a e7 35 3f 1f 28 32 3f e5 5e bc 3e
       0.86022174 0.71056235 0.6959247 0.3679115
0001a0 5d d3 fc bd ad 71 11 bf 6f 53 6c c0 ae b9 b5 3e
       -0.12345002 -0.5681408 -3.6925924 0.35493225
0001b0 e2 02 c0 3d cf c8 3b 3e ab 1d 6f 3f 0b 79 02 bd
       0.0937555 0.18338321 0.93404645 -0.031853717
0001c0 22 54 77 bf b9 2c 68 3e d5 71 ab 3d e2 c2 1c bf
       -0.9661275 0.2267331 0.08371321 -0.6123487
0001d0 19 0e 7f 3f 03 a5 10 3f 5c f1 72 bf 33 bb 41 bf
       0.99630886 0.5650179 -0.94899535 -0.7567627
0001e0 36 ac a2 be ac 2d 39 3e 75 b8 ff be c8 e8 f1 be
       -0.31772012 0.18083829 -0.49945417 -0.4724791
0001f0 cf 63 2c 3f ae 71 0c bf 47 61 05 3f 1d 94 83 bd
       0.67339796 -0.5486096 0.5210156 -0.06424735
000200 21 29 10 3c 82 4d 99 3d c9 75 04 bc 98 7b 13 3f
       0.008798868 0.074854866 -0.008084723 0.57610464
000210 45 4e eb 3d 9a b2 01 3d 1e 8b 9c bf 8d f8 97 bf
       0.11489538 0.03166447 -1.2229955 -1.1872727
000220 26 bd 10 3d 81 28 2c 3f 69 85 08 bf 7c 89 5f 3e
       0.035336636 0.67249304 -0.5332857 0.2182979
000230 9c 90 5b 3f 79 c9 81 3f 79 fd 60 bf 9f 87 76 bb
       0.8576753 1.013961 -0.8788677 -0.0037617458
000240 b5 9f 1e 40 07 0c 1b 3f c8 d5 13 3f 65 ec a3 bf
       2.4784977 0.6056523 0.5774808 -1.2806517
000250 11 8e b8 3f c7 18 2f c0 86 bd cb be 40 a6 af 3d
       1.4418355 -2.7358873 -0.39793032 0.085766315
000260 ed fa f8 bf 4b c5 cf bd 6a 48 1e 3f 2a ae 09 bf
       -1.9451576 -0.101450525 0.61829245 -0.5378138
000270 0e d4 de bd 11 41 9b be 74 d4 2d bf 8b 71 11 bf
       -0.1088029 -0.3032308 -0.679023 -0.5681388
000280 af 27 04 bd 45 be dc be 79 b7 ba be 6d ed 01 40
       -0.032264408 -0.43113914 -0.36468104 2.0301163
000290 5f db c9 bd 52 81 42 bf d7 e7 ec bf fb e2 a0 3f
       -0.09856295 -0.7597858 -1.8508252 1.2569269
0002a0 6a e5 03 c0 01 14 95 3f 8d bc 15 be 04 1b 0c be
       -2.0608773 1.164673 -0.14622708 -0.1368218
0002b0 a4 e9 32 bf 2c c2 17 be 42 f4 19 bf e0 05 87 3e
       -0.6988776 -0.14820164 -0.6013833 0.2637167
0002c0 bf 02 38 bf e6 de a4 bf 4e 27 87 3f 82 a8 14 3e
       -0.7187919 -1.2880523 1.055887 0.14517406
0002d0 c0 41 02 3f 0e c8 d7 bf 24 75 86 bf 61 ab 8b bf
       0.50881577 -1.6857927 -1.0504498 -1.0911676
0002e0 fd ac 14 3f 6c 87 bc 3d c0 05 ff 3e a3 98 a1 bf
       0.5807646 0.09205517 0.49809074 -1.2624706
0002f0 f0 80 8f 3e 6a e9 83 3d 3f a9 82 bf ad 67 b6 3e
       0.2802806 0.064410046 -1.02079 0.35625973
000300 b5 c6 5a be e2 30 91 bf 48 cf 73 3d 8e 5d b4 3e
       -0.21364863 -1.1343043 0.05952385 0.35227627
000310 c8 33 3b 3f e1 d5 ab be de 98 4f 3e 9a d9 ea 3c
       0.73125887 -0.33561614 0.20273158 0.028668214
000320 ae 09 c9 bd 29 1d fa 3f 54 7a 1a bf c1 b3 b5 bd
       -0.098162994 1.9540149 -0.6034291 -0.08872176
000330 39 32 cd 3e b0 5b 55 be 28 f7 20 bf 35 4c d2 3e
       0.4007738 -0.20835757 -0.6287713 0.41073766
000340 a6 14 0b 3f 93 9d 8b be 61 04 b7 3e 9b fc 6e be
       0.5432838 -0.27268657 0.35745528 -0.23338549
000350 ba 4f 44 3e ea c3 0e bf 8f bd 4e 3f d6 38 e6 3e
       0.19171038 -0.5576769 0.80757993 0.44965237
000360 72 83 b4 be 2c 00 bd 3f a2 51 d7 3e e0 86 01 bf
       -0.35256535 1.4765677 0.42054468 -0.5059643
000370 c2 97 2b 3f 44 47 00 3f f0 78 a4 3f e0 0d 2f bf
       0.6702844 0.5010874 1.2849407 -0.68380547
000380 a1 19 31 bf d6 1b 4f bf b1 58 1b be 7d 28 95 bf
       -0.6917973 -0.8090185 -0.15170552 -1.1652981
000390 20 56 62 3f 60 d6 8d 3f ef 61 10 be ac 83 80 3e
       0.88412666 1.1081047 -0.14099859 0.25100458
0003a0 bb 12 16 bf ce 54 d2 3f 37 ee a8 bf 3b 62 ac 3f
       -0.5862233 1.643213 -1.3197697 1.3467478
0003b0 26 9f a5 3d 0f b5 8a 3f 7c 47 3c bf c1 d6 8d be
       0.08086996 1.0836505 -0.73546576 -0.27702907
0003c0 c1 2d c9 be ad da b8 bf 4c 3c 15 bf cc 27 da bc
       -0.3929272 -1.4441735 -0.5829513 -0.026630305
0003d0 7d 1e 8d 3f 17 29 36 bf c8 99 69 3e 04 44 61 3e
       1.1024929 -0.7115645 0.22812569 0.21998602
0003e0 e6 7a 1d 3f 11 7e 97 be 5a fc c7 3f 7a 00 c3 bf
       0.61515653 -0.2958837 1.5623887 -1.523452
0003f0 e7 ca 03 bf 1a 04 99 bf 28 93 7e 3f 22 c6 47 3f
       -0.5148148 -1.1954377 0.9944329 0.780367

net.4.bias f4 [21]
000000 01 c5 4e 3e 45 5b e9 3e c5 86 ee 3d 98 bf 25 3d
       0.20192339 0.45577446 0.11646799 0.04046592
000010 26 7b 05 3f 9e 5d f2 bc a0 be 15 3f ba dc 4b bd
       0.52141035 -0.029585656 0.58493996 -0.049771048
000020 49 ff ef bd 9c 48 36 be 5f c7 33 bf df 75 4e 3e
       -0.11718614 -0.17801136 -0.7022609 0.20162152
000030 3b 2b f0 bd ab 1d 1c 3f e1 8e 17 bf ec 3f 71 be
       -0.117269956 0.6098277 -0.5920239 -0.2355954
000040 7d c4 80 3e 71 8d 22 3f f5 db 6d be 1f 91 4d bb
       0.2514991 0.6349707 -0.23228438 -0.0031367016
000050 43 64 1b 3f
       0.6069986
