Q3/ddpg_actor_step3100000.pth (torch, 357342 bytes, 6 tensors)

net.0.weight f4 [256, 67]
0.6092197 -0.031510264 0.1891276 2.0744145 -2.271898 0.3731761 -1.2576423 1.0126863
0.37484106 -0.40123916 1.0590694 -0.65248203 -2.1568754 1.3478934 -1.4743133 -3.6351502
-0.67042655 1.2841635 -0.1673782 0.6019076 -0.6881135 0.78432673 -0.81926155 -0.4525895
0.016126517 1.0601654 0.49111488 0.30165023 0.42534015 0.121781714 -1.0783203 -0.03585972
1.3979609 0.30184713 -0.51187587 -1.6903014 0.7511049 -1.2765332 2.6638036 0.2628087
0.63380986 -0.61268747 0.06613489 0.05231207 -0.09092912 -0.16780744 -0.17374992 0.0119152665
0.25207826 -0.117743246 -0.08458277 0.08351897 0.1054011 -0.07513362 -0.026420161 -0.07671173
0.15315787 -0.079778954 -0.08318937 0.04139414 -0.057108305 -0.10401531 -0.16488752 -0.047962684
-0.06914103 -0.025549756 -0.03658171 0.49044806 -0.10779745 -0.6387432 1.4132662 -0.62262815
-0.5704981 -0.70205104 -3.1506941 -1.2502474 0.68347424 -0.79065615 0.9089075 -1.2028322
-2.0528333 -1.5513681 -2.248718 -0.55113524 -0.71489626 -2.1228957 0.11584829 0.09478921
1.3434803 2.3539627 -0.6287802 0.38051838 0.9485747 -1.6346116 0.19587229 -1.1406795
0.07394987 -0.18486671 -0.81186986 0.13497841 -0.39395782 -1.530729 0.268787 0.47652692
3.690584 -2.5784726 -1.5050929 0.5781627 0.59051454 -0.9924717 -0.117495395 -0.28843448
-0.06310537 -0.18309657 -0.13976014 -0.027167158 -0.23168667 0.10992184 0.17936587 -0.09294905
0.019197306 -0.073488206 0.049519762 0.03506007 -0.03799546 0.031647585 -0.041021965 0.0014568345
-0.034801107 0.09764837 0.08480201 -0.003858503 -0.13627017 0.06362055 0.43476954 -0.9398872
-0.68876344 0.084346436 0.064196855 -0.80577445 0.10317606 1.9163749 -0.6368147 -0.111885436
0.43310392 -1.375703 -0.5498148 -0.49425116 1.7250761 -0.9827957 -1.2527791 -0.7168422
1.1577115 1.4492471 -0.36160558 -0.57430285 0.6394697 1.699992 0.12241855 -1.52471
1.2402116 1.427666 -0.30292606 0.5728637 -0.49147382 0.6987447 -0.5126706 -0.5594595
0.019464105 -0.57144684 -0.61103106 4.420294 -1.6452863 -1.1518165 0.58968973 -0.6244867
-0.82538694 0.80004555 0.06575857 -0.036684413 -0.04160094 -0.118194856 0.1769118 -0.09477331
-0.07462953 -0.055016495 -0.113445476 -0.025282947 0.03000678 -0.16425352 0.0213972 0.07176212
0.17139015 0.030948386 0.078461856 0.14638495 -0.063618794 -0.11105558 0.14790867 -0.03206465
-0.054560468 0.55664396 -0.55567956 0.7086669 0.1944752 -0.5926623 -0.96720904 -2.7460063
0.6503159 0.17477123 -0.89479584 -0.16673921 0.53372175 -2.09011 1.9201201 0.07847645
-2.1257958 -1.9083201 2.3370678 -1.1854128 2.0385714 1.4418172 3.7572951 -0.2294032
-0.69310945 0.69616246 1.1814129 0.025329601 0.49749446 -0.362427 -0.46766537 -0.28815082
-0.42520705 -0.288184 0.2335952 0.25766966 -0.6167705 0.5569433 0.060646255 1.1605917
-2.890038 -0.59026057 -0.12927014 0.7511845 0.117462024 -0.35945746 -0.3034541 -0.25009924
0.020977912 0.16252209 0.07805907 0.048702948 0.24428664 -0.13797624 0.026396332 -0.013933471
00000000: d2f5 1b3f e810 01bd aaaa 413e 35c3 0440
00000010: c766 11c0 f010 bf3e 6cfa a0bf b49f 813f
00000020: 2beb bf3e 386f cdbe 968f 873f 1009 27bf
00000030: 3f0a 0ac0 c587 ac3f 4cb6 bcbf 4da6 68c0
00000040: 13a1 2bbf 785f a43f 3165 2bbe 9e16 1a3f
00000050: 3528 30bf a3c9 483f 20bb 51bf d0b9 e7be
00000060: c21b 843c 80b3 873f 6973 fb3e e671 9a3e
00000070: 2fc6 d93e b168 f93d 6606 8abf a4e1 12bd
00000080: 62f0 b23f b58b 9a3e 4c0a 03bf cc5b d8bf
00000090: 6948 403f 7165 a3bf c27b 2a40 dd8e 863e
000000a0: 5d41 223f 16d9 1cbf bb71 873d 2e45 563d
000000b0: 0c39 babd b7d5 2bbe 80eb 31be 4038 433c
000000c0: 6710 813e 5f23 f1bd bb39 adbd fe0b ab3d
000000d0: 88dc d73d a8df 99bd 186f d8bc 0a1b 9dbd
000000e0: 6bd5 1c3e 2663 a3bd 305f aabd e78c 293d
000000f0: 66ea 69bd fb05 d5bd 46d8 28be 8574 44bd
00000100: d099 8dbd b94d d1bc b4d6 15bd 021c fb3e
00000110: e9c4 dcbd ad84 23bf e8e5 b43f 8f64 1fbf
00000120: 2a0c 12bf 9eb9 33bf f9a4 49c0 1b08 a0bf
00000130: 2bf8 2e3f 7168 4abf 29ae 683f 68f6 99bf
00000140: 9f61 03c0 3b93 c6bf ffea 0fc0 3317 0dbf
00000150: 7103 37bf 86dd 07c0 de41 ed3d d820 c23d
00000160: 2af7 ab3f 53a7 1640 bdf7 20bf 4ed3 c23e
00000170: cbd5 723f f43a d1bf bf92 483e c901 92bf
00000180: 0873 973d b34d 3dbe b4d6 4fbf c837 0a3e
00000190: d7b4 c9be eeee c3bf 739e 893e 56fb f33e
000001a0: 8732 6c40 b205 25c0 e2a6 c0bf 7902 143f
000001b0: f62b 173f a012 7ebf 6da1 f0bd afad 93be
000001c0: 633d 81bd ab7d 3bbe 481d 0fbe a98d debc
000001d0: 453f 6dbe b41e e13d b0ab 373e 125c bebd
000001e0: ab43 9d3c fc80 96bd 3cd5 4a3d 269b 0f3d
000001f0: 21a1 1bbd e6a0 013d a606 28bd 41f3 be3a
00000200: 9b8b 0ebd defb c73d adac ad3d f0de 7cbb
00000210: 688a 0bbe 7e4b 823d 1d9a de3e 739c 70bf
00000220: cd52 30bf d3bd ac3d a479 833d 3c47 4ebf
00000230: f84d d33d c64b f53f 4a06 23bf 3124 e5bd
00000240: ccbf dd3e 0917 b0bf aac0 0cbf 7d0e fdbe
00000250: 4bcf dc3f 8098 7bbf 115b a0bf f882 37bf
00000260: e42f 943f ee80 b93f 5e24 b9be 8305 13bf
00000270: 49b4 233f 5699 d93f 94b6 fa3d b329 c3bf
00000280: 41bf 9e3f c2bd b63f 2019 9bbe 32a7 123f
00000290: 75a2 fbbe efe0 323f 613e 03bf bd38 0fbf
000002a0: 3073 9f3c 574a 12bf 886c 1cbf 0c73 8d40
000002b0: be98 d2bf b96e 93bf e8f5 163f 5cde 1fbf
000002c0: 8f4c 53bf c9cf 4c3f 6eac 863d 6542 16bd
000002d0: bf65 2abd 2510 f2bd 5e28 353e 8218 c2bd
000002e0: 5ed7 98bd fa58 61bd 1a56 e8bd 2f1e cfbc
000002f0: c7d0 f53c 1332 28be 2e49 af3c 05f8 923d
00000300: e680 2f3e 7887 fd3c 9cb0 a03d f0e5 153e
00000310: 924a 82bd 1c71 e3bd 5f75 173e 3956 03bd
00000320: cc7a 5fbd 3880 0e3f 0441 0ebf 326b 353f
00000330: 8224 473e b7b8 17bf 039b 77bf 91be 2fc0
00000340: 1a7b 263f 3bf7 323e 5711 65bf afbd 2abe
00000350: fda1 083f 5dc4 05c0 7fc6 f53f 43b8 a03d
00000360: 0a0d 08c0 d543 f4bf 8592 1540 9bbb 97bf
00000370: f477 0240 778d b83f 8677 7040 ace8 6abe
00000380: 9f6f 31bf b437 323f 8a38 973f 0680 cf3c
00000390: 98b7 fe3e 0890 b9be d671 efbe 8188 93be
000003a0: bdb4 d9be da8c 93be 9533 6f3e 47ed 833e
000003b0: ace4 1dbf d693 0e3f 3568 783d 458e 943f
000003c0: 62f6 38c0 511b 17bf 645f 04be a14d 403f
000003d0: ee8f f03d cf0a b8be 565e 9bbe 020d 80be
000003e0: dfd9 ab3c 316c 263e 6fdd 9f3d be7c 473d
000003f0: 4726 7a3e a549 0dbe 1f3d d83c 3749 64bc

net.0.bias f4 [256]
-0.62008137 0.48578444 -0.58984876 0.51284736 0.7790812 -0.6938692 -0.17406909 0.35940918
-1.0729471 -0.29715455 0.60104203 0.33488885 -0.083192535 -0.68517625 -0.86023146 -0.18481909
0.10796053 -0.44908148 0.60398716 -0.46773103 -0.8404202 0.37633282 -1.1754059 0.10789482
-0.4624267 -0.7442855 0.3365235 -0.23482798 -0.6889631 -0.13963127 0.29077813 0.43608332
0.20387068 0.8670932 -0.35648263 0.507012 -0.14347833 0.17700318 0.51187915 -0.07058734
0.066001594 -0.13837765 0.011562432 0.03461308 0.5192259 -0.017061213 0.007001622 -0.014412231
-0.15349084 -0.48215383 -0.13872688 -0.16340414 0.05521553 -0.037231524 0.10688262 -0.4577999
-0.20690998 0.8076653 -1.405032 0.015649557 -1.1274934 -0.12214158 -0.1900547 0.07965962
0.29946953 -0.48317078 0.21197042 -0.23587582 -0.54462045 -0.5582446 -0.29339984 0.080653764
0.34620386 -0.59110534 -0.58484244 0.041689847 0.18508695 -0.3208014 0.45402744 -0.123644896
0.072843 -0.84342843 -0.60916346 0.018162604 -0.22267999 -0.46168995 0.12888317 -0.28591588
0.26163775 0.18754785 0.3006369 -0.11774888 -1.0220407 -0.65689343 -0.18648419 0.1855405
-0.9330304 -0.67294186 -0.5378626 -0.12612553 -0.47954452 0.07845815 0.29395983 -0.5314094
0.07982486 -0.24932738 -0.5686783 0.3498522 -0.4181265 -0.3443008 -0.4133667 -0.08830947
-0.69130164 0.39843437 -0.78341675 -0.7843752 -0.47143626 0.4621943 -0.60901415 -0.4249367
-0.0053254524 -0.15509897 0.046674334 -0.9091974 -0.1846902 0.2923956 -1.0579673 -0.5118135
0.6984602 0.2792941 -0.16584437 -0.02991697 -0.09455849 0.07401419 0.18240312 -0.00072606985
-0.22291955 -0.540344 -0.07883241 0.04817084 -1.1695156 -0.041662823 -0.5133468 -0.36295855
0.50187296 -0.20944591 -0.3250017 -0.6616676 -0.8645541 -0.17914818 0.8660699 0.5848272
-0.22192283 -0.5908548 0.1086961 -0.041801896 0.44748878 0.15037867 -0.5351119 0.012324922
-0.8626008 -0.50101906 -0.110168695 -0.13013017 -0.9614516 -0.09222872 0.32158348 -0.7582144
-0.048005585 -0.04192965 0.012336476 0.23484837 0.22978376 0.39771456 -0.9404322 -1.3037053
-0.6746724 -0.86529034 -0.41847703 -0.13356897 -0.19647613 0.71455663 0.036796764 -0.019940777
-0.83760345 -0.17412682 -0.13960119 -0.42027238 -0.4950484 -0.38924348 -0.13787195 0.06621805
-0.48484698 0.43984708 -1.0736655 -0.59518 -0.8436814 -0.5985231 -0.04404671 -0.49284905
-0.9065608 -1.1916307 -0.7476022 -0.14253752 0.5937633 -0.5490484 0.06816255 -0.8763278
0.22986892 -0.22804043 -0.6576352 -0.43884206 -0.25799578 -0.43513957 -0.003218943 -0.28583783
-0.8891673 -0.54203486 -0.2946255 0.52415377 -0.15995876 0.0010649653 -0.5595567 1.1987906
1.2930902 0.24686034 -0.81154275 -0.12238752 -1.0799307 0.028721694 -0.441188 0.8377684
-0.07561732 -1.6926659 -0.096312076 -1.11318 -0.45508525 0.42309475 0.10045739 -0.89757395
-0.6717594 -0.76887757 -1.4419401 -0.8683477 -0.60781986 -0.24936934 -0.8966938 0.19134685
1.1284714 -0.36970055 0.65571964 0.84116566 -0.75645274 -0.42517063 0.47109753 -0.17734827
00000000: a7bd 1ebf bdb8 f83e 5400 17bf f749 033f
00000010: de71 473f 69a1 31bf 2b3f 32be 7b04 b83e
00000020: 5556 89bf a424 98be e4dd 193f 8d76 ab3e
00000030: d960 aabd b667 2fbf 2138 5cbf 3741 3dbe
00000040: 691a dd3d 02ee e5be e79e 1a3f 717a efbe
00000050: c725 57bf b2ae c03e b373 96bf f6f7 dc3d
00000060: 31c3 ecbe 7f89 3ebf cf4c ac3e bf76 70be
00000070: e35f 30bf 80fb 0ebe dfe0 943e 5046 df3e
00000080: 7ac3 503e d2f9 5d3f e484 b6be 8acb 013f
00000090: fceb 12be 5240 353e 830a 033f 1890 90bd
000000a0: d82b 873d dfb2 0dbe 5b70 3d3c 72c6 0d3d
000000b0: fdeb 043f f5c3 8bbc dd6d e53b 4721 6cbc
000000c0: b42c 1dbe dedc f6be 6b0e 0ebe 6a53 27be
000000d0: ae29 623d 1580 18bd 46e5 da3d c064 eabe
000000e0: 36e0 53be 27c3 4e3f 17d8 b3bf 8033 803c
000000f0: b451 90bf 5d25 fabd b39d 42be 9524 a33d
00000100: 1254 993e 2962 f7be c60e 593e 6e89 71be
00000110: 3f6c 0bbf 1ee9 0ebf 8138 96be cd2d a53d
00000120: a241 b13e ae52 17bf 3cb8 15bf f9c2 2a3d
00000130: 6f87 3d3e 1540 a4be 4976 e83e 8939 fdbd
00000140: b62e 953d edea 57bf 23f2 1bbf bec9 943c
00000150: 3906 64be a062 ecbe f3f9 033e 9163 92be
00000160: 62f5 853e 8b0c 403e 14ed 993e 5326 f1bd
00000170: 3bd2 82bf 2b2a 28bf b6f5 3ebe 54fe 3d3e
00000180: 15db 6ebf eb45 2cbf 5db1 09bf 0d27 01be
00000190: dc86 f5be abae a03d e781 963e 720a 08bf
000001a0: 377b a33d ad4f 7fbe e794 11bf d41f b33e
000001b0: ad14 d6be 3248 b0be cda4 d3be 98db b4bd
000001c0: 25f9 30bf 97ff cb3e 008e 48bf d0cc 48bf
000001d0: 1860 f1be bba4 ec3e 5ae8 1bbf 4e91 d9be
000001e0: 2281 aebb 44d2 1ebe 962d 3f3d 29c1 68bf
000001f0: 6e1f 3dbe e0b4 953e 796b 87bf 3606 03bf
00000200: 4ace 323f a3ff 8e3e 1bd3 29be 6f14 f5bc
00000210: e2a7 c1bd c094 973d e2c7 3a3e b955 3eba
00000220: 0645 64be fc53 0abf e372 a1bd c94e 453d
00000230: b0b2 95bf a3a6 2abd b26a 03bf b4d5 b9be
00000240: bf7a 003f fd78 56be 9f66 a6be 0c63 29bf
00000250: 6b53 5dbf 9f72 37be c2b6 5d3f 3cb7 153f
00000260: bd3f 63be 4342 17bf 109c de3d 7738 2bbd
00000270: 401d e53e defc 193e 18fd 08bf 78ee 493c
00000280: 68d3 5cbf c942 00bf 20a0 e1bd d840 05be
00000290: b121 76bf 69e2 bcbd 97a6 a43e 571a 42bf
000002a0: 81a1 44bd 6dbe 2bbd ee1e 4a3c 177c 703e
000002b0: 6f4c 6b3e 3ea1 cb3e 2ac0 70bf d1df a6bf
000002c0: 55b7 2cbf ab83 5dbf 9f42 d6be 4ec6 08be
000002d0: 0a31 49be 2fed 363f 34b8 163d d75a a3bc
000002e0: 2e6d 56bf 4d4e 32be 9df3 0ebe f12d d7be
000002f0: fc76 fdbe ec4a c7be 4e2e 0dbe 549d 873d
00000300: dd3d f8be a333 e13e df6d 89bf b75d 18bf
00000310: 81fb 57bf cf38 19bf 536a 34bd b656 fcbe
00000320: 5e14 68bf 5b87 98bf dc62 3fbf 5bf5 11be
00000330: df00 183f 708e 0cbf cf98 8b3d 0557 60bf
00000340: c262 6b3e 6e83 69be c85a 28bf e8af e0be
00000350: 0618 84be 9dca debe e7f4 52bb 5659 92be
00000360: 78a0 63bf ccc2 0abf 27d9 96be f12e 063f
00000370: 3bcc 23be 4e96 8b3a 1c3f 0fbf f871 993f
00000380: fb83 a53f f5c8 7c3e 44c1 4fbf 4fa6 fabd
00000390: 2b3b 8abf c249 eb3c 65e3 e1be fd77 563f
000003a0: 41dd 9abd 47a9 d8bf 443f c5bd af7c 8ebf
000003b0: ef00 e9be e09f d83e 9bbc cd3d 68c7 65bf
000003c0: 6df8 2bbf 29d5 44bf 7e91 b8bf 094c 5ebf
000003d0: 159a 1bbf ad5a 7fbe ba8d 65bf 6ef0 433e
000003e0: c071 903f 6449 bdbe 3edd 273f a256 573f
000003f0: e3a6 41bf f7af d9be b233 f13e c99a 35be

net.2.weight f4 [256, 256]
0.20397158 0.48805353 0.5110419 0.12514022 0.4203189 0.26205555 -0.0046361466 -0.1515746
-0.3241499 0.021939155 0.3972429 -0.4924616 -0.47655922 0.68110234 -0.6396322 0.22731575
-0.34169745 0.4891497 0.36882368 0.023640957 0.43347713 1.3152127 -0.9488624 0.111459985
-0.7629614 -0.1906296 0.4955894 0.20704347 0.40073687 -0.10083853 0.6143742 -0.22934297
0.045189887 0.06003441 0.30559468 -0.33993852 0.3014536 0.46406883 0.1345389 0.7786564
1.0149105 -0.69021285 0.32132012 -0.31154385 0.79798764 -0.14721121 0.5917248 0.1853852
0.27562264 0.11893338 -0.20957032 0.8009024 0.41873345 0.07997264 -0.059006818 0.6832343
0.42884865 0.18575852 0.032189038 0.24986893 -1.2210352 -0.8253872 0.21207885 0.80692804
0.085952535 0.5212757 0.43455577 0.22129408 -0.338039 -0.29401183 -0.96792924 0.939302
0.3524042 -1.2263407 -0.29679573 0.007250906 0.38955134 -0.1255374 -0.254622 -0.38300765
-0.16744807 0.43613723 0.014622553 0.4267882 0.31819773 0.032849923 -0.27892 -0.074579835
-0.102185346 -0.115579285 -0.10346808 -0.22437757 0.032367513 0.25523707 0.39874297 0.38852176
-0.07105501 0.104872435 0.68430436 -1.652703 0.15693106 0.7895181 -0.3476142 0.096229605
0.16752155 0.33935508 0.30834994 0.3675987 -0.74220526 0.10192946 0.41354182 -0.14342502
0.64192235 0.18678132 -0.10267984 -0.13462183 0.5885282 -1.061038 -0.07951806 0.47474286
1.0996587 0.27631447 -0.84262013 -0.29834005 0.031048661 -0.046940226 -0.13415547 0.08237766
-0.41803306 0.19404198 0.3294709 0.1270556 0.18042105 -0.13363338 -0.43308517 0.08517406
0.32752723 0.36853543 0.16348116 0.29608306 -1.1565416 0.7042006 0.16166067 0.34924716
-0.37205622 -0.25928217 0.16465569 -0.059860565 -0.97095454 0.104550324 0.055638082 0.23371588
-0.049135644 -0.28596106 -0.51083255 0.32769352 -0.46947125 1.1145092 0.8592213 0.521408
-0.07891399 -0.3086671 -0.51192856 -0.78160864 -0.6589589 -0.39759913 0.42977512 -0.6622391
0.01477233 0.24139377 -0.32924056 1.0180774 0.12983531 0.7261367 -0.65908694 -0.20162687
-0.6011167 -0.5201226 0.13548434 -0.064768404 0.14805044 0.2884382 0.5772966 0.08617128
-0.4567851 -0.20126975 -0.16618237 -0.21368794 0.0007720542 0.16459379 -0.4537353 -0.38981625
-0.08716995 -0.67681104 -0.61492157 -0.6089124 -0.1556024 -0.041521322 0.49871764 -0.17961939
-0.76400405 -0.1255551 -0.78746104 0.31763136 0.28211856 0.0006227365 -0.0068185045 0.038519535
0.72615004 0.44249675 -0.45070222 0.28572798 -0.87885815 0.26145154 0.037362885 -0.17935391
-0.6861509 0.3010975 0.5054138 -0.32994097 0.056483503 0.00840481 0.2783408 -0.34305334
0.5455507 0.04142592 -0.759924 0.77174103 -0.4095736 0.9858671 0.48697236 0.2243654
0.2502235 -0.24272762 -0.68141747 -0.48443094 0.63915575 0.15589274 0.40313402 0.22354075
0.018285535 -0.49708834 0.021255296 -0.085007645 0.9358278 -0.022346359 0.7003936 0.47824487
0.2548266 -0.96724176 0.533513 -0.5616818 0.33880886 -0.1343968 0.16620013 -0.25527078
00000000: eddd 503e 27e2 f93e a4d3 023f c224 003e
00000010: 0a34 d73e 252c 863e d1ea 97bb 5f36 1bbe
00000020: faf6 a5be beb9 b33c 6c63 cb3e ed23 fcbe
00000030: 92ff f3be b95c 2e3f f0be 23bf 76c5 683e
00000040: f8f2 aebe d471 fa3e 75d6 bc3e aeaa c13c
00000050: b7f0 dd3e e458 a83f a5e8 72bf 2245 e43d
00000060: 7051 43bf 6834 43be e5bd fd3e 3403 543e
00000070: 622d cd3e 6e84 cebd a147 1d3f e2d8 6abe
00000080: 0819 393d a4e6 753d e876 9c3e 6c0c aebe
00000090: 2058 9a3e 6e9a ed3e 91c4 093e 0756 473f
000000a0: 96e8 813f cab1 30bf 1284 a43e ad82 9fbe
000000b0: eb48 4c3f 89be 16be 477b 173f 9ed5 3d3e
000000c0: 691e 8d3e 5893 f33d 9a99 56be f107 4d3f
000000d0: 3b64 d63e b2c8 a33d 22b1 71bd 71e8 2e3f
000000e0: 0d92 db3e 7b37 3e3e a7d8 033d a4dd 7f3e
000000f0: e24a 9cbf 934c 53bf 332b 593e d692 4e3f
00000100: e207 b03d 5372 053f 187e de3e ea9a 623e
00000110: 7313 adbe b888 96be 36ca 77bf 1976 703f
00000120: 536e b43e bbf8 9cbf 9cf5 97be 0299 ed3b
00000130: 4673 c73e e08c 00be d15d 82be 9419 c4be
00000140: 8277 2bbe 614d df3e 6f93 6f3c fc83 da3e
00000150: d0ea a23e a48d 063d 9ace 8ebe 50bd 98bd
00000160: 8d46 d1bd d5b4 ecbd 13e7 d3bd 3cc3 65be
00000170: cc93 043d 6fae 823e 0a28 cc3e 53ec c63e
00000180: 4a85 91bd 5cc7 d63d 922e 2f3f c68b d3bf
00000190: 89b2 203e dc1d 4a3f 7dfa b1be 0714 c53d
000001a0: c58a 2b3e f3bf ad3e 0be0 9d3e e635 bc3e
000001b0: 2a01 3ebf 65c0 d03d c1bb d33e 02de 12be
000001c0: 0655 243f 9a43 3f3e cf49 d2bd 4eda 09be
000001d0: c9a9 163f 18d0 87bf 5dda a2bd 7f11 f33e
000001e0: 9ec1 8c3f 1779 8d3e f4b5 57bf 07c0 98be
000001f0: c359 fe3c 6544 40bd 0d60 09be 9eb5 a83d
00000200: 6e08 d6be f1b2 463e 69b0 a83e dd1a 023e
00000210: 4cc0 383e 30d7 08be 57bd ddbe bd6f ae3d
00000220: a6b1 a73e adb0 bc3e 9b67 273e 3398 973e
00000230: 8e09 94bf 7e46 343f 608a 253e 86d0 b23e
00000240: 277e bebe a2c0 84be 809b 283e 5a30 75bd
00000250: 7a90 78bf 7b1e d63d c2e4 633d 3753 6f3e
00000260: 7542 49bd 7d69 92be ecc5 02bf 72c7 a73e
00000270: 895e f0be 3da8 8e3f edf5 5b3f ff7a 053f
00000280: a89d a1bd 9d09 9ebe c00d 03bf 8117 48bf
00000290: 88b1 28bf 1d92 cbbe 7c0b dc3e 8088 29bf
000002a0: a507 723c ee2f 773e 3892 a8be 5c50 823f
000002b0: 8cf3 043e 18e4 393f ecb9 28bf 4677 4ebe
000002c0: c9e2 19bf c126 05bf 68bc 0a3e 4ca5 84bd
000002d0: 899a 173e 2cae 933e b6c9 133f 917a b03d
000002e0: bddf e9be a819 4ebe b62b 2abe 03d1 5abe
000002f0: ae63 4a3a 468b 283e fe4f e8be ff95 c7be
00000300: 2986 b2bd 7d43 2dbf 806b 1dbf afe1 1bbf
00000310: 3c56 1fbe 4312 2abd eb57 ff3e 25ee 37be
00000320: c595 43bf 8491 00be 0c97 49bf 94a0 a23e
00000330: d871 903e 243f 233a c36d dfbb a9c6 1d3d
00000340: f8e4 393f ef8e e23e 71c2 e6be f04a 923e
00000350: d9fc 60bf fadc 853e d309 193d 8da8 37be
00000360: 96a7 2fbf 7429 9a3e cc62 013f 06ee a8be
00000370: 3f5b 673d 54b4 093c af82 8e3e b0a4 afbe
00000380: 36a9 0b3f 3aae 293d 618a 42bf d290 453f
00000390: a2b3 d1be c961 7c3f 7154 f93e 0bc0 653e
000003a0: 4b1d 803e 978d 78be 6071 2ebf 5507 f8be
000003b0: b69f 233f 59a2 1f3e 9567 ce3e dee7 643e
000003c0: 8ccb 953c 5d82 febe 961f ae3c 7d18 aebd
000003d0: 6992 6f3f b60f b7bc ff4c 333f 83dc f43e
000003e0: a278 823e 289d 77bf 4f94 083f 61ca 0fbf
000003f0: 5b78 ad3e 519f 09be 5e30 2a3e dab2 82be

net.2.bias f4 [256]
-0.096956134 0.27887142 -0.19510426 -0.73742974 -0.25569803 0.046448972 -0.006283363 0.059006326
-0.6066013 0.013370727 -0.02979095 -0.38653037 -0.8895342 -0.0674121 -0.23124258 -0.34054196
0.13957931 -0.05579122 -0.9406348 -0.11043688 0.023424784 -0.3638979 0.41670614 -0.25483018
-0.07454388 -0.5970421 -0.14587979 0.30810764 -0.43756288 -0.58095485 0.08057475 0.18774548
-0.45431477 -0.28124785 0.16684805 0.41055703 -0.4910269 -0.33729777 -0.06854453 0.122540504
0.1275072 -0.4175283 0.07007063 0.14553262 -0.216952 -0.09813489 -0.56857705 -0.26006174
-0.10013699 -0.47051772 -0.19905311 0.047364827 -0.012220066 0.34004846 -0.20813644 -0.39643356
-0.016617445 0.09183066 -0.08966434 -0.29158145 0.22081926 -0.5052837 -0.09829308 -0.58047545
-0.013009618 -0.45330825 -0.06390711 0.2845995 -0.02475273 -0.010958578 -0.0362338 0.14017214
-0.36427054 -0.13911515 0.2614334 0.38274232 0.20572713 -0.4956258 0.10302121 0.0055567543
0.10264775 0.2567331 -0.03773767 -0.0469099 -0.06532508 -0.64351493 -0.27361506 -0.067675106
0.21739218 -0.4150399 -0.05141715 -0.333988 -0.029461872 0.0885908 0.3800707 -0.79997903
-0.36892736 -0.012762337 -0.06969891 -0.9013545 -0.01756914 0.03852556 0.10754693 0.060511075
0.009177825 0.050368596 -0.37543818 -0.2666068 -0.16908157 -0.2208913 0.08905013 -0.46068466
-0.28047624 -0.46136445 -0.2235866 -0.16091944 0.31051776 -0.0684491 0.16054378 0.17475732
-0.37084523 -0.051689602 -0.13136445 0.010307777 -0.22555982 -0.014418111 -0.05906622 -0.13780098
-0.019807836 0.10259033 -0.27221847 -0.5655652 -0.16307306 0.13702816 0.03803935 -0.23638897
0.18677187 -0.54660887 0.04820688 -0.4224299 -0.2764205 -0.41712096 -0.4700733 -0.42397553
-0.16514316 -0.28648627 0.1824196 -0.10486782 -0.19398402 0.12891029 -0.13587615 0.04208263
-0.16778897 -0.5556103 -0.33021235 -0.16819862 -0.09841141 -0.43799183 -0.54087174 -0.28871134
-0.16719715 -0.0064568636 -0.36510068 -0.14690694 -0.25968936 -0.7810045 0.3562185 -0.04130756
0.32215866 0.09696007 -0.19970784 0.21720731 0.23698986 -0.45173624 -0.33073664 -0.2686994
0.08471024 -0.274527 -0.45570332 -0.51010555 -0.35971412 -0.5125558 -0.1651364 -0.07785569
-0.22256415 -0.023366831 -0.073497586 0.24311605 -0.15873273 -0.23624776 -0.36183825 -0.15709582
-0.59614307 -0.2037918 -0.07488828 0.045970507 -0.35810462 0.28903753 0.25522876 0.058209177
-0.1986319 -0.47966307 -0.0056615626 -0.08514547 -0.101411544 -0.42357832 0.0037132986 -0.03947198
0.014331455 -0.50443053 -0.4155644 -0.0659017 0.0053013302 -0.3082827 -0.10144658 0.1443205
-0.5020889 -0.051015414 -0.39698774 0.12174123 -0.23284288 -0.26928106 0.48178712 -0.1431967
-0.15286365 0.119863994 -0.63370395 0.07702217 0.1447196 -0.2870992 -0.13227496 0.17822285
-0.82261896 -0.34673518 -0.32749882 0.07545639 -0.08102478 0.11932142 -0.03683415 -0.34526446
-0.55788076 -0.47803053 0.2586961 -0.37773815 -0.076521374 -0.14411172 -0.64824677 0.05803717
-0.30867255 0.314169 0.05326096 0.12125115 -0.19081272 -0.4596515 0.109156124 -0.38707146
00000000: f090 c6bd 3cc8 8e3e 69c9 47be 32c8 3cbf
00000010: daea 82be 4741 3e3d abe4 cdbb 9eb0 713d
00000020: 394a 1bbf e510 5b3c 260c f4bc 4fe7 c5be
00000030: 83b8 63bf 5b0f 8abd dbca 6cbe 845b aebe
00000040: e1ed 0e3e 5685 64bd 71cd 70bf bb2c e2bd
00000050: 55e5 bf3c d350 babe 825a d53e 1a79 82be
00000060: 76aa 98bd c0d7 18bf 8361 15be 49c0 9d3e
00000070: 3e08 e0be 75b9 14bf 6004 a53d 5a40 403e
00000080: f29b e8be b8ff 8fbe 37da 2a3e 8834 d23e
00000090: e167 fbbe 4bb2 acbe 1361 8cbd 84f6 fa3d
000000a0: 3f91 023e 45c6 d5be 3181 8f3d 8106 153e
000000b0: aa28 5ebe f2fa c8bd 448e 11bf d026 85be
000000c0: 9f14 cdbd b3e7 f0be 94d4 4bbe 9f01 423d
000000d0: ac36 48bc d51a ae3e b821 55be 57f9 cabe
000000e0: 4f21 88bc b711 bc3d f0a1 b7bd 2a4a 95be
000000f0: 721e 623e 465a 01bf e24d c9bd 0a9a 14bf
00000100: 4b26 55bc 0518 e8be bbe1 82bd 07b7 913e
00000110: 3dc6 cabc 9c8b 33bc e569 14bd 4989 0f3e
00000120: ab81 babe 3474 0ebe 99da 853e cdf6 c33e
00000130: 22aa 523e aac2 fdbe c9fc d23d 6f15 b63b
00000140: fc38 d23d 8572 833e d192 1abd 9824 40bd
00000150: 28c9 85bd 65bd 24bf 4617 8cbe 3f99 8abd
00000160: 0e9c 5e3e 1c80 d4be ca9a 52bd 7a00 abbe
00000170: 065a f1bc 186f b53d a098 c23e 6dcb 4cbf
00000180: 0ce4 bcbe 1f19 51bc 4dbe 8ebd 2bbf 66bf
00000190: 28ed 8fbc facc 1d3d 9141 dc3d 76da 773d
000001a0: 975e 163c 4d4f 4e3d 6f39 c0be b080 88be
000001b0: b823 2dbe 5431 62be ea5f b63d dcde ebbe
000001c0: 959a 8fbe f637 ecbe e3f3 64be 11c8 24be
000001d0: 2ffc 9e3e 0b2f 8cbd 9765 243e 95f3 323e
000001e0: 6ddf bdbe 7ab8 53bd 6784 06be f3e1 283c
000001f0: 27f9 66be f139 6cbc 6cef 71bd b31b 0dbe
00000200: 0b44 a2bc e11a d23d 3860 8bbe e2c8 10bf
00000210: a0fc 26be 1c51 0c3e 26cf 1b3d f30f 72be
00000220: 2041 3f3e 8fee 0bbf 9474 453d bb48 d8be
00000230: fd86 8dbe e190 d5be 73ad f0be 5213 d9be
00000240: 4a1b 29be 54ae 92be 34cc 3a3e f1c4 d6bd
00000250: bfa3 46be 0f01 043e 1e23 0bbe d65e 2c3d
00000260: dfd0 2bbe 7a3c 0ebf 9811 a9be 423c 2cbe
00000270: ec8b c9bd 7740 e0be 9276 0abf f9d1 93be
00000280: bb35 2bbe 1994 d3bb 7aee babe c66e 16be
00000290: 01f6 84be e9ef 47bf 4562 b63e 1e32 29bd
000002a0: fbf1 a43e 0093 c63d 3680 4cbe 986b 5e3e
000002b0: 78ad 723e f949 e7be 5056 a9be f892 89be
000002c0: 907c ad3d ce8e 8cbe f251 e9be 4796 02bf
000002d0: 732c b8be db36 03bf 8419 29be ce72 9fbd
000002e0: dbe7 63be cc6b bfbc e785 96bd 6af3 783e
000002f0: d58a 22be efea 71be dd42 b9be badd 20be
00000300: d59c 18bf ccae 50be 075f 99bd 924b 3c3d
00000310: 7d59 b7be bafc 933e 58ad 823e bf6c 6e3d
00000320: 2966 4bbe 6696 f5be a184 b9bb c060 aebd
00000330: dbb0 cfbd 42df d8be d05a 733b 5fad 21bd
00000340: 7bce 6a3c 5c22 01bf dbc4 d4be 78f7 86bd
00000350: c8b6 ad3b 3bd7 9dbe 39c3 cfbd c1c8 133e
00000360: e688 00bf 8af5 50bd fa41 cbbe 7753 f93d
00000370: 5d6e 6ebe 35df 89be cdac f63e 28a2 12be
00000380: 4a88 1cbe 417b f53d 6c3a 22bf cdbd 9d3d
00000390: 6031 143e abfe 92be 1673 07be 0d80 363e
000003a0: 2897 52bf 4687 b1be edad a7be e188 9a3d
000003b0: 52f0 a5bd ca5e f43d 68df 16bd 81c6 b0be
000003c0: 46d1 0ebf 6bc0 f4be d173 843e e566 c1be
000003d0: 3db7 9cbd 0692 13be 80f3 25bf 62b8 6d3d
000003e0: 540a 9ebe c2da a03e 2a28 5a3d 8652 f83d
000003f0: 6964 43be 7157 ebbe 3f8d df3d 3b2e c6be

net.4.weight f4 [21, 256]
-0.46467614 -0.30591476 -0.23004837 0.49725294 -0.5790631 -0.7461553 -0.023077086 -1.0363292
-0.32109225 0.056989785 0.11906948 -0.064228036 -0.79534864 0.5127775 0.6817279 -0.08186994
-0.9050471 -0.12565638 0.8315978 0.034927867 0.17079116 -0.48609695 -0.13217553 -0.6719062
0.45476854 0.20083024 0.26388386 -0.7682007 -0.5854435 -1.0614635 -0.115547806 0.077095516
-0.3166572 -0.38658217 0.7159414 -0.19827239 1.1193217 -0.16687614 0.6067451 0.20825098
-0.084203325 0.24347289 -0.25251657 -0.0202879 -0.14130174 1.0026047 0.5108223 -0.53755224
-0.09160984 -0.63893884 0.2023581 -0.15392405 0.5319682 0.94784874 -0.43294373 1.1294473
0.36795992 0.440395 0.28368622 0.21134077 -0.32177806 0.13068277 -0.5726764 0.28566667
-0.01081486 0.09302698 -0.3833168 0.8525918 0.11543245 0.038703103 -1.2622187 -0.13360566
0.021199372 -0.20593454 -0.44694942 0.15665993 -0.65677196 -0.0034924208 -0.47272497 0.19949141
-0.48291618 0.14911239 -0.35965413 0.1394464 -0.0029766136 0.7263277 -0.3584825 0.55988264
-0.08063305 0.6128621 -0.46027318 0.4422993 -0.08059431 -0.22461298 0.34158638 0.36907193
-0.16296847 0.81863856 0.0822876 -0.31347144 0.9799586 0.28216892 0.29553318 0.37106195
0.4139646 0.18865146 -1.6145893 0.9037761 0.054434884 0.23531124 -0.06491396 0.4138282
0.13314082 -0.21769057 0.48518735 -0.85572684 0.093489625 0.1335002 -1.1322283 -0.4876958
-0.15136516 -0.15699781 -0.34694913 -0.7343404 0.43243048 -0.31785023 0.26443234 -0.06424735
0.008798868 0.7099811 0.13648885 0.57610464 -0.26026055 0.21980076 -0.011911158 -0.5088534
0.30636764 0.7116024 -0.79555553 0.6966705 0.4737367 0.7229589 0.01741058 0.59391713
1.1273545 -0.842083 -0.078001656 0.12003352 0.5187373 -1.212388 0.06845463 -0.5927376
-0.73294204 -0.21823817 0.34304252 -0.16882926 -0.558372 -1.081876 -0.5835313 0.3258181
-0.032264408 -0.2496724 0.26866657 0.83213574 -0.2550454 -0.34452128 -0.9465442 1.351516
-0.1078136 0.7634051 0.027165296 0.1982482 -0.79765046 -0.20895542 -0.018557409 0.6290068
-0.5513647 -0.6601589 0.05219238 0.34571218 0.15698795 -0.05363574 0.13456544 -0.38949913
0.34219843 0.26545206 0.008419288 -0.2860737 -0.2687192 0.041779913 -0.06384897 -0.6045277
-0.21463019 -0.633377 0.034256604 0.32800522 -0.060635746 -0.6279351 0.044691164 0.3669135
0.2742344 1.110171 -0.17329152 -0.005131891 0.43480206 -0.20835757 -0.19634916 0.11974001
0.6947041 0.016136762 0.47553512 0.13551986 -0.4099562 -0.3384107 0.8984873 0.2277637
-0.20485832 0.77186173 0.44169286 -0.1962488 -0.35380128 -0.46551183 0.44282216 -0.17752957
-0.64167476 -0.15884976 1.456268 -0.0030585297 0.109921746 0.26204273 0.29373497 0.35111445
-0.13392541 0.8972208 -0.4200375 0.5331885 -0.16317494 -0.33248407 -0.8633738 -0.27702907
-0.40960777 -1.428184 -0.6763817 0.15926202 0.46740457 -0.36887753 -0.27398467 -0.30936548
0.009126708 0.019294614 1.0227247 -0.12936579 -0.29194197 -0.5993911 0.8002028 0.15743987
00000000: 08ea edbe dca0 9cbe cd91 6bbe f097 fe3e
00000010: 7b3d 14bf 0904 3fbf 280c bdbc 6fa6 84bf
00000020: 3466 a4be 1f6e 693d b3da f33d fd89 83bd
00000030: f89b 4bbf 6345 033f b885 2e3f 6dab a7bd
00000040: 2bb1 67bf 11ac 00be 98e3 543f 8610 0f3d
00000050: e1e3 2e3e b3e1 f8be 0659 07be 0b02 2cbf
00000060: 6cd7 e83e 71a6 4d3e c91b 873e cda8 44bf
00000070: a0df 15bf 09de 87bf 54a4 ecbd 41e4 9d3d
00000080: e420 a2be 19ee c5be f047 373f eb07 4bbe
00000090: ef45 8f3f 94e1 2abe a653 1b3f bf3f 553e
000000a0: cb72 acbd f550 793e da49 81be cf32 a6bc
000000b0: 67b1 10be 5a55 803f 40c5 023f 069d 09bf
000000c0: f19d bbbd 7f91 23bf f636 4f3e 449e 1dbe
000000d0: 112f 083f 37a6 723f cdaa ddbe bb91 903f
000000e0: 3e65 bc3e 747b e13e 523f 913e b769 583e
000000f0: 18c0 a4be b4d1 053e ec9a 12bf e742 923e
00000100: d030 31bc ee84 be3d 1a42 c4be 7543 5a3f
00000110: d967 ec3d 2587 1e3d 6290 a1bf eccf 08be
00000120: 4eaa ad3c 81e0 52be 8ed6 e4be 766b 203e
00000130: 3522 28bf 19e1 64bb 0209 f2be 7a47 4c3e
00000140: ca40 f7be ebb0 183e 9624 b8be 09cb 0e3e
00000150: 4a13 43bb 9df0 393f 058b b7be 7854 0f3f
00000160: f122 a5bd 88e4 1c3f eda8 ebbe 0e75 e23e
00000170: a10e a5bd f200 66be 69e4 ae3e fff6 bc3e
00000180: 35e1 26be 4c92 513f 6786 a83d 547f a0be
00000190: 91de 7a3f 7278 903e 2050 973e d5fb bd3e
000001a0: 2bf3 d33e d92d 413e ddaa cebf df5d 673f
000001b0: 1df7 5e3d 6ef5 703e 9cf1 84bd 4ae1 d33e
000001c0: 1156 083e 47ea 5ebe 7a6a f83e ea10 5bbf
000001d0: 7d77 bf3d 47b4 083e dbec 90bf 44b3 f9be
000001e0: 78ff 1abe 09c4 20be 51a3 b1be bcfd 3bbf
000001f0: 8767 dd3e 44bd a2be ad63 873e 1d94 83bd
00000200: 2129 103c 52c1 353f bcc3 0b3e 987b 133f
00000210: df40 85be 7313 613e 0527 43bc 3744 02bf
00000220: 38dc 9c3e 932b 363f 87a9 4bbf ff58 323f
00000230: 9e8d f23e d613 393f a2a0 8e3c f40a 183f
00000240: 274d 903f c092 57bf 55bf 9fbd 22d4 f53d
00000250: f8cb 043f 882f 9bbf f131 8c3d a7bd 17bf
00000260: 17a2 3bbf d479 5fbe 45a3 af3e 94e1 2cbe
00000270: 78f1 0ebf ea7a 8abf 4f62 15bf a1d1 a63e
00000280: af27 04bd 1faa 7fbe aa8e 893e d906 553f
00000290: 5095 82be 1865 b0be b850 72bf 7afe ac3f
000002a0: 60cd dcbd 846e 433f c189 de3c 9301 4b3e
000002b0: d232 4cbf 69f8 55be b505 98bc 9706 213f
000002c0: 3d26 0dbf 2c00 29bf adc7 553d 3001 b13e
000002d0: 73c1 203e 26b1 5bbd 86cb 093e 6e6c c7be
000002e0: a234 af3e 55e9 873e 0ef1 093c 4178 92be
000002f0: 9095 89be 6a21 2b3d 40c3 82bd 54c2 1abf
00000300: 04c8 5bbe ff24 22bf a750 0c3d 4df0 a73e
00000310: 305d 78bd 5bc0 20bf 150e 373d 16dc bb3e
00000320: 7468 8c3e 151a 8e3f 5573 31be 6c29 a8bb
00000330: 609e de3e b05b 55be c10f 49be 403a f53d
00000340: 21d8 313f 3e31 843c 5779 f33e b8c5 0a3e
00000350: c7e5 d1be 2b44 adbe 4403 663f e33a 693e
00000360: 61c6 51be bb98 453f 9125 e23e 72f5 48be
00000370: 7125 b5be 9157 eebe 96b9 e23e 50ca 35be
00000380: cc44 24bf 83a9 22be fd66 ba3f 9d71 48bb
00000390: a71e e13d 772a 863e 6e64 963e 46c5 b33e
000003a0: be23 09be 43b0 653f 280f d7be 0b7f 083f
000003b0: 5517 27be 5a3b aabe 1106 5dbf c1d6 8dbe
000003c0: 1cb8 d1be bcce b6bf 5a27 2dbf 9515 233e
000003d0: a74f ef3e 84dd bcbe b847 8cbe 2765 9ebe
000003e0: 3088 153c bd0f 9e3c a5e8 823f 7778 04be
000003f0: 6b79 95be b271 19bf 17da 4c3f eb37 213e

net.4.bias f4 [21]
0.2745433 0.4929225 -0.013842042 -0.17948629 0.25052392 -0.33693364 0.39221966 -0.29865575
-0.003363953 -0.16210264 -0.2994919 -0.07050815 -0.15754294 0.27103254 -0.44636726 -0.05300854
0.1360301 0.45613372 -0.29514498 -0.028284876 0.17296663
00000000: f090 8c3e 5760 fc3e bbc9 62bc 41cb 37be
00000010: ac44 803e 9182 acbe 04d1 c83e 68e9 98be
00000020: c475 5cbb 3cfe 25be 0157 99be 9466 90bd
00000030: f052 21be c7c4 8a3e 408a e4be 7c1f 59bd
00000040: 794b 0b3e 5c8a e93e 3e1d 97be afb5 e7bc
00000050: 2a1e 313e
