Q3/ddpg_actor_step9800000.pth (torch, 357342 bytes, 6 tensors)

net.0.weight f4 [256, 67]
000000 c0 95 e2 3e 5a b7 a0 bd ae f9 6a 40 49 b0 d7 bf
       0.44254875 -0.078474715 3.6714892 -1.6850673
000010 63 c1 64 bc 52 60 35 be db f4 a0 bf 50 c2 15 bc
       -0.013962123 -0.17712525 -1.2574724 -0.009140566
000020 95 69 02 40 60 ce 49 be 6d 07 a9 3f b4 21 c2 3f
       2.0376942 -0.19707632 1.3205391 1.5166535
000030 37 42 6d 3f 44 35 06 3f 9d dd f9 3f ad 64 65 3f
       0.9267916 0.52425027 1.9520756 0.89606744
000040 41 29 6c 3e f9 1a 25 bf 55 94 98 bf 86 d7 21 40
       0.23062612 -0.6449428 -1.1920267 2.5287795
000050 dc dd 43 3f f0 c1 f0 bf cf 2e c6 bf d1 a0 ec bd
       0.76510406 -1.8809185 -1.5483035 -0.11554111
000060 d7 f3 da 3e 5b 91 44 3f 18 45 cf be 1c 59 4c bf
       0.4276416 0.76784295 -0.40482402 -0.7982347
000070 01 1a 8a bf 9f 06 8d 3f 08 fe 08 3e dd 02 1a bf
       -1.0789186 1.1017646 0.13378155 -0.6016062
000080 bf 85 0d bc f9 38 db 3e 74 0f e2 be e6 a3 d6 3f
       -0.008637845 0.42816904 -0.44152415 1.6768768
000090 ec 26 8d 3e fe ec cb 3f 4e db 94 bf 27 f3 fd 40
       0.27568758 1.5931699 -1.1629426 7.9359317
0000a0 da 3b 9c 3f 42 06 8f 3e fe b9 5d 40 5d 0f af be
       1.2205765 0.27934462 3.464477 -0.3419141
0000b0 c7 35 0b bf 38 4a c5 be a2 a1 23 3f f6 f9 d3 3e
       -0.5437893 -0.38533187 0.6391851 0.41401643
0000c0 a7 cf 96 bd aa 8d 9e 3e 9b 69 55 3e 41 f1 de bd
       -0.07363825 0.30967456 0.20841067 -0.10885859
0000d0 40 64 c7 bd ee 48 08 be 07 b2 72 3e ac 24 1b be
       -0.09735918 -0.1330907 0.23700725 -0.15150708
0000e0 0c 31 12 bf b7 14 1b be f6 c7 5a 3e 4b 4c ad 3e
       -0.5710609 -0.15144621 0.21365342 0.3384727
0000f0 bb 73 9d bd 5c 20 6b 3e 4e 9b 2e 3d c9 73 30 be
       -0.076880895 0.22961563 0.04262858 -0.17231669
000100 a8 8e f9 3e 88 e0 c9 3e b1 b6 40 3d e0 84 ab bd
       0.4874165 0.39429116 0.047049228 -0.08374953
000110 dc 6c 6c 3e 6e cf b0 3e 00 c2 7c bd 38 49 09 3f
       0.23088402 0.34533256 -0.06170845 0.5362735
000120 76 96 20 3e af 7b 07 40 27 d9 46 40 5f 45 bc 3e
       0.15682396 2.116924 3.107004 0.36771676
000130 3e 81 a7 3f 03 00 6c be 2e 7c 41 bf 27 5b 1d 40
       1.3086317 -0.2304688 -0.7558011 2.4586885
000140 f7 0f 2b 40 eb 60 3b bf 30 68 9f c0 cc c6 f4 3e
       2.6728494 -0.7319476 -4.981468 0.4780792
000150 91 e6 f1 bf 5b 9e 90 3f 29 15 d3 bf 70 58 32 40
       -1.8898488 1.1298326 -1.6490833 2.7866478
000160 a8 f2 61 bf 4e a9 53 3f 7d b8 aa bb cc 90 f9 3c
       -0.8826089 0.82680213 -0.005209981 0.030464552
000170 06 7d 06 be 77 0a 69 be d2 97 42 bf 45 93 c4 3e
       -0.1313363 -0.22757898 -0.7601291 0.38393608
000180 6b 9b bf be 6b fc 62 bf 64 e2 0a c0 e0 4e 99 3f
       -0.37423262 -0.8866641 -2.1700678 1.1977196
000190 b6 5f 03 be f2 d2 81 3f c7 2f 25 be b3 81 c8 3e
       -0.1282948 1.01425 -0.16131507 0.39161453
0001a0 7a 8f 06 41 3b 21 c1 3f f2 0f 8e bf 94 f8 0a bf
       8.410028 1.5088266 -1.1098616 -0.5428555
0001b0 b7 e3 dd bd 8b 93 bc bd 5b 53 5c be a3 4b 0a bf
       -0.10834449 -0.09207829 -0.21516173 -0.5402166
0001c0 0d 60 f3 3e 38 1c 99 3c 0e 9c c5 3e 11 e4 fc bc
       0.47534218 0.018690214 0.38595623 -0.03087047
0001d0 63 14 f3 bd 88 ef 0d be 9d aa d3 be 7e 55 02 bc
       -0.11869123 -0.13860905 -0.41341105 -0.007954953
0001e0 82 66 34 3d da c5 8b 3d 64 4b 1e 3d fe 2d 60 3d
       0.04404307 0.068248466 0.038646117 0.05473136
0001f0 fa 12 db 3b a1 83 6e bd 2f 6e cc 3d 9e 0c c2 ba
       0.006685612 -0.058231 0.09981953 -0.0014804786
000200 ba 61 29 3d 46 18 a2 bd 57 f8 e3 3d 5c 3e e3 bd
       0.041352965 -0.07914786 0.111313514 -0.110958785
000210 c9 13 4f 3e 64 1e 13 be 3b 58 98 3f 8b 7f 01 be
       0.20222391 -0.14367062 1.1901926 -0.1264631
000220 f0 b6 1b bf ec 8a 7f 3f 65 22 37 c0 26 7e 8e be
       -0.60826015 0.9982135 -2.8614743 -0.2783062
000230 be 57 b1 3f eb ea d9 3f 83 fc bc 3f 47 a4 98 3d
       1.3854902 1.7024816 1.476456 0.074532084
000240 eb 27 f8 3f 09 30 4c bf fe fd 01 c0 7e 52 89 bf
       1.9387182 -0.79760796 -2.0311275 -1.07283
000250 fd 45 91 bd 81 88 1e c0 db 4d 93 3f 9f 48 40 40
       -0.07093427 -2.4770815 1.1508135 3.0044324
000260 cf ed d0 3e 64 01 18 3f 18 49 69 3e 35 fa f1 3f
       0.40806434 0.5937712 0.2278179 1.8904482
000270 f8 d2 10 40 47 41 39 3f 11 08 b9 3f b7 8b 9e 3f
       2.2628765 0.7236523 1.4455587 1.2386388
000280 fe 15 a2 3e c7 7e ec bf e8 1e ac 3f 19 5e 06 3f
       0.31657404 -1.8476189 1.3446932 0.5248733
000290 00 8f a0 3e 4c 0d bb 3d e1 a8 d3 bd 54 ac d9 3f
       0.313591 0.091333956 -0.103349455 1.7005715
0002a0 4d 7d f7 bf 19 31 a7 bf 40 48 f1 bc ed eb 29 c0
       -1.9335114 -1.3061858 -0.029453397 -2.6550248
0002b0 2e 7c ce 3e e1 22 ab 3f a5 bc d4 3f 8a 41 d4 bc
       0.40329117 1.3370019 1.662007 -0.025910158
0002c0 7a dc 3a be 1c c0 02 3e 82 96 48 3f 14 36 78 3f
       -0.18248168 0.12768596 0.78354657 0.96957517
0002d0 3a 2f be 3e 7b a1 89 bd 2c 65 4b 3f 33 3b 20 3f
       0.37145406 -0.06720253 0.7945125 0.6259033
0002e0 a3 6b 75 3d 98 09 81 be c7 19 a9 be 1d ba 05 be
       0.059917103 -0.25202632 -0.3302748 -0.13059278
0002f0 b0 9a b4 3d 85 de 05 3f b7 74 91 3e 84 46 e2 be
       0.08818567 0.5229266 0.2840936 -0.44194424
000300 84 bf 93 3e 37 18 ba be 06 36 09 3e be 94 d1 3e
       0.28857052 -0.363466 0.13399515 0.40933794
000310 7a 4d 4b bd f9 4e d3 bd 99 a0 56 bc 54 e8 85 3e
       -0.049634434 -0.10317797 -0.013099813 0.26153815
000320 b5 59 11 be 2c a0 fe bf e6 90 0d c0 82 1f 54 bf
       -0.14194377 -1.989263 -2.211969 -0.8286058
000330 e0 4d 64 3f ea fd c8 bd 19 7c e9 3e ba 82 fa 3e
       0.8918133 -0.09814055 0.45602491 0.4892786
000340 a4 40 28 c0 9d 01 0e c0 8f 76 bd be 57 83 17 bf
       -2.6289454 -2.2188485 -0.37004516 -0.59184784
000350 6d 8e 99 bf b2 d5 ca 3f f3 b0 ae 3f a4 54 89 bf
       -1.199659 1.5846465 1.3647751 -1.0728955
000360 f8 eb 55 c0 10 16 09 3f e5 66 1f 3f 93 35 97 3e
       -3.3425274 0.5354929 0.6226638 0.2953306
000370 e0 a0 03 40 dc b1 1d bf db 79 ff 3e 4f cb 02 bf
       2.056694 -0.61599517 0.49897656 -0.51091474
000380 27 5e ad 3e 4f f7 38 3f 19 75 1c 3f 32 4d 65 3e
       0.33860895 0.7225236 0.61116177 0.22392729
000390 b6 38 0f 3e 0f 0b c7 bf 06 6b 80 3c 02 02 01 be
       0.13986477 -1.555025 0.015676033 -0.12598422
0003a0 2d ec 2d 3e 9a 34 82 bf 60 ac be 3e 9b ed 6c 3f
       0.16984625 -1.0172303 0.37240887 0.9255006
0003b0 6d 53 bc 3e dd 64 d4 3f 1c 5e 9b 40 76 5e e1 c0
       0.367824 1.6593281 4.855238 -7.042781
0003c0 d2 3d 9e bf dd 93 12 bf b4 af 39 bf 05 aa e1 bf
       -1.2362616 -0.5725687 -0.72533727 -1.7630011
0003d0 0b 87 97 be d0 86 ba be 31 7f 19 3f b6 a1 71 3d
       -0.29595217 -0.3643098 0.59959704 0.05899211
0003e0 63 d3 ef 3c d0 68 f5 be c4 31 98 be 0b 0d d3 bd
       0.029275602 -0.47931528 -0.29725468 -0.10305222
0003f0 54 09 5b 3d 71 7e f8 bd 4a 90 0a be ee 52 75 3c
       0.053475693 -0.12133492 -0.13531604 0.014973385

net.0.bias f4 [256]
000000 9e 42 e8 be c4 bc 11 bf f2 73 45 bf 76 97 08 bf
       -0.45363325 -0.5692866 -0.77130044 -0.5335611
000010 fe 35 1f be f7 27 4d be 9c a4 e1 bd 19 f6 fb be
       -0.1554794 -0.20034777 -0.11017725 -0.49211195
000020 ae ef 18 3f e6 ed a8 3e 85 c9 c4 bf e3 00 95 3f
       0.5974072 0.32994002 -1.5373999 1.1640896
000030 e0 ef d7 bf 9a d3 d9 be 02 04 ef 3d 4e fb a1 bf
       -1.6870079 -0.42544252 0.11670686 -1.2654817
000040 d0 08 9c be da 00 06 3f 13 70 50 be fe 07 17 3d
       -0.30475473 0.5234505 -0.20355253 0.036872856
000050 55 36 08 bf 39 a5 19 3e cb bd 47 3f 41 f9 80 bf
       -0.53207904 0.15004434 0.78023976 -1.0076066
000060 11 ac 90 bf a7 07 9b be c1 1e b9 bf 9b b1 9a bf
       -1.130251 -0.30279276 -1.446251 -1.2085451
000070 c6 a5 66 3f 3e 34 5d 3d f8 c9 56 be 6a 51 05 bf
       0.900967 0.0540049 -0.20975482 -0.52077353
000080 f1 a9 bb bd ba cf 61 3f 80 96 1e 3c d9 1b f5 3f
       -0.09163273 0.8820759 0.009679437 1.9149123
000090 e9 fc 05 3c 54 78 a4 be d5 98 2c 3f 96 01 71 3f
       0.008177974 -0.32123053 0.67420703 0.94143045
0000a0 d0 7f 05 be 0e 59 1d 3f 4b 0d 99 bf 75 23 1d bd
       -0.13037038 0.6146401 -1.1957182 -0.038363893
0000b0 a5 12 47 3e 57 fe 8f be 9b 74 41 3f 0c 07 c9 bf
       0.19440706 -0.28123733 0.7556855 -1.5705276
0000c0 42 0b 42 bf f0 36 01 3e 23 25 36 bf 47 5b ae 3f
       -0.7579843 0.12618613 -0.71150416 1.3621606
0000d0 15 b1 9d 3f fb 4a 90 be 84 28 96 bf 26 3c cb be
       1.2319666 -0.28182206 -1.1731114 -0.39694327
0000e0 77 4a 64 be a4 9d 0f 3f 8e 7f e8 be 6a 87 13 bf
       -0.22294031 0.56099916 -0.45409817 -0.576285
0000f0 65 37 c7 bb 6a d6 90 3f d9 61 36 bf 05 9f 56 bf
       -0.0060796016 1.1315434 -0.71243054 -0.83836395
000100 6e c3 f1 3d 82 38 95 3e 6e 9f 83 bf ca 4c 7f be
       0.118048534 0.29144675 -1.0283029 -0.24931636
000110 15 a3 dd 3e 5b b2 e3 3f 15 4c 1e bf 2b 96 97 be
       0.43288484 1.7788805 -0.6183484 -0.29606757
000120 1a be 3a 3f 19 f3 05 bf cd 77 bd be e0 71 05 bf
       0.7294632 -0.5232406 -0.37005463 -0.52126884
000130 b1 c0 58 3f 08 6c 16 bf aa 9a 3a bf a6 ae bb be
       0.84669024 -0.5875859 -0.7289225 -0.36656684
000140 31 e0 9f bf 56 44 a9 be d2 64 91 bf 65 83 a4 bf
       -1.2490293 -0.3305995 -1.1358893 -1.2852598
000150 89 f5 b1 bf f2 a2 67 bf a7 7f 9c 3e ef 97 2b be
       -1.3903056 -0.9048301 0.3056614 -0.16757177
000160 a6 40 aa bf 60 fe 3f bf 70 61 80 bf d9 df 92 3e
       -1.3300979 -0.7499752 -1.0029736 0.28686407
000170 27 4f 31 bf da b7 3a be b3 d6 23 bf 3b b4 81 be
       -0.692614 -0.18234196 -0.6399948 -0.25332817
000180 56 b6 68 3c ee a8 9b be 8a bf cc be d3 70 49 3e
       0.0142036285 -0.3040232 -0.39989883 0.19671945
000190 1d a3 4b bf d9 10 b2 3f e4 9b c6 3f be 15 1f bf
       -0.79545766 1.3911391 1.5516324 -0.6214255
0001a0 b7 e9 bf be df 7b a7 bf fa 1b 85 be 58 ea 47 c0
       -0.37482998 -1.3084677 -0.25997907 -3.1236782
0001b0 ae 59 a4 3e b0 a3 3b 3e 01 f2 28 3e 2d 23 84 bf
       0.3209967 0.1832416 0.16498567 -1.0323235
0001c0 6d 5d c8 3e 5a 39 05 3f 57 6e 08 3e 16 6b 75 be
       0.39133778 0.52040637 0.13323341 -0.23966631
0001d0 d4 3a bd be f6 72 88 bf 78 b1 c8 be c7 9f 3c be
       -0.36958945 -1.0660083 -0.39197898 -0.18420325
0001e0 38 10 eb 3d da 78 0d be 11 76 d6 bf d8 05 a3 be
       0.11477703 -0.13815632 -1.6754781 -0.31840396
0001f0 ed bf 38 bf 02 1d 25 be eb ab bc be 75 ce e4 bf
       -0.72167856 -0.16124347 -0.36849913 -1.7875506
000200 f9 1f 65 bf 37 a9 72 bf ef 2f 99 be 00 34 e2 be
       -0.8950191 -0.9478945 -0.29919383 -0.44180298
000210 fd ff e3 3e 35 73 21 3f 90 a8 0d 40 5d 0b 0b 3d
       0.4453124 0.63066417 2.2134132 0.033946384
000220 bf 30 86 3f 84 72 0c bf 18 95 d0 3e 9e 8f 19 be
       1.0483626 -0.54862237 0.4073875 -0.14996192
000230 a5 e1 45 bf 59 dd eb bf 5d b7 26 3d 7b 63 d5 3d
       -0.7729743 -1.8426925 0.040702213 0.10419365
000240 c4 c0 af bf 13 7c d6 bf c9 a0 4b bf 80 49 68 3e
       -1.3730702 -1.6756614 -0.79542214 0.22684288
000250 04 52 2a bf d9 ac d7 3e 0e 7a 65 be cc b4 cc bf
       -0.66531396 0.4212406 -0.22409841 -1.5992675
000260 de cb 16 bf b6 a2 80 be 27 f8 d1 bf 63 6b 8c bf
       -0.58904827 -0.2512414 -1.6403855 -1.0970272
000270 9a 67 92 bf 8e b1 b3 3e d4 dc 3c bf 90 a2 d0 3e
       -1.1437867 0.350964 -0.73774457 0.40749025
000280 b1 68 8d be 42 1a aa bf b0 c6 51 3e 6f ad a6 bf
       -0.27618936 -1.3289263 0.2048595 -1.3021678
000290 2b 1d 60 3f d6 89 55 3e 90 f6 0e c0 0a 2a c2 be
       0.87544507 0.20853361 -2.233799 -0.37922698
0002a0 aa c7 ed 3e c3 d1 be bf 7f 13 56 bf f8 86 8c be
       0.46441394 -1.4907764 -0.836235 -0.27446723
0002b0 92 f8 d4 be 0c 00 a8 3e 25 fa 3a bb 71 eb d6 bf
       -0.41595894 0.32812536 -0.0028530445 -1.6790601
0002c0 da a6 cf 3e 5c d8 19 3d 8e 9d 7c bf f9 f6 20 3e
       0.40556985 0.037559852 -0.9867791 0.15719213
0002d0 79 a9 45 bf 57 7a 21 bf 10 0f 06 bf a7 cb 51 be
       -0.7721172 -0.630773 -0.52366734 -0.20487843
0002e0 08 64 9a 3e 6b c6 81 3d cf fb 9b 3e 78 12 2b 3f
       0.30154443 0.06336673 0.30465552 0.66825056
0002f0 65 f2 09 3f c7 0d b5 3f 0c 25 e8 3e 86 e5 e4 3e
       0.5388549 1.414483 0.45340765 0.44706362
000300 01 11 f0 be 03 c7 81 3f a4 66 3a 3f 68 3e 83 bf
       -0.46887973 1.0138859 0.7281287 -1.025342
000310 18 75 1a bf ef 7d c3 3e d5 d2 07 bf 65 12 27 c0
       -0.6033492 0.38182017 -0.5305608 -2.6104977
000320 9e e3 18 3e 7c 0a 5c 3f 96 68 4f 3f 8b d5 65 3f
       0.14930579 0.859535 0.8101896 0.89778966
000330 aa fd 90 3e 7b 42 88 bd 18 10 b4 3e 42 b9 63 bf
       0.2831853 -0.06653305 0.3516853 -0.88954556
000340 a3 ff e6 3e e1 e5 34 bf de 0b de bf 92 bd 69 bc
       0.4511691 -0.7066327 -1.7347372 -0.0142663885
000350 8b 9c 4d 3f ee 65 35 3d 56 d8 41 bf 74 30 a2 be
       0.8031699 0.04428666 -0.7572073 -0.31677592
000360 5f 2c 82 3e 3f 0f cd 3f 90 35 34 bf 63 76 53 bf
       0.25424477 1.6020278 -0.7039423 -0.8260252
000370 a7 c2 25 3f 4a 05 43 40 94 9e af 3f 9f a2 3b bf
       0.6475014 3.0471978 1.3720269 -0.73295015
000380 f6 0b 80 3f 1f 90 eb bf b2 6a 99 3f c4 10 14 3f
       1.000365 -1.8403357 1.1985686 0.5783808
000390 0e f4 b2 3e 9e ae fa 3d e3 4e 56 3e 19 f0 2e 3f
       0.34951824 0.12240337 0.2092853 0.6833511
0003a0 2d 5c 33 bf 26 04 0d bf 91 57 5f be b9 f7 d2 3d
       -0.70062524 -0.55084455 -0.21810748 0.103011556
0003b0 d9 71 37 3f d4 4a 32 be de ad 92 bf 26 ed 93 be
       0.7165809 -0.17411357 -1.145931 -0.28891867
0003c0 d0 48 1d be 6a c8 24 3f ac 60 a1 bf c7 71 ac bf
       -0.15359807 0.6436831 -1.2607627 -1.3472222
0003d0 41 89 84 3f 54 74 09 c0 a7 e8 09 bf a8 93 1f c0
       1.0354387 -2.147725 -0.53870624 -2.4933872
0003e0 6c 88 aa bf 7f 22 a1 3e 17 08 34 be d3 35 91 bf
       -1.3322883 0.3147163 -0.17581211 -1.1344551
0003f0 13 c3 05 c0 2c 3a 80 3f 9f 49 49 3f 5f 08 41 bf
       -2.0900314 1.0017753 0.7862796 -0.754034

net.2.weight f4 [256, 256]
000000 57 61 18 bf a4 9d 8b bd 4e ea 56 3f 1f 82 a2 3d
       -0.5952353 -0.06817177 0.8395127 0.07934975
000010 e6 68 92 3f b2 e8 87 bf f0 49 3d be d7 32 29 3f
       1.1438262 -1.0617888 -0.18485236 0.660932
000020 09 33 cc be 2d cc 00 bf cb 9b 8f 3f 2f 74 3e bf
       -0.39882687 -0.5031155 1.1219419 -0.7439603
000030 ec 6e 01 3f 07 ab 3b bf 3d 89 49 3d f9 8c 96 be
       0.5055988 -0.7330784 0.049203146 -0.2940443
000040 a8 4d 4a bf a0 2e 41 3e e7 1b 38 3f 8c ef 00 3f
       -0.79024744 0.18865442 0.71917576 0.5036552
000050 ca 66 fd 3c 5d 0d 1b be 50 cc 2e bf 2d 82 ae be
       0.030932803 -0.15141816 -0.68280506 -0.3408369
000060 cf 67 cb 3d 67 38 05 bf 8b a1 4a 3f 19 a8 99 bf
       0.09931909 -0.5203919 0.79152745 -1.2004424
000070 e2 42 83 be 97 6c b8 bf bd 91 e4 3c 96 3f 7d 3e
       -0.25636965 -1.4408139 0.027901525 0.24731287
000080 8c 0d 5d 3f 5b 46 24 bf bc 2c 66 be f1 dc 8c bf
       0.86348796 -0.64169854 -0.22478002 -1.1004926
000090 9e 5c d4 bf 21 c6 0b 3f 76 23 7e 3e 15 50 93 3c
       -1.6590765 0.54599196 0.24818215 0.017982522
0000a0 19 29 23 bf 29 9a f7 3e 4e c4 8e 3d 93 d3 bf be
       -0.63734585 0.48359802 0.06971036 -0.37466106
0000b0 76 e1 75 bf 01 7e 0b 3f 5c ae d2 3e 69 62 f0 be
       -0.9604715 0.5448914 0.4114865 -0.4695008
0000c0 03 89 c1 bf 6c bd 49 3f 39 14 0d 3f 6e 45 12 bf
       -1.5119938 0.7880466 0.5510898 -0.5713719
0000d0 cf 69 54 3e f1 58 81 bb 43 58 5d 3e 5d f5 70 bf
       0.20743488 -0.00394737 0.216157 -0.94124395
0000e0 e8 ba cb 3c a8 46 20 3e 42 43 33 bf e6 b7 f6 be
       0.024869397 0.15651953 -0.700245 -0.48187178
0000f0 50 01 d6 be 21 50 cf bf 4c 99 25 3f 33 23 9d bf
       -0.41797876 -1.6196328 0.6468704 -1.2276367
000100 15 d9 bb be 4f a5 04 be 88 74 24 3f 20 d3 1c bf
       -0.36689058 -0.12953685 0.6424031 -0.6125965
000110 6b a5 2f bf c3 3a 40 c0 23 a5 b1 bf db 02 cb bf
       -0.6861178 -3.0035865 -1.3878521 -1.5860246
000120 53 93 17 bd 06 5f 66 be 1d 15 40 3f 4b 2b 23 bf
       -0.037005734 -0.22497186 0.75032216 -0.63737935
000130 3d 5b fb be 68 b4 10 bf 7d 30 34 c0 31 8c 81 bf
       -0.49093047 -0.5652528 -2.8154595 -1.0120908
000140 6a 93 d4 bf 24 e3 79 3f 53 03 29 3f 3c a8 59 be
       -1.6607487 0.97612214 0.660207 -0.21255583
000150 3d 79 13 3f 13 f9 ec be 7e 2a ad bd 62 5e 6f 3f
       0.5760687 -0.4628378 -0.0845537 0.9350339
000160 44 db 9e 3e 02 22 f5 be 2e 8b 19 bf 33 c3 42 bf
       0.3102666 -0.47877508 -0.59977996 -0.760791
000170 49 31 0f bd e0 c6 86 bf e8 45 71 3e e1 2b b5 3e
       -0.03495911 -1.0529442 0.23561823 0.3538504
000180 4b a2 ca 3e 18 16 dd 3e 28 68 bb bf 7b 31 26 be
       0.39576945 0.4318092 -1.4641161 -0.16229813
000190 54 04 9d 3d dc d8 2a bf 1d 61 87 bf fe 8f ce bf
       0.07666841 -0.6673715 -1.0576512 -1.6137693
0001a0 62 cc 45 3f 15 c2 39 be f7 63 86 3d 1f bb 25 3f
       0.7726499 -0.18140443 0.065620355 0.6473865
0001b0 a7 a0 0c bf 8f f7 58 3d b4 98 95 3f 60 35 84 bf
       -0.54932636 0.052970465 1.1687226 -1.0328789
0001c0 28 bd ab be 90 3b 6a 3f a6 70 e4 3e be 93 d3 bf
       -0.33542752 0.91497135 0.44617194 -1.6529462
0001d0 88 44 82 3f 18 00 d8 3e 82 ba 92 be e6 3d d5 be
       1.0177164 0.42187572 -0.2865792 -0.41648787
0001e0 23 79 f9 bf 5c 92 51 be a2 eb a7 be 52 d3 ab be
       -1.9490093 -0.20465988 -0.3279696 -0.33559662
0001f0 8d ad 0b 3f 9e 68 cd bf 5e b0 29 bf 30 0f 98 3f
       0.5456169 -1.6047552 -0.6628474 1.1879635
000200 d9 04 49 bf 19 66 94 bf 76 48 80 3f cc c8 1b 3f
       -0.7852302 -1.1593658 1.0022113 0.60853267
000210 18 e7 17 bf a8 31 7f 3f c7 f8 86 bf 28 43 d3 bf
       -0.59336996 0.99685144 -1.0544671 -1.650487
000220 75 ac 69 bf 82 2d 4b bf 40 66 1d bf 78 83 1b bf
       -0.91278774 -0.79366314 -0.61484146 -0.6074748
000230 0a c5 d1 3e 24 19 e7 be 76 15 60 bf 69 e0 d4 bf
       0.4097064 -0.45136368 -0.87532747 -1.6630985
000240 71 fc 10 3e fb 27 a9 bf c5 3e 46 bf e3 44 79 bd
       0.14158799 -1.3215326 -0.7743953 -0.06085671
000250 79 ee ff 3e 6d 6d 83 be 8a 9d 33 bf b0 62 07 bf
       0.49986628 -0.25669423 -0.7016226 -0.5288496
000260 20 1e 9e 3e 2a bc ae 3d 82 4d 6f bd 00 69 49 3e
       0.3088236 0.08531983 -0.058423527 0.1966896
000270 19 6f c3 be c6 1e 7f 3d 3b 3f cc 3d fe 95 b5 bf
       -0.38170698 0.062285207 0.09972998 -1.4186399
000280 5a 14 09 3f d0 e2 a3 3f e6 a5 a0 3e 05 95 3a 3f
       0.5354668 1.2803593 0.3137657 0.72883636
000290 65 83 3e 3f cc 36 c0 bf 28 b7 d5 3d aa 88 ed be
       0.7441924 -1.5016723 0.10435325 -0.4639333
0002a0 b9 11 04 bf 7b 71 9a bf 84 81 05 3f d0 6b c1 3e
       -0.5158954 -1.2065881 0.5215075 0.37777567
0002b0 e2 d6 8e 3f d4 b1 08 bf 0e 96 14 3f b1 dc 9a 3f
       1.1159327 -0.53396344 0.58041465 1.20986
0002c0 6a ae 02 bf 63 52 c2 be 18 39 24 3f 3a 17 d6 be
       -0.51047385 -0.3795348 0.6414962 -0.41814595
0002d0 3e f9 4e 3c 41 57 c1 bd bf 6d 80 bf a3 5b 5c 3e
       0.012632666 -0.094404705 -1.0033492 0.21519332
0002e0 76 83 cd bf a6 83 23 3f 9a 67 96 bf 5b 94 96 be
       -1.6055744 0.63872755 -1.1750367 -0.2941006
0002f0 dc 87 60 bf 6c 69 2b bd df 32 d5 bc 60 a9 c5 bf
       -0.87707305 -0.041848585 -0.026025234 -1.5442314
000300 6d 56 92 bf 5c 53 ee be f4 09 a7 3d 2e 46 28 c0
       -1.1432625 -0.46547973 0.08156195 -2.6292834
000310 ca 52 2d 3f 3c e1 7e 3f 23 c4 04 3e 37 78 23 bf
       0.6770445 0.9956243 0.12965445 -0.6385531
000320 d2 d2 6b bd a3 25 14 3e 0e dc e8 3f 94 f1 8a bf
       -0.0575741 0.14467482 1.8192155 -1.0854974
000330 76 9a 12 3e 92 91 5c be ca 51 bc 3f 29 ed 8d 3e
       0.14316735 -0.21539906 1.471246 0.2772
000340 73 4d 20 3e 13 d9 8f be 36 99 85 3f 26 ad 09 bf
       0.15654545 -0.28095302 1.0437381 -0.5377983
000350 80 32 68 3e b5 96 64 3e f0 5f 4d bf c8 26 c1 3e
       0.22675514 0.22323115 -0.80224514 0.377249
000360 77 15 16 bf d5 f4 d1 be f5 38 04 bf 7b 76 03 be
       -0.586265 -0.41007105 -0.5164941 -0.12838165
000370 cc fd 77 be ea da 88 bf 76 04 e3 be ef 02 8b 3f
       -0.2421791 -1.0691807 -0.4433934 1.086027
000380 cf 80 44 bf 41 47 e8 be 7b cd 0e bf d2 36 e8 be
       -0.76759046 -0.45366862 -0.5578229 -0.45354325
000390 5a 18 a6 3e a9 84 e2 3c 90 f7 ba 3f ec b1 16 be
       0.32440454 0.027651148 1.46068 -0.1471631
0003a0 d5 5f b3 3f 20 6d 61 bf bb 46 71 3f 7b cb 10 bf
       1.4013621 -0.88057137 0.9424855 -0.56560487
0003b0 6c 04 77 bf e2 8f 84 bf a9 3f bf 3e 48 ec 21 3f
       -0.9649112 -1.035641 0.37353256 0.6325116
0003c0 44 54 b0 3f de d0 9d bf 57 b3 96 3f b7 3c e9 3e
       1.3775716 -1.2329366 1.177348 0.45554134
0003d0 74 81 11 3f 0f a6 68 bf c0 2c b0 bf b2 87 90 3f
       0.56838155 -0.90878385 -1.3763657 1.1291411
0003e0 fd cc 46 3f e4 b6 ae 3f bb e1 ab 3e 40 d8 cd bd
       0.7765654 1.3649564 0.33570656 -0.10051012
0003f0 a9 b9 2e bf 74 7a 00 c0 6c 48 13 bf 5a 6e cd be
       -0.68252045 -2.007474 -0.5753238 -0.40123254

net.2.bias f4 [256]
000000 d5 8b a2 be 2c 2e 12 3e a4 6b 99 be 8f 51 9a bf
       -0.31747308 0.14275426 -0.29964936 -1.205614
000010 91 ea 6d 3f 1b 95 85 3f b8 a4 16 bf 16 49 4d 3a
       0.92936045 1.0436128 -0.5884509 0.000783102
000020 e0 17 02 bf 61 a0 ba 3f d6 97 3f 3f d1 e5 1b bf
       -0.5081768 1.4580194 0.7484106 -0.60897547
000030 59 3c e6 be 47 c5 2a 3f de 1f 68 3d c8 2c 5e bf
       -0.44967917 0.6670727 0.056671016 -0.8678708
000040 bc d9 13 bf 79 1b 3e bf 95 b4 4f be a5 d4 f6 3d
       -0.5775411 -0.7426067 -0.2028373 0.120522775
000050 5f 6b 20 bf 6d 67 95 bf cd 61 09 bf 51 53 ce 3e
       -0.62663835 -1.1672188 -0.5366486 0.4029794
000060 90 4f 50 3c d6 70 67 bf 77 f3 81 3e 0d 71 0a 3e
       0.012714282 -0.9040655 0.2538106 0.13519688
000070 9a 01 de be 9a b3 77 be 7c fb b0 be c3 0b 1d 3f
       -0.43360597 -0.24189606 -0.34566867 0.6134607
000080 69 47 95 3d e6 95 26 bf e3 c8 8a 3d be 77 1e be
       0.07289011 -0.65072477 0.06776597 -0.15475366
000090 b1 eb 88 3f 6a 22 fb 3e b1 f9 0b 3f 94 ba 01 3d
       1.0696927 0.49049693 0.54677874 0.031672075
0000a0 45 5d 32 3e 16 6a 73 bf 6d 51 3c bf ce 5b 13 3f
       0.17418392 -0.9508375 -0.73561746 0.5756196
0000b0 ce 55 9f 3e a0 42 87 bc 2c 87 cb 3d df b6 4b be
       0.3112015 -0.016511261 0.09937891 -0.19893979
0000c0 d1 5a 9c bc 44 95 27 bf 78 40 e0 bd b4 57 94 be
       -0.019086273 -0.65462136 -0.109497964 -0.28973162
0000d0 f0 64 5b be 84 11 31 3f c6 9f be be 0c 11 b4 be
       -0.21425223 0.6916735 -0.37231272 -0.35169256
0000e0 38 0d d7 be d7 c1 4d bf bc 93 3b bf af 02 c2 3c
       -0.42002273 -0.803739 -0.732723 0.02368292
0000f0 21 60 84 3d 4f 88 a6 bf 56 8d c6 3e 23 01 46 bf
       0.06463648 -1.3010348 0.38779706 -0.77345484
000100 b8 88 19 3e b9 0e 10 3e e1 3a 03 bf b1 be 85 be
       0.1499356 0.14068116 -0.5126172 -0.26122048
000110 b6 84 4e bf b9 84 db 3e 05 96 98 3f 1d 0a 1d bf
       -0.8067125 0.42874697 1.1920782 -0.61343557
000120 b8 03 3f bf f6 e6 ec bd 61 b5 85 be b0 b8 b1 be
       -0.7461505 -0.1156749 -0.26114944 -0.34711218
000130 1f de ef be a9 12 8d be c5 6d 40 bf fb 0a 81 bf
       -0.46849152 -0.275533 -0.75167495 -1.0081476
000140 24 06 cc 3e fd 5e 34 bf dd 3b 24 3f 0c 49 10 bf
       0.39848435 -0.7045744 0.64153844 -0.5636146
000150 19 24 50 bf 16 29 8d 3f ae 65 42 bd f9 f6 81 bf
       -0.8130508 1.1028163 -0.04746025 -1.0153495
000160 79 f4 40 bf db 7f b2 bf d6 ae 57 3e f9 3e 0a bc
       -0.75373036 -1.3945268 0.21062788 -0.008437865
000170 7d 9f 5d bc 8d bf f7 be 11 3d 26 be 5f 25 a9 3f
       -0.0135267945 -0.4838833 -0.16234232 1.321453
000180 4d 08 a7 bf 92 c3 28 40 f2 60 9d bf 37 d1 95 3c
       -1.3049408 2.6369367 -1.229521 0.018288238
000190 93 26 df be 9b bc 35 3f 27 ef 2b bf 9e d9 96 3f
       -0.43584117 0.70990914 -0.6716179 1.1785161
0001a0 3b d6 a6 3e b5 3b 42 3e 5f c8 59 bf 7f 4e 30 bf
       0.3258532 0.18968089 -0.8507137 -0.68869776
0001b0 51 16 7e 3d c1 e1 7a be b2 e8 dc 3e 66 b6 e7 3e
       0.062033 -0.24500181 0.43146282 0.45256346
0001c0 d6 c6 08 be 7a 7c 30 be 70 0c 9f bf 24 ce 2f 3f
       -0.133571 -0.17234984 -1.2425671 0.6867392
0001d0 6b 05 83 3c 2d 2f 07 3f b1 a4 9d 3e 09 37 4d 3d
       0.015993794 0.5280636 0.30789712 0.050101314
0001e0 66 25 0d bf 24 74 f6 bd 88 3f 32 3d ca 04 68 3f
       -0.5513519 -0.12033871 0.04351762 0.9063231
0001f0 3e 04 09 bf af ac 8f be 12 4f 4a bf c5 fb 3a bf
       -0.535221 -0.28061435 -0.790269 -0.7304042
000200 02 f2 13 bf e5 1b 06 bf 11 2c a0 3d 62 e0 b3 be
       -0.5779115 -0.52386314 0.07820905 -0.35132128
000210 e4 f2 41 bf 53 28 77 bf 12 03 b2 3d 8a 86 2b 3e
       -0.75761247 -0.96545905 0.08691992 0.16750541
000220 7c e5 b2 bf 72 09 60 3e e1 f9 3c bf 82 28 b2 bf
       -1.3976283 0.21878603 -0.73818785 -1.3918612
000230 96 10 29 be 5c 38 27 be 88 de fb be 4f 2b 9b bf
       -0.16510233 -0.16330093 -0.49193215 -1.2122592
000240 7e bb 2b bf 5e 92 bc ba d2 28 0b 3f 3e 6c f4 be
       -0.67082965 -0.0014386883 0.5435916 -0.47738832
000250 a0 ab 61 bf 95 0e 8b bc 52 2f 88 be f1 20 be bf
       -0.88152504 -0.016974727 -0.26598603 -1.4853803
000260 fa 0f 98 bf e9 ec 83 bd 2a e4 18 bf a1 68 2f bf
       -1.1879876 -0.064416714 -0.5972315 -0.68519026
000270 7a 5c e1 bd 7e a5 44 3f 68 81 a6 bf a5 90 cf 3d
       -0.11003967 0.7681502 -1.3008242 0.10135011
000280 f1 04 11 3f 0b 09 c7 be 39 cd b2 be 13 40 ad be
       0.56648165 -0.38874087 -0.34922197 -0.33837947
000290 95 4c 8a bf 8b 53 db be ad ea a5 be 98 f3 c4 3f
       -1.0804621 -0.42837176 -0.32405606 1.5386839
0002a0 45 17 78 3e 94 69 3c be 46 77 92 be ae f4 be bf
       0.24227627 -0.1839965 -0.28606623 -1.491842
0002b0 5b b1 83 be 4d e0 66 bf 7c c4 d9 3d 61 d0 c0 3f
       -0.2572125 -0.90186006 0.106331795 1.5063592
0002c0 6f bb 31 bf 2c b9 be bf 66 2f 0d bf 8d 49 47 bf
       -0.69426626 -1.490026 -0.5515045 -0.77846605
0002d0 2c bd 25 bf 5b a6 6d bf f2 6b b8 be b3 75 2e be
       -0.6474178 -0.92831963 -0.36019856 -0.17037086
0002e0 69 2b 32 bf 9b b8 3d 3e ea d4 de be bb 61 6f 3d
       -0.6959749 0.18527453 -0.43521816 0.058442812
0002f0 a5 7d 27 bf 5d d5 60 bf 9e 20 29 bc 60 5f 6f 3e
       -0.65426093 -0.87825567 -0.010322718 0.23376226
000300 ca 7a c3 bc 05 bf c2 be 4b fa 81 be a7 69 f3 be
       -0.023862261 -0.3803636 -0.2538627 -0.47541544
000310 44 d1 02 bf 7d a9 88 bf 08 92 c5 bd c4 bb 5a 3f
       -0.51100564 -1.0676724 -0.09646994 0.8544276
000320 b4 b2 9c be 93 58 f4 be 68 d4 08 3f d5 ff 2f bf
       -0.3060509 -0.47723827 0.53449106 -0.68749744
000330 1b b3 af 3e d3 d5 64 3e 99 ac bb 3f ac 18 f8 bc
       0.34316334 0.22347192 1.4662048 -0.030285202
000340 fd 53 48 bf 1b 17 6b 3e a3 db ad be 7d d8 1b 3e
       -0.78253156 0.22958033 -0.33956632 0.15219302
000350 a8 aa 18 40 4e 6f a1 bb 43 29 c2 bf 5d 86 be be
       2.385416 -0.0049265986 -1.5168842 -0.37211886
000360 ab 28 2b 3e 39 12 7f 3e f2 58 25 3f fb 15 05 3f
       0.16714732 0.24909295 0.64588845 0.51986665
000370 c4 21 64 3e 43 71 a3 bf 18 7c b1 3e 11 e9 21 bf
       0.22278506 -1.276894 0.3466499 -0.63246256
000380 f6 bf 30 3f 53 68 45 3e ce 85 ab be 4a 7f 46 bd
       0.6904291 0.19278078 -0.33500522 -0.048461236
000390 fa 93 e2 3e d2 7c 95 3d 3a e0 c6 be 48 02 6a bf
       0.44253522 0.07299198 -0.38842946 -0.9140973
0003a0 49 05 c3 3f 05 c7 b3 bf 7a cd 11 bf 9d 15 58 3f
       1.5235988 -1.4045111 -0.5695416 0.8440798
0003b0 a2 ec 84 bf b7 9f 93 bb 6d b5 86 bf 94 58 21 bf
       -1.0384715 -0.0045051235 -1.0524117 -0.63025784
0003c0 b0 f7 a5 3d 22 27 9d 3e 39 f9 03 bf 4f d5 80 be
       0.08103883 0.30693918 -0.5155216 -0.25162742
0003d0 9f ed ae be 0d a5 9f be 95 ee 89 be 8b 82 60 3d
       -0.34165666 -0.3118061 -0.26939836 0.054811995
0003e0 a2 fb 4d bf ff bd 77 bf 49 f9 f1 3e a1 5c 50 bf
       -0.80462086 -0.96774286 0.47260502 -0.8139134
0003f0 14 96 b0 bf 14 41 b0 3c 06 22 6b bf bc 79 96 3f
       -1.37958 0.021515407 -0.9184879 1.17559

net.4.weight f4 [21, 256]
000000 d0 69 a6 be 4b 93 5a bf 66 c2 b6 3e c0 b9 e9 3d
       -0.32502604 -0.85381 0.3569519 0.11412382
000010 d8 dc f2 be 8c 71 dc bd 3a 11 9a 3e 39 71 24 3c
       -0.47434115 -0.10763845 0.30091268 0.01003676
000020 87 74 4d bf 0b 9a 0b 3f 70 9c af be da ff 7d bf
       -0.8025593 0.54531926 -0.3429904 -0.99218524
000030 4b 9d c4 be 45 35 d8 be 06 69 1a bf 55 df 87 bf
       -0.38401255 -0.4222814 -0.60316503 -1.061503
000040 29 38 f1 bd 18 c3 3b 3f e1 f4 49 3f 06 c1 82 bf
       -0.1177829 0.73344564 0.7888928 -1.0215156
000050 3c 15 ff 3e f8 5e 22 bf b0 9f 5d 3f 18 28 c7 be
       0.49820888 -0.6342616 0.8657179 -0.38897777
000060 5a 3d 33 3f 6a 98 96 be f7 f6 30 bf 0b 6c 2d be
       0.7001549 -0.29413158 -0.6912684 -0.16935746
000070 da a9 a0 3e b8 8e 4f bf ed 01 c4 3f c3 aa b4 3f
       0.31379586 -0.81077147 1.5313088 1.4114612
000080 15 79 47 3f 76 e1 89 3e 93 8f 11 bf a1 00 55 be
       0.7791913 0.26929826 -0.568597 -0.20801021
000090 56 bf 01 be 49 55 5b bf f3 47 8a 3f 00 fc 3f 3c
       -0.12670645 -0.8567701 1.0803207 0.011717796
0000a0 ea 58 ab 3d d5 7c 51 be 84 ba 4e 3f de 22 46 3e
       0.083665684 -0.20457776 0.8075335 0.19349238
0000b0 60 ee 0c be 5d 6b 65 bf dd 44 56 bf f7 86 4b bd
       -0.13762808 -0.8961695 -0.8369883 -0.04968926
0000c0 66 84 ce bd db 40 49 3f b9 5d 7e bf 2e 26 2e bf
       -0.10083847 0.78614587 -0.9936176 -0.6802701
0000d0 40 33 b0 bd fd 20 a7 3f 1f 98 aa 3e 05 40 63 3f
       -0.08603525 1.3056942 0.33319184 0.8876956
0000e0 da 30 c1 3e a3 17 f3 bd ce a3 e8 3e ad a7 a5 3e
       0.37732583 -0.11869743 0.45437473 0.3235449
0000f0 da df 9e 3d ed a7 ee 3e 93 9b 4b bf 51 90 ae be
       0.0775754 0.46612492 -0.7953426 -0.3409448
000100 1c fe 1d 3f 2e a1 8c be f6 75 0f 3f 02 f8 74 3e
       0.61715865 -0.2746672 0.5603937 0.23922732
000110 b8 bc 33 3f 41 30 e5 3e fb 38 df 3e b1 8f 9c bf
       0.70209837 0.44763377 0.4359816 -1.2231351
000120 c7 d0 00 bf 6a 0d b8 3e 37 40 e7 be 92 b5 fe bc
       -0.5031857 0.35947734 -0.4516618 -0.031092439
000130 bf 0a 29 3e eb a3 2e bf d1 8d 7b 3d f9 89 bf 3f
       0.16508006 -0.6821887 0.061414544 1.4963981
000140 29 7d b0 3e 95 7f c8 bf 26 f2 5c 3f 93 42 8c be
       0.3447049 -1.5663935 0.8630699 -0.27394542
000150 76 12 93 3f ce f2 28 3e 4e 14 07 3e 58 fc db bd
       1.1490009 0.16498873 0.1319134 -0.1074149
000160 0c 7a 36 3f 0b f9 51 3d 1f a9 1a 3f 56 48 11 be
       0.7127998 0.051262897 0.6041431 -0.1418775
000170 9f 6f 47 be f0 d7 ee be ad 96 81 bf fd fc a8 3d
       -0.19476174 -0.46649122 -1.0124108 0.08251379
000180 bb f8 d2 3e ca d9 2f 3e e2 ea 40 bf d3 96 ce 3f
       0.4120539 0.17172924 -0.753584 1.6139778
000190 0c 9e a4 be 21 3b 2d 3f ff 9e a2 bf c1 63 93 3e
       -0.3215183 0.6766835 -1.2704772 0.28787044
0001a0 fe 90 04 bf ce 9b 08 bf 48 62 d6 bd 69 80 9c bf
       -0.5178374 -0.5336274 -0.104679644 -1.2226688
0001b0 5c 01 dc be 07 02 33 3f 74 49 00 3f 61 26 69 bf
       -0.42969787 0.6992497 0.5011208 -0.91074187
0001c0 76 c4 1f bf 25 f7 c5 3e 9c 1a 44 bf 92 f4 7c 3f
       -0.6240915 0.3866512 -0.766031 0.98810685
0001d0 12 a4 a4 be 2d 92 ee 3e 0a c1 07 bf 96 d8 85 bf
       -0.32156426 0.46595898 -0.5302893 -1.0456722
0001e0 d3 46 2f bf f6 b3 e3 bd b9 a5 77 be c3 de 85 3e
       -0.68467444 -0.11118309 -0.24184312 0.26146516
0001f0 7e ba 82 bf c6 09 aa be 6e 1a be bf 36 1d 39 bf
       -1.0213163 -0.33210582 -1.4851816 -0.723102
000200 13 56 a0 be 4f 87 e9 3e 9d 4d 8a 3f 74 e9 13 3f
       -0.3131567 0.45611045 1.0804936 0.57778096
000210 37 13 6c 3e 49 22 14 bf 8a b3 bb be 36 bd 74 bf
       0.23054205 -0.57864815 -0.36660415 -0.9560121
000220 20 64 9d 3f 9d 01 2b bf d9 b2 05 3f f2 ad 8b 3e
       1.2296181 -0.66799337 0.52226025 0.27281147
000230 09 98 b0 bf d8 fa 4c 3e 96 01 a8 3c b3 00 aa 3d
       -1.3796397 0.20017564 0.020508569 0.083009146
000240 c3 96 76 3e ec b3 5f 3e e8 5f 6a 3f ad c5 2f 3f
       0.24080949 0.21845978 0.9155259 0.68661004
000250 b2 0c 39 bf a0 2f 71 bf 67 6b ff bf 34 a0 00 3f
       -0.72284997 -0.94213295 -1.9954652 0.5024445
000260 a1 6e 97 3e fe 41 6a be 1b 47 07 bf 04 19 08 c0
       0.2957659 -0.22876737 -0.52842873 -2.1265268
000270 12 0f 27 be 8b 36 f2 3e 86 5a 50 bf e7 8e f0 3e
       -0.16314343 0.47307238 -0.8138813 0.46984026
000280 fb bb 1c be 3d 07 7a be cc 20 dc 3e e7 f3 5a bf
       -0.15306084 -0.24416824 0.42993772 -0.85528415
000290 d8 df dc 3e 34 b9 c0 be e4 2c 86 bd dc 97 09 3f
       0.4313953 -0.376413 -0.06551531 0.53747344
0002a0 cb ac c5 be 5b 58 b8 bf 7e b5 19 40 51 93 bb bf
       -0.38608393 -1.4401964 2.4017024 -1.4654332
0002b0 a1 a1 04 3e 55 54 5a 3e ea 69 cc bf 59 7f 8a 3e
       0.12952282 0.21321233 -1.5969822 0.27050284
0002c0 38 51 33 be ee 08 cf 3c 06 df b1 bf ed 84 5d bf
       -0.17511451 0.025272813 -1.3896186 -0.86530954
0002d0 ab ca 6b 3f f9 d1 69 bf 8c 87 5e 3f 15 14 3c bc
       0.9210612 -0.9133602 0.8692558 -0.011479397
0002e0 ed 4c e6 3e a3 54 7d 3e e8 7a b3 3e 9e 0c 9f bf
       0.44980565 0.24739318 0.35054708 -1.2425725
0002f0 ce 3a 92 bf 29 be 81 3e 22 87 1c be e6 54 a7 bd
       -1.1424196 0.25340393 -0.15285924 -0.0817049
000300 4f 7b 39 bf b4 47 a7 3d 43 1b 83 3e 83 1b 21 bf
       -0.7245378 0.08167973 0.25606737 -0.62932605
000310 c5 f1 87 bf ba 0b 02 be 64 d1 20 bf 50 c7 2e bf
       -1.0620657 -0.12699786 -0.62819505 -0.68272877
000320 bf b2 31 3f b0 91 a7 3e 34 a3 69 be 6c 55 86 3f
       0.6941337 0.32728338 -0.22816163 1.0494819
000330 6a d3 27 3e e2 d3 c1 3e 77 a2 54 be 42 b2 cf 3f
       0.16389242 0.37856966 -0.207651 1.6226275
000340 f2 f4 43 be 46 2d c2 3e 40 79 85 bf 2f cb 6f bf
       -0.19136408 0.37925166 -1.0427628 -0.9366941
000350 ca f0 dd 3e fe cd 9b bd 64 8b 60 3f 69 00 08 40
       0.4334777 -0.07607649 0.87712693 2.125025
000360 d8 c4 b0 3d 51 21 2f 3f 3b 7e b5 3e 2d 8c 06 bf
       0.08631295 0.6841021 0.3544787 -0.5255764
000370 76 62 10 3f a7 0b 00 bf e0 5a 00 be b8 da b7 be
       0.5640024 -0.5001778 -0.12534666 -0.35909057
000380 8d d4 fc bd 61 7c 4a 3c 59 ba b3 3f 47 8b 95 bf
       -0.12345228 0.012358756 1.4041244 -1.1683129
000390 dc dc 94 be ce a9 f6 3f da 7e 8e be fb 09 75 3e
       -0.29074752 1.927057 -0.27831155 0.23929588
0003a0 a9 44 41 bf a8 4b 81 be 8a 98 1e bf 92 03 d2 bf
       -0.7549539 -0.25253034 -0.61951506 -1.640734
0003b0 16 7e fa bd e6 c2 07 3d 8e 0e d1 bf 41 1c 84 bd
       -0.1223108 0.033144854 -1.6332567 -0.064507015
0003c0 df da e6 bd 36 64 a5 3e 7e f5 8c 3f c4 6c 8b 3f
       -0.11272215 0.32303017 1.1012418 1.0892568
0003d0 44 21 8c bf c3 7a 80 3e 35 1a 8a bf 6b ca 70 bf
       -1.0947652 0.2509366 -1.0789248 -0.94058865
0003e0 4f b0 80 3e 63 9a e4 3e 94 24 f2 be 01 7e 7f 3f
       0.25134513 0.44649038 -0.47293532 0.9980164
0003f0 c4 2a 02 bf 51 1a fd be 0d a5 40 3f 10 ea c7 3e
       -0.50846505 -0.4943414 0.7525185 0.39045763

net.4.bias f4 [21]
000000 64 22 60 3e ca b0 85 3f be af ea 3d f0 55 b1 be
       0.21888119 1.0444577 0.114593014 -0.34635878
000010 32 e3 25 3f 74 5e 3d bf 5b 14 1a 3f b6 29 d8 be
       0.647998 -0.7397225 0.6018731 -0.42219323
000020 32 4f be be f7 29 f9 bd 3a 17 d7 be 7b a6 27 3f
       -0.37169796 -0.12166207 -0.42009908 0.65488404
000030 49 ed 72 3f 7f 61 a2 3e b1 f1 54 3e a7 e1 c0 3e
       0.9489332 0.3171501 0.20795323 0.3767216
000040 e1 bb e8 3e 67 52 44 3e d7 32 33 be c5 58 cb 3e
       0.4545584 0.19172059 -0.17499863 0.39716163
000050 5d 40 86 be
       -0.2622098
