Q3/ddpg_actor_step8600000.pth (torch, 357342 bytes, 6 tensors)

net.0.weight f4 [256, 67]
0	0x3dcb012a	0.099123314
1	0x3f79acec	0.9752948
2	0x3ee53958	0.44770312
3	0x40747878	3.8198528
4	0xc08cbe91	-4.3982625
5	0xbeec8746	-0.46196955
6	0xc05d8f46	-3.4618697
7	0x4040c52b	3.0120342
8	0xbf6c8481	-0.92389685
9	0x3e079e52	0.13243988
10	0x3e49a59a	0.19692078
11	0xbf582823	-0.84436244
12	0xc00bc0ed	-2.1836503
13	0x40635d21	3.5525591
14	0xc00deb36	-2.2174811
15	0xc072b0db	-3.7920444
16	0x3e0d0d75	0.13774665
17	0x3fc24b88	1.51793
18	0xbe48bd84	-0.19603544
19	0x3f060511	0.5235148
20	0xbfb691d1	-1.426325
21	0x406d2cb4	3.7058535
22	0x3f10c3ca	0.5654875
23	0xbdd14068	-0.10217363
24	0xbf25a07d	-0.6469801
25	0x3fdf7c68	1.7459841
26	0x3fba827e	1.4571073
27	0x3ff7481d	1.9318882
28	0x3f656e77	0.8962168
29	0x3e8ae419	0.2712715
30	0xbf94fd18	-1.1639738
31	0x3d436132	0.047700115
32	0x400894fd	2.1340935
33	0x3e6587ed	0.22415133
34	0xbe26cefc	-0.16289896
35	0xbe8a8073	-0.27051124
36	0x3fc4c7c6	1.5373466
37	0xc0a063e3	-5.012193
38	0x409bcbbc	4.86862
39	0xbe200d19	-0.15629996
40	0xbe37bfa0	-0.17944193
41	0x3ead21a6	0.33814734
42	0x3f0120fb	0.5044095
43	0x3d48c0b6	0.04901191
44	0x3f26e85a	0.6519829
45	0xbdd0607d	-0.10174654
46	0x3d8c389e	0.06846736
47	0x3f39bd1f	0.725542
48	0xbb92bcf8	-0.0044780932
49	0x3dd49ac3	0.10381081
50	0x3e7a4455	0.24440129
51	0xbd2bd861	-0.041954402
52	0x3dbde733	0.092726134
53	0xbdd055ce	-0.10172616
54	0x3b955df2	0.0045583183
55	0x3ec4d443	0.38443193
56	0x3e3d3cc4	0.18480211
57	0x3eb83160	0.3597517
58	0xbe2ebb3f	-0.17063616
59	0x3c93b09c	0.01802855
60	0xbd91bf0d	-0.07116518
61	0x3dbf3373	0.09335985
62	0x3e5a633f	0.21326922
63	0x3e4649d1	0.19364096
64	0x3d1d4037	0.03839132
65	0xbd9fd230	-0.07803762
66	0xbdb40092	-0.08789171
67	0xbeca861d	-0.39555445
68	0x3eb56f8a	0.3543666
69	0xbf4a3362	-0.78984654
70	0x405d7638	3.4603405
71	0xbfe2c538	-1.7716436
72	0xbe4b3026	-0.19842586
73	0x3e19b94f	0.15012096
74	0xbff68ca9	-1.9261676
75	0xbfeb3e15	-1.8378321
76	0xbf460a99	-0.7735992
77	0xbf55a90d	-0.83461076
78	0xbed46c2f	-0.41488788
79	0x3e8d844d	0.2764
80	0xc0855c09	-4.1674848
81	0xc040be8f	-3.0116308
82	0xbfee6fdf	-1.862789
83	0xbeb0d309	-0.34536007
84	0xbe16afcc	-0.14715499
85	0xbfc05f30	-1.5029049
86	0x3e11c8f4	0.14236814
87	0x3f86b7f0	1.0524883
88	0x4020a7f1	2.5102503
89	0x40a7a0be	5.238372
90	0xbfbcc3c7	-1.4747247
91	0xbf2885de	-0.65829265
92	0x3f91a7e7	1.1379365
93	0xc0169304	-2.3527231
94	0x3f39c262	0.7256223
95	0xbf8144bb	-1.00991
96	0x3e273ffd	0.16333003
97	0x3de68db9	0.112575
98	0x3e937267	0.2879822
99	0xbf589af9	-0.8461147
100	0xbf8364fb	-1.0265192
101	0xbf8fc04b	-1.1230558
102	0xbfa43468	-1.2828493
103	0x3e9e1a6c	0.30879533
104	0x40f9688a	7.794011
105	0xc0996c84	-4.7944965
106	0xbfc3c969	-1.529584
107	0xbd3094e7	-0.043110754
108	0x3f26182a	0.6488062
109	0xc00da5b5	-2.213239
110	0x3f650510	0.8946085
111	0x3d8c71c0	0.068576336
112	0xbe5bfb27	-0.21482526
113	0xbeb5a48d	-0.35477105
114	0x3d3c470a	0.045966186
115	0xbbe8029d	-0.0070803897
116	0xbe55f26c	-0.20893258
117	0xbdbbc80f	-0.091690175
118	0xbdedb7b8	-0.11607307
119	0xbd87f021	-0.06637598
120	0x3d01ad32	0.031659313
121	0xbcd00910	-0.025394946
122	0xbece7852	-0.40326172
123	0x3dab3027	0.08358794
124	0xbd4f6a97	-0.05063876
125	0xbe2693d0	-0.16267323
126	0x3e1913a3	0.14948897
127	0xbbad5048	-0.0052891113
128	0x3c1fe907	0.009760148
129	0xbcbde556	-0.023180645
130	0xbe342b32	-0.17594603
131	0x3d63a0ab	0.055573147
132	0x3dffcf21	0.124906786
133	0xbce29453	-0.027658617
134	0x3e67f402	0.22651675
135	0xbf0b1ac5	-0.5433772
136	0x3ea62972	0.32453495
137	0xc04522c9	-3.080248
138	0x3e5dc40f	0.21656822
139	0xbf8c3414	-1.0953393
140	0x401f900f	2.4931676
141	0x40d9ba0a	6.80396
142	0xbf1625f5	-0.5865167
143	0xbf76cd0e	-0.9640664
144	0x3e74a0d8	0.23889482
145	0xbc721ee8	-0.014777876
146	0x3ebd301b	0.36950764
147	0xbf51b879	-0.8192211
148	0x4070d7c1	3.7631686
149	0xc0039d52	-2.056477
150	0xc073f439	-3.8117812
151	0xc02aed6b	-2.6707408
152	0x4010eb29	2.264353
153	0xbe542332	-0.20716551
154	0xbfab7f3d	-1.3398205
155	0xbfd68bca	-1.676141
156	0x3eba01eb	0.36329588
157	0x3f8fd43f	1.1236647
158	0xbe9d8173	-0.30762824
159	0xc046d1bd	-3.1065514
160	0x3fc5ffac	1.546865
161	0x403a21c2	2.9083104
162	0xbf98564d	-1.1901337
163	0x3f350302	0.70707715
164	0x3fa6c676	1.3029315
165	0xbf136b7e	-0.57585895
166	0x3f4dfb92	0.8046199
167	0xbf93e5fc	-1.1554561
168	0x3c9dd1f4	0.019265153
169	0x3eda1a63	0.42598256
170	0x3ea8c703	0.32964334
171	0x40e49c68	7.1440926
172	0xc026f8b8	-2.6089306
173	0xbfccb5c4	-1.599297
174	0xbec3bb4a	-0.38228828
175	0x3f3b20a5	0.73096687
176	0xbf07bb39	-0.53020054
177	0xbd8f4719	-0.06995983
178	0xbf89bb25	-1.0760237
179	0x3f1652a3	0.58719844
180	0x3d92602e	0.07147251
181	0xbddf5457	-0.109047584
182	0x3ede7766	0.4345047
183	0xbd667f95	-0.056274015
184	0x3e42e60d	0.1903307
185	0xbd8f6e8a	-0.070035055
186	0xbd481d0f	-0.048855837
187	0x3c9bd643	0.019023066
188	0xbd9c7e25	-0.07641248
189	0xbe53a2d6	-0.20667586
190	0x3e4a42ac	0.19751996
191	0x3edc43d5	0.43020502
192	0xbe9c073b	-0.30474266
193	0x3d6fe146	0.058564447
194	0xbd1ae40c	-0.03781514
195	0xbe0b4e1e	-0.13604018
196	0x3dcb278d	0.09919653
197	0x3daea63c	0.085278004
198	0x3d3071ef	0.043077406
199	0xba2eeffb	-0.0006673333
200	0xbdcd3f30	-0.10021818
201	0xbbf86a81	-0.0075810556
202	0xbf93774c	-1.1520782
203	0x3f6f96d0	0.93589497
204	0x3ee0e4e3	0.43924627
205	0xc00ccefb	-2.200133
206	0xbb2adde3	-0.0026072196
207	0xc039e782	-2.904755
208	0x3f3b33d5	0.73125964
209	0x3e6d1746	0.2315341
210	0xbfdfcbf3	-1.7484115
211	0x3e22913c	0.15875715
212	0x3f2da6f8	0.678329
213	0xbfd5a0bd	-1.6689678
214	0x401a6ca1	2.4128802
215	0x3fa1407b	1.2597803
216	0xc04ddce3	-3.2166069
217	0xbfe5ccd1	-1.795313
218	0x4022b06e	2.5420184
219	0xc0181eeb	-2.376887
220	0x406d29e5	3.705682
221	0x401292d8	2.2902126
222	0x40c93ddb	6.2888007
223	0xbf17b7a3	-0.5926458
224	0x3ff550da	1.9165299
225	0x3f66309a	0.8991791
226	0x4081bc94	4.05427
227	0xbc18f5f1	-0.009335981
228	0x3f22f984	0.6366198
229	0x3f9dad8c	1.2318587
230	0xbf5ed113	-0.8703777
231	0xbef36146	-0.4753515
232	0xbe2e5e20	-0.17028093
233	0x3e888089	0.26660565
234	0xbd91c133	-0.07116928
235	0xbed76140	-0.42066383
236	0xbf4b5241	-0.79422385
237	0x3eb247b9	0.34820345
238	0x3e9a7cdd	0.30173388
239	0x3fa5c659	1.2951156
240	0xc0ce7706	-6.452029
241	0xbf7c2fc8	-0.9851041
242	0x3eff21cc	0.49830472
243	0x3f9166ac	1.1359458
244	0x3f5f5d44	0.8725169
245	0x3eb192b4	0.34682238
246	0xbea8a15c	-0.32935607
247	0xbeda22fc	-0.42604816
248	0x3ce97a43	0.028500682
249	0x3dfb197a	0.12260719
250	0xbe9e06d6	-0.3086459
251	0xbe196cb1	-0.14982869
252	0x3e06696c	0.13126153
253	0xbdba8e19	-0.09109134
254	0xb9062f45	-0.00012796845
255	0x3d7326b1	0.05936307

net.0.bias f4 [256]
0	0xbe3c3dc2	-0.18382934
1	0x3f5226ee	0.8209065
2	0xbf73616f	-0.95070547
3	0x3ef88c5b	0.48544583
4	0x3f43e0c6	0.7651485
5	0xbf02d3f2	-0.5110465
6	0xbec9fd79	-0.39451197
7	0x3ddab687	0.106793456
8	0xbfe782d9	-1.8086807
9	0xbf9e1acb	-1.2351927
10	0x3f265c98	0.64985037
11	0xbe0cf4fd	-0.1376533
12	0xbd9aadd4	-0.07552686
13	0xbed18ceb	-0.40927824
14	0xbfd25d5f	-1.6434745
15	0xbf132049	-0.5747114
16	0xbf3b9c78	-0.7328563
17	0xbf3e2a73	-0.7428352
18	0x3fb3dd7b	1.4051965
19	0xbf6765a9	-0.90389496
20	0xbfd711c7	-1.68023
21	0x3e148d3a	0.14506999
22	0xbfefbc74	-1.8729386
23	0xbe97425b	-0.29542813
24	0xbf359411	-0.70929056
25	0xbfc12eda	-1.5092423
26	0xbe2bbabb	-0.16770451
27	0xbf60d78b	-0.8782889
28	0xbf24c658	-0.6436515
29	0xbe565aec	-0.20933121
30	0x3eb7fa2c	0.35933053
31	0xbdfa0e32	-0.12209739
32	0xbeac91c6	-0.33704966
33	0x3f8a1680	1.0788116
34	0x3d9c5580	0.07633495
35	0x3fa47cee	1.2850626
36	0xbdeeaf09	-0.11654479
37	0xbe701602	-0.23445895
38	0x3f792662	0.9732419
39	0xbeceb9e0	-0.40376186
40	0xbd40c7a2	-0.047065385
41	0xbfce1459	-1.609996
42	0x3f416a41	0.75552756
43	0x3e7758eb	0.24155013
44	0x3f9b33e5	1.2125212
45	0xbe13083f	-0.14358614
46	0x3dfc577b	0.12321373
47	0xbef58ead	-0.47960415
48	0xbf405eab	-0.7514445
49	0xbeb74db2	-0.35801464
50	0x3f15e5a9	0.5855356
51	0xbf04a5e2	-0.5181562
52	0x3f337eb6	0.7011522
53	0x3f820eaa	1.0160725
54	0x3c8bbf1f	0.017058907
55	0xbf50ff29	-0.81639344
56	0x3e722597	0.23647152
57	0x3ff67df3	1.9257187
58	0xbfd710e7	-1.6802033
59	0xbeb5475c	-0.35406005
60	0xbffb2110	-1.9619465
61	0xbea1defa	-0.3161543
62	0xbf07c843	-0.5303995
63	0x3e8d2389	0.27566174
64	0x3d8d3177	0.068942
65	0xbe924136	-0.28565377
66	0x3f6fabdf	0.9362163
67	0xbecc22d4	-0.39870322
68	0xbf01e7f5	-0.50744563
69	0xbf31c8ae	-0.6944684
70	0xbec909f6	-0.39265412
71	0xbf51cac3	-0.81950015
72	0xbf13b621	-0.5769978
73	0xbf994c21	-1.1976358
74	0xbf40b9ec	-0.75283694
75	0xbf0be2e0	-0.5464306
76	0xbf5e2cde	-0.8678721
77	0xbf3981a4	-0.7246344
78	0xbf2b3584	-0.66878533
79	0x3e1cf79d	0.15328832
80	0x3f4991d6	0.78738153
81	0xbf7c60d7	-0.98585266
82	0xbfa76c4c	-1.3079925
83	0x3f6ba9fa	0.9205624
84	0xbf66da87	-0.90177196
85	0xbf2549cc	-0.6456573
86	0x3ebe99d6	0.37226743
87	0xbf8e6743	-1.1125263
88	0x3e329bd2	0.17442253
89	0x3efd796f	0.4950671
90	0x3f2dda0e	0.6791085
91	0x3f367f2f	0.71287817
92	0xc01a23cf	-2.4084356
93	0xbf48452a	-0.78230536
94	0xbfb23a44	-1.3924031
95	0x3decc9c0	0.11561918
96	0xbfc9d95b	-1.5769457
97	0xbf824a4e	-1.0178926
98	0xbf44f05d	-0.76929265
99	0x3cf2d769	0.029643731
100	0xbea73f48	-0.32665467
101	0xbf20e8ad	-0.62855035
102	0x3f09942b	0.5374171
103	0xbf9d1169	-1.2270938
104	0x3d7a1141	0.06105161
105	0xbf90212c	-1.1260123
106	0xbfc70bb9	-1.5550452
107	0x3e936e5f	0.28795144
108	0xbf1c218e	-0.609887
109	0xbec86ca2	-0.3914538
110	0xbe5c3274	-0.21503621
111	0xbf2261ad	-0.6343029
112	0xbef0c35c	-0.47024047
113	0x3bf7755d	0.0075518326
114	0xbfcb6097	-1.5888852
115	0xbef039b7	-0.46919033
116	0xbe91bbb3	-0.28463516
117	0x3f00211d	0.50050527
118	0xbf8dbfa8	-1.1074114
119	0xbe0fd72d	-0.14046927
120	0x3ec2aaf9	0.38021067
121	0xbf2f2f88	-0.684319
122	0x3f753c49	0.9579511
123	0xbf460e49	-0.7736555
124	0x3efc8cad	0.49326077
125	0x3d8183e0	0.06323981
126	0xbf715c06	-0.9428104
127	0xbf40caf7	-0.753097
128	0x3f9b8072	1.2148573
129	0x3e59d4d5	0.21272595
130	0xbe035176	-0.12824044
131	0xbddf8188	-0.10913378
132	0xbf01a39e	-0.50640285
133	0xbf170842	-0.58996975
134	0x3e8cd9aa	0.27509815
135	0xbea22116	-0.31665868
136	0xbf52c9ba	-0.8233906
137	0x3ccd827f	0.02508664
138	0xbe963a69	-0.29341438
139	0x3eb2cae5	0.3492042
140	0xc013019a	-2.2969728
141	0xbf1e703d	-0.6189001
142	0xbf6d7a3b	-0.92764634
143	0xbf83b87a	-1.0290673
144	0x3d4bf6ab	0.049795788
145	0xbfaf97bd	-1.3718182
146	0xbf78150a	-0.96907103
147	0xbf53b411	-0.82696635
148	0xbec1af48	-0.3782904
149	0xbf631aed	-0.8871296
150	0x3fe36868	1.7766237
151	0x3d75972a	0.059958614
152	0x3d7c3ad4	0.06157954
153	0xbfc2538f	-1.518175
154	0xbe4b734c	-0.19868201
155	0xbdf5cb0d	-0.120016195
156	0x3f9c2905	1.2200018
157	0x3ee001ad	0.4375128
158	0xbf841bc9	-1.0320979
159	0xbf7d8e25	-0.9904502
160	0xbff6dd2c	-1.9286246
161	0xbfa1f2ce	-1.2652223
162	0xbd4ce4ce	-0.050022893
163	0x3eaf95f6	0.342941
164	0xc010219b	-2.252051
165	0x3f1d65ec	0.61483645
166	0x3f09f9e7	0.53896946
167	0xbf8cacd3	-1.0990242
168	0x3f572454	0.8403981
169	0x3f817c32	1.0116026
170	0xbecea2c9	-0.4035857
171	0x3e326c12	0.17424038
172	0x3f0146ca	0.5049864
173	0x3edab0f2	0.42713124
174	0xbfa85958	-1.3152266
175	0xbfc17be3	-1.5115932
176	0xbf88e3c7	-1.0694512
177	0xbf91d477	-1.1392964
178	0xbf35a024	-0.7094748
179	0xbeb6c220	-0.3569498
180	0x3d959d33	0.07305374
181	0x3f78c62b	0.9717738
182	0x3e53cfb9	0.20684709
183	0x3e5ce03d	0.21569915
184	0xbfd19b1a	-1.6375458
185	0x3d564975	0.052316148
186	0xbf852d2b	-1.0404409
187	0xbfda55fa	-1.7057488
188	0xbfca7c61	-1.5819207
189	0xbf00f28a	-0.50370085
190	0xbf52cd72	-0.82344735
191	0x3f102cbc	0.5631826
192	0xbf86f0ed	-1.0542275
193	0x3d0b55cb	0.034017365
194	0xbfc95578	-1.5729208
195	0xbf6dc747	-0.928822
196	0xbfa96bc1	-1.3236009
197	0xbd5b69ef	-0.053567823
198	0x3eecadca	0.4622634
199	0xbf57d8ac	-0.8431499
200	0xbf5e91a9	-0.8694101
201	0xbf6f6361	-0.93511015
202	0xbfa4cefb	-1.2875665
203	0xbe015c3a	-0.12632838
204	0x3d552634	0.052038386
205	0xbf70e043	-0.94092196
206	0xbbe8c2ae	-0.0071032858
207	0xbf478f0c	-0.7795265
208	0x3e73ae38	0.23796928
209	0xbd9d6770	-0.07685745
210	0xbf14b529	-0.5808893
211	0xbe67999a	-0.22617188
212	0xbe0232f5	-0.12714751
213	0xbfa78397	-1.3087033
214	0xbf41542b	-0.75519055
215	0xbeed9a8f	-0.4640698
216	0xbf863acc	-1.0486693
217	0xbf056326	-0.52104414
218	0xbf1f0162	-0.62111485
219	0x3f3e4231	0.7431975
220	0xbf37b998	-0.7176757
221	0xbf1e5ff8	-0.61865187
222	0xbf408741	-0.7520638
223	0x3fece4aa	1.8507283
224	0x3fdcebab	1.725942
225	0x3c6ce2a6	0.014458334
226	0xbf98201e	-1.1884801
227	0xbf053a0e	-0.5204171
228	0xc007b625	-2.1204922
229	0x3e8db722	0.27678782
230	0xbf58d4e6	-0.8469986
231	0x3fa976db	1.3239397
232	0x3f38b08e	0.721444
233	0xc0099a4c	-2.1500425
234	0xbddd9f4c	-0.10821399
235	0xbfbdd4d5	-1.4830576
236	0xbf3062f5	-0.68900996
237	0x3d90b7fb	0.070663415
238	0x3f117efa	0.56834376
239	0xbfcf8124	-1.6211286
240	0xbf8063ba	-1.0030434
241	0xbfb7dde9	-1.4364597
242	0xbfd1081f	-1.6330603
243	0xbf87b86d	-1.0603157
244	0xbe435463	-0.1907516
245	0x3e9e334a	0.30898505
246	0xbfe350f5	-1.7759081
247	0x3f5d007b	0.8632886
248	0x3fb10311	1.3829061
249	0xbfa477ed	-1.2849098
250	0x3e3e461a	0.18581429
251	0x3f05ec50	0.5231371
252	0xbfb1a031	-1.3877012
253	0xbf2af1a9	-0.66774994
254	0x3dcc8803	0.0998688
255	0x3e78b41f	0.2428746

net.2.weight f4 [256, 256]
0	0x3d672f04	0.056441322
1	0xbf21b4a3	-0.63166255
2	0x3f8bf0eb	1.0932897
3	0x3d81ba4d	0.06334362
4	0x3f329f66	0.6977447
5	0x3f44973e	0.7679328
6	0x3ff891c6	1.9419487
7	0x3f876451	1.0577489
8	0x3f93e91f	1.1555518
9	0xbe19eedc	-0.15032524
10	0x3f1191b8	0.56862974
11	0xbf102a48	-0.56314516
12	0xbf542c54	-0.8288014
13	0x3effc2f8	0.49953437
14	0xbf9eed51	-1.2416173
15	0xbdaa389d	-0.083115794
16	0xbf3231d5	-0.6960729
17	0xbd3573c6	-0.044299863
18	0xbd976e17	-0.07394045
19	0x3f8c0a15	1.0940577
20	0x3e92547f	0.2858009
21	0x40088636	2.1331916
22	0xbf3ae6e6	-0.73008573
23	0xbedf4296	-0.4360549
24	0xbe183c75	-0.14866813
25	0x3e3e0257	0.1855558
26	0x3fa20bf6	1.26599
27	0xbe3550a0	-0.17706537
28	0xbf1bbc6d	-0.6083439
29	0xbfc08e82	-1.504349
30	0x3f8813b3	1.0631012
31	0x3ea33ec1	0.31883815
32	0xbef2b93e	-0.47406954
33	0xbf0e84ef	-0.5567159
34	0x3ec4e585	0.3845636
35	0xbea7b16d	-0.32752553
36	0x3f5403d6	0.82818353
37	0xbf18011e	-0.59376705
38	0xbd52fae0	-0.051508784
39	0x3d8fa5a7	0.070140176
40	0x3f5c3fa3	0.860346
41	0xbd318a35	-0.043344695
42	0xbc96582b	-0.018352589
43	0xbfe86c28	-1.8158007
44	0x3f7f3b62	0.99699986
45	0xbf5319fe	-0.82461536
46	0x3fa222aa	1.2666829
47	0xbf982eb5	-1.1889254
48	0x3f2c4518	0.6729293
49	0xbf2e1b04	-0.6800997
50	0xbf81a3a7	-1.0128068
51	0x3ea26889	0.3172038
52	0xbf85e5c3	-1.0460743
53	0xbfaa79d7	-1.3318433
54	0x3f5f258c	0.87166667
55	0x3f82233f	1.0167006
56	0x3e870458	0.26370502
57	0x3ed8387d	0.42230597
58	0xbe523555	-0.20528157
59	0x3fdfc7e1	1.7482873
60	0xbffd9b37	-1.9812993
61	0xc01cc897	-2.449743
62	0xbe52a3e1	-0.20570327
63	0x3f969da0	1.1766853
64	0x3f20437a	0.6260296
65	0x3fa60213	1.2969383
66	0x3f137be5	0.57610923
67	0x3ca2c0e4	0.019867368
68	0xbe82d31d	-0.25551692
69	0xbf8432f5	-1.0328051
70	0x3e38b141	0.18036367
71	0x3f8e4647	1.1115197
72	0x3e86e8c0	0.2634945
73	0xc015503c	-2.333022
74	0x3f1adb8f	0.6049127
75	0x3df72a12	0.12068571
76	0xbeb12e40	-0.34605598
77	0xbe652294	-0.22376472
78	0xbebb52af	-0.3658652
79	0x3e989f52	0.29809052
80	0xbe272c9a	-0.16325608
81	0xbefde342	-0.49587446
82	0x3cc24dd1	0.023718746
83	0x3decd71d	0.11564467
84	0xbea6c5cf	-0.3257279
85	0xbe9bad47	-0.30405638
86	0xbf9014bb	-1.1256326
87	0xbfa5ad0c	-1.2943435
88	0xbf116f78	-0.5681071
89	0xbf8ccda3	-1.1000255
90	0xbee37792	-0.44427162
91	0xbebadfd3	-0.3649889
92	0xbe864420	-0.2622385
93	0xbdfed63f	-0.12443208
94	0x3f2cb7ab	0.67467755
95	0x3e9a8d01	0.30185702
96	0xbe22c29a	-0.15894547
97	0x3f627496	0.88459146
98	0x3f37a12b	0.717303
99	0xbfdccc26	-1.7249801
100	0x3fd00002	1.6250002
101	0x3f329364	0.6975615
102	0xbfc7ba9e	-1.5603826
103	0xbee1880c	-0.44049108
104	0xbbcd30df	-0.0062619294
105	0xbdad3411	-0.084571965
106	0x3f49ddb1	0.788539
107	0x3e7eff37	0.24902044
108	0xbeb1a296	-0.34694356
109	0xbfaa4172	-1.3301222
110	0x3fb1bd70	1.3885937
111	0xbfb1bf47	-1.3886498
112	0x3fbf2b7f	1.4935149
113	0x3f4370e7	0.7634415
114	0xbf758a3a	-0.9591404
115	0xbf61ce40	-0.8820534
116	0xbefcce7a	-0.4937628
117	0xbea67eee	-0.32518715
118	0xbf9908e1	-1.1955835
119	0xbf525ea1	-0.8217564
120	0x3f7d2c16	0.98895395
121	0x3dffac45	0.1248403
122	0xc00b8c84	-2.1804514
123	0xbe9fdf51	-0.31225064
124	0x3d82afc9	0.063811846
125	0x3da449a4	0.08021858
126	0xbe8d9950	-0.2765603
127	0x3f415bbd	0.75530607
128	0xbf0d9dd0	-0.5531893
129	0xbd8f8e1c	-0.07009527
130	0x3ecc0d8b	0.39854082
131	0x3ee9647c	0.45584476
132	0xbf0824fa	-0.5318142
133	0xbeb06f36	-0.34459847
134	0x3f802371	1.0010816
135	0x3fa26bb0	1.2689114
136	0xbec3539b	-0.38149723
137	0x3e5896b1	0.21151234
138	0xbe76adf9	-0.24089803
139	0xbf805be8	-1.0028048
140	0xbf8a2d6c	-1.0795112
141	0x3f1e06fe	0.6172942
142	0x3ebe6bb6	0.37191552
143	0x3f8cfb50	1.1014194
144	0xbf2dce6b	-0.67893094
145	0xbcdb5aad	-0.026776636
146	0xbf045542	-0.51692593
147	0xbb492471	-0.0030691887
148	0xbff75098	-1.932147
149	0xbfa7e822	-1.3117716
150	0xbfabb0a6	-1.3413284
151	0xbf5283f7	-0.8223261
152	0x3e466181	0.19373132
153	0x3f46517a	0.77468073
154	0xbeb06742	-0.3445378
155	0xbed7157f	-0.42008588
156	0xbf86c7b6	-1.0529697
157	0x3fd614d8	1.6725111
158	0x3fa3d88e	1.2800462
159	0xbf3f46e4	-0.74717546
160	0x3ed70951	0.41999295
161	0xbf9d99d2	-1.2312567
162	0xbf7e11c0	-0.99245834
163	0xbeacd70a	-0.33757812
164	0xc00ff373	-2.249234
165	0xbf03fe5d	-0.5156
166	0xbe84b3b0	-0.2591834
167	0xbf79cf90	-0.9758234
168	0xbf0402fb	-0.5156705
169	0xbf51c339	-0.8193851
170	0xbfa78713	-1.3088096
171	0x3f912c43	1.1341633
172	0x3f5e7d3e	0.86909854
173	0xbe00f8d7	-0.12594925
174	0xbcabb898	-0.020962045
175	0xbee36a02	-0.44416815
176	0xbe58a998	-0.21158445
177	0xbf9d4047	-1.2285241
178	0x3f18dcb8	0.5971179
179	0xbeea3a20	-0.4574747
180	0xbeafedd6	-0.34361142
181	0xbdf3927c	-0.11893174
182	0x3f5687c1	0.83800894
183	0xbe2479dd	-0.16062112
184	0xbf04b098	-0.5183196
185	0x3e23608b	0.15954797
186	0x3ee7fa29	0.45308045
187	0x3d5d10f7	0.053971257
188	0x3f6f0b99	0.9337707
189	0xbe634f80	-0.22198296
190	0xbfb6a7c8	-1.4269953
191	0xbea901bd	-0.3300914
192	0x3e9bd6e4	0.30437386
193	0xbf28c743	-0.6592905
194	0x3f488c7f	0.7833938
195	0xc0186322	-2.3810506
196	0x3e01d9b4	0.12680703
197	0x3edbea21	0.42952064
198	0xbf63ebcc	-0.8903167
199	0x3dae7c82	0.08519842
200	0xbfd1948c	-1.6373458
201	0xbe1e7b4a	-0.15476719
202	0xbf4415e1	-0.76595885
203	0x3fb370cf	1.4018801
204	0xbe0f2a6a	-0.13981023
205	0x3e722983	0.23648648
206	0x3d98cfef	0.07461535
207	0x3f674206	0.9033512
208	0x3f2ed8a5	0.68299323
209	0xbed08ee7	-0.40734026
210	0xc02029d3	-2.5025527
211	0x3ecbe423	0.39822492
212	0xbfaed113	-1.3657554
213	0x3e02d65e	0.12777087
214	0x3eb0deb4	0.3454491
215	0x3e1643bf	0.1467428
216	0x3f41ca69	0.7569948
217	0x3f91aa52	1.1380103
218	0x3f783740	0.96959305
219	0x3e1ac80d	0.15115376
220	0xbf357367	-0.70879215
221	0xbf9f6042	-1.245125
222	0x3ef7938a	0.4835475
223	0xbf8f4cb3	-1.1195282
224	0x3f1a6e3f	0.6032447
225	0xbed250b8	-0.4107721
226	0xbf645561	-0.8919278
227	0xbf63a750	-0.88927174
228	0xbf8af5a5	-1.0856215
229	0x3fe0bb4b	1.7557157
230	0x3ed6bd70	0.41941404
231	0x3f224522	0.6338674
232	0xbf1028df	-0.56312364
233	0xbf407246	-0.7517437
234	0xbe1d2ef4	-0.15349942
235	0xbe43b7a9	-0.1911303
236	0xbd21840b	-0.039432567
237	0x3e411775	0.18856604
238	0xbf5d61d2	-0.86477387
239	0x3f03a75d	0.5142725
240	0x3f092abe	0.53580844
241	0xbf1daa5c	-0.6158807
242	0xbf046a6e	-0.517249
243	0xbf1dbb19	-0.61613613
244	0xbeed99d1	-0.46406415
245	0xbff6a2d3	-1.926844
246	0x3f09e86d	0.5387028
247	0x3e736fe1	0.23773147
248	0xbf5b252c	-0.85603595
249	0xbffacd7d	-1.959396
250	0xbe7ebc88	-0.24876606
251	0x3ddf5af1	0.109060176
252	0x3e0575b3	0.1303318
253	0x3f3a6676	0.72812593
254	0x3edc4e9f	0.43028733
255	0xbd3f81be	-0.04675459

net.2.bias f4 [256]
0	0xbd2aa2b5	-0.041659076
1	0x3f09e71e	0.5386828
2	0xbd8716a1	-0.06596113
3	0xbf906f92	-1.1284049
4	0xbdd5e3b5	-0.10443822
5	0xbdb60c78	-0.08889097
6	0xbd41178a	-0.04714159
7	0xbe984b49	-0.29744938
8	0xbf26d25a	-0.6516472
9	0xbdfce10a	-0.1234761
10	0xbe292795	-0.16519006
11	0xbe4310b9	-0.19049348
12	0xbf817b44	-1.0115743
13	0xbe7475e8	-0.23873103
14	0xbe86f224	-0.26356614
15	0xbe97bb13	-0.29634914
16	0x3e9d1572	0.30680424
17	0xbf081cbf	-0.53168863
18	0xbf063e45	-0.52438766
19	0xbef7570e	-0.48308605
20	0xbcc2c974	-0.023777701
21	0xbebe11b7	-0.3712289
22	0x3ebf8182	0.37403494
23	0xbeb20c67	-0.34775087
24	0xbe18c19f	-0.1491761
25	0xbf1da956	-0.6158651
26	0xbe3c973f	-0.18417071
27	0x3f03623b	0.5132176
28	0xbf111fcd	-0.5668915
29	0xbf02a72c	-0.51036334
30	0x3da50460	0.08057475
31	0xbe3e1f28	-0.18566573
32	0xbf906088	-1.1279459
33	0xbee79da1	-0.4523745
34	0x3e6c9c91	0.231066
35	0x3d8d6365	0.069037236
36	0xbf53aa83	-0.82682055
37	0xbf055092	-0.52076066
38	0xbbe9acf8	-0.007131215
39	0xbde3d82f	-0.11125218
40	0x3efb86b7	0.49126217
41	0xbf3db124	-0.7409842
42	0xbe40b959	-0.18820705
43	0xbe5b5e88	-0.2142278
44	0xbe0df51a	-0.1386303
45	0xbde3e2f0	-0.11127269
46	0xbf8b4976	-1.0881793
47	0xbef0ff74	-0.47069895
48	0xbe01f3a6	-0.12690601
49	0xbf226c2b	-0.634463
50	0x3d6a64c0	0.05722499
51	0xbe8bd4a7	-0.27310678
52	0xbeb3cd20	-0.35117435
53	0x3f1f3bfa	0.6220089
54	0xbe043045	-0.12909038
55	0xbef196cb	-0.47185358
56	0x3deca69a	0.11555214
57	0x3c11ae29	0.008891621
58	0xbf3553d5	-0.7083104
59	0xbe7ea14f	-0.24866222
60	0x3d2bc27c	0.04193352
61	0xbf51a49f	-0.81891817
62	0xbeb061a6	-0.344495
63	0xbf7a96b3	-0.978862
64	0xbf090061	-0.53516203
65	0xbeca2608	-0.3948214
66	0xbe975553	-0.29557285
67	0x3e8bc952	0.27302033
68	0xbe8c051f	-0.27347657
69	0xbe320d5e	-0.17387912
70	0xbe35254e	-0.17690012
71	0xbd4ece7e	-0.050489895
72	0xbecf137f	-0.40444562
73	0x3ea6e77a	0.32598478
74	0x3e987774	0.29778636
75	0x3e2a1aab	0.16611736
76	0x3da41fcc	0.08013877
77	0xbeac7c8f	-0.3368878
78	0x3cc946d9	0.024569916
79	0xbeb17321	-0.3465815
80	0x3de4f2d5	0.11179129
81	0x3e9d4493	0.3071638
82	0xbedc33ca	-0.43008262
83	0xbe07bd75	-0.13255866
84	0xbd85c928	-0.06532508
85	0xbf888a6d	-1.0667244
86	0xbed41524	-0.4142238
87	0xbde3e285	-0.111271895
88	0x3e80e6dd	0.25176135
89	0xbf6883bb	-0.90826005
90	0xbf2a5a39	-0.6654392
91	0xbf10912e	-0.56471527
92	0xbea67922	-0.32514292
93	0x3f04ee76	0.5192636
94	0xbd3d9fab	-0.04629485
95	0xbf3c256a	-0.7349459
96	0xbf307212	-0.6892406
97	0xbe965631	-0.29362634
98	0x3ec4b93b	0.3842257
99	0xbf4dcaba	-0.8038746
100	0x3d24cfd0	0.040237248
101	0xbea1846f	-0.3154635
102	0x3d905883	0.07048132
103	0xbd4b0d96	-0.049573503
104	0xbeb652c8	-0.35610032
105	0xbe828db1	-0.25498727
106	0xbf05d746	-0.52281606
107	0xbe371aca	-0.17881313
108	0x3f4466a8	0.7671914
109	0xbe808c84	-0.25107205
110	0x3e79044b	0.24318044
111	0xbee790e6	-0.45227736
112	0xbe89d4a8	-0.26920056
113	0xbf34bd8e	-0.7060174
114	0xbed8e6ef	-0.42363688
115	0xbe8cf8bc	-0.2753352
116	0x3e852b03	0.26009378
117	0x3c7a9751	0.015294866
118	0xbd8c9526	-0.06864385
119	0x3e80ed44	0.2518102
120	0xbd891993	-0.06694331
121	0xbda5d908	-0.08098036
122	0x3e4d399a	0.20041505
123	0xbeceb254	-0.4037043
124	0x3de4beca	0.111692026
125	0xbe957571	-0.29191163
126	0xbe4b59f1	-0.19858529
127	0xbe0d1bb3	-0.13780098
128	0xbca2bba4	-0.019864865
129	0xbf069bbe	-0.52581394
130	0xbe8e25bd	-0.27763167
131	0xbf10c8e2	-0.5655652
132	0xbeaddd63	-0.33957967
133	0x3e77b9d3	0.2419198
134	0xbe8954c0	-0.26822472
135	0xbf276292	-0.6538478
136	0x3e515465	0.2044235
137	0xbebfa2e3	-0.3742896
138	0xbd7cddd9	-0.061735008
139	0xbe699c15	-0.22813447
140	0xbdadec6d	-0.0849236
141	0xbeffb73d	-0.49944487
142	0xbf32b42f	-0.6980619
143	0xbf1816ac	-0.59409595
144	0x3cf96815	0.030445138
145	0xbeef1ca5	-0.46701542
146	0xbe6aabf3	-0.22917156
147	0xbeb1fe72	-0.3476444
148	0xbdf5844b	-0.119881235
149	0x3e229e21	0.15880634
150	0xbec8b4df	-0.39200494
151	0x3f2f6439	0.685123
152	0xbde45a04	-0.111499816
153	0xbf8bdb0a	-1.092622
154	0xbf1e4796	-0.6182798
155	0xbdc0afb8	-0.09408516
156	0xbeca9f45	-0.39574638
157	0xbe8c054c	-0.2734779
158	0xbe397cda	-0.18114033
159	0x3e4af367	0.19819413
160	0xbe2b35bb	-0.16719715
161	0x3d2d4cdc	0.042309627
162	0xbf0b6001	-0.54443365
163	0xbe844f95	-0.25841966
164	0xbe48ff98	-0.19628751
165	0xbf38f2a3	-0.72245234
166	0x3efe2103	0.4963456
167	0xbd832ff5	-0.064056315
168	0x3ec1c21e	0.37843412
169	0xbd774784	-0.060370937
170	0x3e1bd783	0.1521893
171	0x3ee1e810	0.44122362
172	0x3c4fb69c	0.012677815
173	0xbe30e0f3	-0.17273311
174	0xbde53ae3	-0.111928724
175	0xbecfe181	-0.40601733
176	0xbe262320	-0.16224337
177	0x3e1e70ea	0.15472761
178	0xbf3aa5b3	-0.72909087
179	0xbeaee29e	-0.3415727
180	0xbea2e143	-0.31812486
181	0xbf45d282	-0.77274334
182	0xbdf206ca	-0.11817701
183	0xbe21ebd1	-0.15812613
184	0xbe874db1	-0.2642646
185	0xbe86f247	-0.26356718
186	0xbc2e0276	-0.010620704
187	0x3d8dc35e	0.06922029
188	0xbe9ed679	-0.31023005
189	0xbce5fa48	-0.028073445
190	0xbf06d5e2	-0.5267011
191	0xbf387f28	-0.72069025
192	0xbf188fee	-0.5959462
193	0xbf010de3	-0.50411814
194	0x3eb92313	0.36159572
195	0x3c45b013	0.012065905
196	0xbef8e425	-0.4861156
197	0x3eb7efad	0.35925046
198	0x3d7df275	0.061998803
199	0xbe822912	-0.2542196
200	0xbecd67f3	-0.4011837
201	0xbef3c727	-0.4761288
202	0xbdc5b759	-0.096541114
203	0xbea32ec9	-0.31871632
204	0xbe19367b	-0.14962189
205	0xbedd00e6	-0.43164748
206	0xbf19dfee	-0.60107315
207	0xbe297dae	-0.16551849
208	0x3ead6c66	0.33871764
209	0xbdeba955	-0.11506907
210	0xbf161bd5	-0.5863622
211	0xbf24e8b4	-0.64417577
212	0x3f0ba79d	0.5455263
213	0xbe23eb4c	-0.16007727
214	0xbd8aa296	-0.06769292
215	0xbd6bca36	-0.05756589
216	0xbf0c94f5	-0.5491479
217	0x3d3a49f2	0.045480676
218	0xbf01e2a5	-0.5073646
219	0xbe9cde88	-0.30638528
220	0xbeba8de1	-0.3643637
221	0xbd81fa3d	-0.06346557
222	0x3f0d54e5	0.55207664
223	0xbedf6af9	-0.436363
224	0x3d93d59b	0.072184764
225	0x36162e26	2.2378604e-06
226	0xbf4fcc25	-0.81170875
227	0xbe7721e8	-0.24134028
228	0xbb0d1f43	-0.0021533526
229	0xbf261343	-0.6487314
230	0xbef276c7	-0.47356245
231	0xbd034fd6	-0.03205856
232	0xbf3ce8d8	-0.7379279
233	0xbf421362	-0.75810826
234	0xbf6db822	-0.9285909
235	0xbe876d81	-0.26450732
236	0x3f1d8c22	0.6154195
237	0xbe305a31	-0.17221905
238	0x3e03c0ae	0.1286647
239	0xbeb0c681	-0.34526446
240	0xbf6836aa	-0.9070841
241	0xbf41cce3	-0.7570326
242	0x3eef9fc3	0.46801576
243	0xbee0a03e	-0.43872255
244	0xbd64aab2	-0.05582685
245	0xbe914c1c	-0.2837838
246	0xbf37a301	-0.717331
247	0xbe96888c	-0.29401052
248	0xbf0f462f	-0.55966467
249	0x3e85184b	0.25995097
250	0xbe344b3f	-0.17606829
251	0xbe157edb	-0.14599173
252	0xbf17ec1a	-0.5934464
253	0xbf08f079	-0.5349193
254	0x3e0f971c	0.14022487
255	0xbebed6bd	-0.37273207

net.4.weight f4 [21, 256]
0	0xbfadf5ed	-1.3590676
1	0x3ec71f2a	0.38890964
2	0x3e87bf0f	0.26512954
3	0x3f07654e	0.52888954
4	0xbf1945ef	-0.59872335
5	0xbfa162c0	-1.2608261
6	0x3e54f6be	0.2079725
7	0xbf41c68f	-0.756936
8	0x3f76b3f7	0.96368355
9	0xbddc5a76	-0.107594416
10	0xbd981808	-0.074264586
11	0x3eb94e2b	0.3619245
12	0xbf8f3825	-1.1189009
13	0x3f7a2bb0	0.9772291
14	0x3f4a5a9a	0.79044497
15	0x3cae10fb	0.021248331
16	0xbf76c5d1	-0.96395594
17	0xbe00e22c	-0.12586278
18	0xbb6efa50	-0.0036465116
19	0x3f3574a4	0.70881104
20	0x3fa3be8c	1.2792525
21	0xbef8e1b3	-0.48609695
22	0x3f48a429	0.7837549
23	0xbf282f56	-0.6569723
24	0x3eaea5b7	0.34110805
25	0x3f0b010f	0.5429849
26	0x3fc2808a	1.5195477
27	0xbfa88071	-1.3164197
28	0xbf8f57e2	-1.1198695
29	0x3f87c58e	1.0607164
30	0xbdeca454	-0.115547806
31	0xbe8efdab	-0.27927908
32	0xbe8683db	-0.26272473
33	0x3f60a5d7	0.8775305
34	0x3e3b404f	0.1828625
35	0x3f1478a0	0.5799656
36	0x3f989c77	1.1922749
37	0xbf71588a	-0.94275725
38	0x3fd86cec	1.690824
39	0x3ece3d84	0.40281308
40	0xbf15fe60	-0.5859127
41	0x3f17536b	0.5911166
42	0xbd6210b0	-0.055191696
43	0x3fa4b592	1.2867911
44	0x3f106457	0.56403106
45	0x3f689067	0.9084534
46	0x3ed925ae	0.4241156
47	0xbef5a883	-0.47980127
48	0xbedb406f	-0.42822596
49	0xbd8816f2	-0.066450015
50	0x3e8e97a5	0.2785007
51	0xbeff35cc	-0.4984573
52	0x3f9baf94	1.2162957
53	0x3cfca6ac	0.030841194
54	0xbf3983ed	-0.7246693
55	0x3fec254e	1.8448884
56	0x3f2ff23f	0.68729013
57	0x3f01d431	0.50714403
58	0x3fa8789b	1.3161806
59	0xbe48360e	-0.1955187
60	0x3c8e0f64	0.017341323
61	0x3f714dc3	0.9425928
62	0xbf600c29	-0.87518555
63	0x3e29cbb1	0.16581608
64	0x3edba8fb	0.4290236
65	0xbf78c9b7	-0.9718279
66	0xbf4038f8	-0.7508693
67	0x3eeae110	0.45874834
68	0xbf2c53d7	-0.6731543
69	0xbddaf760	-0.10691714
70	0xbfc9a79a	-1.5754273
71	0xbf261cf6	-0.6488794
72	0x3e3d1eee	0.1846883
73	0xbe98d7d4	-0.29852164
74	0xbe944538	-0.2895906
75	0x3f33757d	0.7010115
76	0xbd46f6fb	-0.048575383
77	0x3ce2221c	0.027604155
78	0xbfaba409	-1.3409435
79	0x3f541998	0.8285155
80	0xbfc52b3a	-1.5403817
81	0xbe6824f8	-0.22670352
82	0xbd6db783	-0.05803634
83	0xbd9edcbf	-0.07756948
84	0xbb43134a	-0.0029766136
85	0x3f6e2ebb	0.93040055
86	0x3ebb4635	0.36577
87	0x3f549581	0.83040625
88	0x3dfe6025	0.12420682
89	0x3f90a6b0	1.1300869
90	0xbc91e0b8	-0.01780735
91	0xbdd1dcec	-0.10247216
92	0xbeb8ad45	-0.36069694
93	0x3efe53c7	0.49673292
94	0xbf084ebe	-0.5324515
95	0x3f9b5000	1.2133789
96	0x3f2ad61f	0.6673297
97	0x401668d0	2.3501472
98	0x3d66900a	0.05628971
99	0xbebcf4c5	-0.36905494
100	0x3f66d27a	0.9016491
101	0x3f0177cb	0.50573415
102	0x3efa6943	0.48908433
103	0x3ea5f02b	0.32409796
104	0xbcab8a13	-0.020939862
105	0xbea21d7c	-0.3166312
106	0xc05f9646	-3.493547
107	0x3f23789d	0.63855916
108	0x3e0e618d	0.139044
109	0x3eb6b4a8	0.35684705
110	0x3f5cf598	0.86312246
111	0x3dd5c768	0.10438424
112	0xbf1f7518	-0.62288046
113	0xbd9a25e1	-0.07526756
114	0x3e7a622d	0.24451514
115	0xbf541313	-0.82841605
116	0x3f065c42	0.52484524
117	0x3ecf015f	0.40430734
118	0xbf476b13	-0.7789776
119	0xbf6807ef	-0.90637106
120	0xbeb5ba37	-0.35493633
121	0x3d043a93	0.032282423
122	0xbedc2959	-0.43000296
123	0xbea44f3f	-0.3209171
124	0x3f2014c5	0.6253169
125	0xbeb9d4a8	-0.36295056
126	0x3ef9a61e	0.4875955
127	0xbd83941d	-0.06424735
128	0x3c102921	0.008798868
129	0xbe173390	-0.14765763
130	0xbe86fd4c	-0.26365125
131	0x3f137b98	0.57610464
132	0x3dde92e1	0.10867859
133	0x3d6eee9c	0.058333024
134	0xbf7e9cc5	-0.9945796
135	0xbf760c28	-0.961123
136	0x3eb69dbe	0.35667223
137	0x3f3fb810	0.7489023
138	0xbf2e3037	-0.6804232
139	0x3e2e900f	0.17047141
140	0x3f0e7a8b	0.55655736
141	0x3f29ce3f	0.6633033
142	0xbf27fab3	-0.6561691
143	0xbcee2a88	-0.029073015
144	0x402131a9	2.518656
145	0xbe40e0e2	-0.18835786
146	0x3f13d5c8	0.5774808
147	0xbfbd34e5	-1.4781767
148	0x3f9ec6b3	1.2404388
149	0xc00cbfb9	-2.1992018
150	0xbd7ed8ea	-0.062218584
151	0xbd9c826e	-0.07642065
152	0xbff67ca2	-1.9256785
153	0xbdea1bc7	-0.11431079
154	0x3d70e54e	0.058812432
155	0xbd636f2f	-0.055525955
156	0xbee7940c	-0.45230138
157	0xbe9e965a	-0.30974084
158	0xbf43d974	-0.7650368
159	0xbe5d36c0	-0.21602917
160	0xbd0427af	-0.032264408
161	0xbe7196ea	-0.23592725
162	0xbebcc066	-0.36865538
163	0x401fe007	2.4980485
164	0x3ddbbc33	0.107292555
165	0xbf08fee9	-0.5351396
166	0xbfc18622	-1.5119059
167	0x3f7cdc1a	0.9877335
168	0xc003880d	-2.0551789
169	0x3f9b408f	1.2129077
170	0xbdab7e36	-0.08373682
171	0x3db3b22c	0.08774218
172	0xbf34f6ce	-0.70689094
173	0xbd203d69	-0.039121065
174	0xbf06fd4a	-0.5273024
175	0x3f0da73e	0.55333316
176	0xbf70f5a6	-0.9412483
177	0xbf9bcbeb	-1.2171606
178	0x3f536863	0.82581156
179	0x3e842f8b	0.25817522
180	0x3eaeb1bb	0.34119973
181	0xbfa1b275	-1.2632586
182	0xbf995fd7	-1.1982373
183	0xbf946c81	-1.1595613
184	0x3df96b23	0.12178638
185	0x3e4f37ec	0.20236176
186	0x3e0c7bd7	0.13719116
187	0xbf56f933	-0.83974
188	0x3ec52633	0.38505706
189	0x3e377e78	0.17919338
190	0xbf02b62e	-0.51059234
191	0xbe2f9b65	-0.17149122
192	0xbe5ac6b5	-0.21364863
193	0xbf9db9f7	-1.2322377
194	0x3d5ba5b0	0.05362481
195	0x3f1464d0	0.5796633
196	0x3f22d792	0.63610184
197	0xbf16e2b4	-0.5893967
198	0xbe4b5e42	-0.19860175
199	0xbe204fde	-0.15655467
200	0x3d84d754	0.06486383
201	0x4010921f	2.2589185
202	0xbe9d1d42	-0.30686384
203	0x3e05ad08	0.13054287
204	0x3ecd3239	0.4007738
205	0xbe555bb0	-0.20835757
206	0xbf035d0b	-0.5131385
207	0x3e37470c	0.17898196
208	0x3f4f1ca8	0.809031
209	0xbf16d2dc	-0.58915496
210	0x3f083387	0.53203624
211	0xbe5ff65a	-0.2187132
212	0x3e84af34	0.2591492
213	0xbf2289b9	-0.634914
214	0x3f7d96da	0.99058306
215	0x3ed5d862	0.4176665
216	0xbeaa6483	-0.3327981
217	0x3f6eab99	0.9323059
218	0x3f2453ca	0.6419035
219	0xbe940d82	-0.28916556
220	0x3eff1786	0.49822634
221	0x3ec21350	0.3790536
222	0x3fc56b4b	1.5423368
223	0xbf513ee2	-0.81736577
224	0xbf36edc4	-0.7145655
225	0xbf5b27d1	-0.8560763
226	0xbd1d7fbb	-0.03845189
227	0xbf2a38c9	-0.664929
228	0x3f5e7d4e	0.8690995
229	0x3f8dd660	1.1081047
230	0xbb863eab	-0.004096826
231	0x3eb88271	0.3603702
232	0xbf229e75	-0.63523036
233	0x3f9939fe	1.1970823
234	0xbf95f378	-1.1714926
235	0x3f98dd44	1.1942525
236	0x3e0ea4a0	0.13929987
237	0x3f9f659c	1.2452884
238	0xbf23c2e4	-0.63969254
239	0xbe8dd6c1	-0.27702907
240	0xbf0e78e5	-0.5565322
241	0xbf893b63	-1.0721248
242	0x3e761b8a	0.24033943
243	0x3ed54696	0.41655415
244	0x3f84a224	1.0361981
245	0xbe052ed5	-0.13006146
246	0x3f2c54c4	0.6731684
247	0x3e229036	0.15875325
248	0x3e150771	0.1455362
249	0x3e64a0d3	0.22326975
250	0x3fa47faf	1.2851466
251	0xbf8ba510	-1.0909748
252	0xbf1cbf4e	-0.6122941
253	0xbf220677	-0.63291115
254	0x3f9d5f94	1.2294793
255	0x3e2e08e3	0.16995578

net.4.bias f4 [21]
0	0x3e9cf7a6	0.3065769
1	0x3f10a988	0.56508684
2	0x3dd414c3	0.103555225
3	0x3e11a064	0.1422134
4	0x3eea3041	0.4573994
5	0xbc68d67e	-0.014211295
6	0x3f051edc	0.5200021
7	0xbdfa9edc	-0.12237331
8	0xbcec2bd6	-0.028829496
9	0xbeae54db	-0.34049115
10	0xbf494060	-0.78613853
11	0x3d64af2b	0.055831116
12	0xbd750260	-0.059816718
13	0x3f194698	0.5987334
14	0xbf2d90cc	-0.6779907
15	0xbe20b0a6	-0.15692386
16	0x3e28b561	0.1647544
17	0x3f45b68b	0.77231663
18	0xbd8a9561	-0.06766773
19	0xbdbd16bb	-0.09232851
20	0x3f31a699	0.6939483
