Q3/ddpg_actor_step8000000.pth (torch, 357342 bytes, 6 tensors)

net.0.weight f4 [256, 67]
00000000: 0ab3 7c3e 2387 78bd 7ea4 6740 7c86 debf
00000010: 1f4f 0abf 240d a0be 9292 81bf 20e9 21bf
00000020: 177a 1d40 5623 c43e 0011 d53f 78b0 0840
00000030: 2a17 553f 0f0f 01bf fe39 0240 2bd2 ce3e
00000040: 0412 54be 4c00 d9be 8b2c f7bf f916 2640
00000050: 2ead 0a3f 6df7 a8bf a752 84bf b775 e7bd
00000060: 0b7a 7b3f e5dc 6f3f 33e0 e53e f3f2 c8be
00000070: 0f66 f2be f4cb 0340 3960 223f ce38 12bf
00000080: e23c 183f 01ca 8b3f b3c3 c7be 21b0 ca3f
00000090: 1d82 523f a437 b93f d0d5 95bf 9d3c d840
000000a0: 30a0 913f 344c 933e f278 5840 78dc 21be
000000b0: d846 a0be 791d ee3d 85c3 e93e 0983 783d
000000c0: 9ed4 d0be c512 8b3e 60a3 2bbd 7d61 97bd
000000d0: 28f5 aabe 9697 05be 0219 313c 32c1 94be
000000e0: 346b 97be f0cc a0bd 32c2 e83d 7b36 a93e
000000f0: f1c1 bb3d 04bc e13d bac5 bb3d 0089 8fbd
00000100: bf08 b23e ec3d 903e 1419 833c 4566 373f
00000110: 4f46 093f 4a85 9cbe 72d4 4d3e 342b 363d
00000120: 2d19 6a3e 0bb9 c83f 5e9a 3340 e473 e83e
00000130: 3d00 1d3f 6819 0abd 2cdf ffbf c05a 0c40
00000140: 77e3 3940 2a7a b2be 78f1 a5c0 88e7 323f
00000150: e843 c4bf 099a 8b3f 07d3 88bf 1a35 2d40
00000160: 024a b5bf e1f4 673f ee0d 7f3d 577a d43c
00000170: c7cc 3dbf 3610 7a3e 4834 b53d 1289 9a3f
00000180: ff57 193d 345b 40bf cd0c 81bf 2ffd a63f
00000190: af0e 41bf 6be4 2e3f 9cd0 ebbe ffdf 013f
000001a0: 8b13 c540 ff26 063f 9a06 0bc0 fa3c 223f
000001b0: 5920 3c3b dbd8 97bf c8bc a2be df01 24be
000001c0: fe92 633e 6429 12bd a9d2 1abe b05a f33d
000001d0: b21b 193e 8bc6 49bd 3eab 0dbf 3aee 503e
000001e0: f3d3 edbd eec9 88bd a83f 7b3e 96f5 dc3e
000001f0: 9cd3 c63e 374b 35be 4c55 103e 3ab1 133e
00000200: 67c5 46bd 0bf7 fabd 1573 443e 710e b93c
00000210: 1f2e 403e 8b61 b93c 19d8 8d3f 25b4 90be
00000220: 488b 88bd 4e03 2e3f f42c 28c0 dfa4 edbe
00000230: 7500 b63f f7f4 ae3f 1960 0140 ace0 763f
00000240: 26c6 1640 87a6 f9bd ad34 d8bf cad4 17bf
00000250: c407 35be 445f 2bc0 8110 303f d824 1c40
00000260: ddf7 c33e 2c16 933f 838b 193f 1600 0540
00000270: 0d65 1840 bff3 853f 3f70 713f e6b4 8f3f
00000280: 07a0 b33e 2315 f6bf 6779 bc3f 52b6 9d3e
00000290: e0d7 993e 0dd0 78be cd20 7a3e b6ac b23f
000002a0: a277 c4bf 0217 4cbf 409d ddbc d241 b8bf
000002b0: f617 a53f b784 523f ad6e e53f 4790 22bf
000002c0: 47fc e33d fa25 a33e 826a f23e 77cd 1e3f
000002d0: e51d a53d a0d8 b73d 3d8a 743e 901c 7e3e
000002e0: 8806 57be c9ab c9ba a90b 643c 0c07 d5bd
000002f0: 4b94 6d3d bca5 963e f21e 1c3d 54c3 30be
00000300: e47f 0c3e 6dd4 bfbd 2e79 5fbd 473f 263e
00000310: cabe 503e e31e a7bd 4fc4 6d3d 4274 763e
00000320: 5d9a ba3c 1665 04c0 ed46 e0bf 4b7f 43bf
00000330: c874 8c3f 9c0a 14bf 5e44 183f f6cc 173f
00000340: 0fe6 04c0 c38d 04c0 4a79 e4bd 15ea b6bb
00000350: 8ef9 a9bf 12c8 b43f fb2e f23f bb72 a5be
00000360: df5b 38c0 6112 83bc 91e4 5c3e 2be0 683d
00000370: d855 923f 5720 64be e5c2 183e 6ed5 13bf
00000380: f218 6dbe f26d c53f 79eb 8e3f cfb0 02be
00000390: bbe1 843f 497d abbf 5130 063f cbe3 693e
000003a0: 7c5c 813e 1613 77bf d9a0 573f 80cb 183f
000003b0: 3d9a ef3d 3316 fd3f e022 8040 939c c6c0
000003c0: f6ac 0ebf ee7e 31bf 2e1d 9abe 1f3d efbf
000003d0: 6f3e 17bd 318a 793e 07f2 a53e 52e8 8c3e
000003e0: 5f30 443c b0ce 04bf cf78 92be f073 68be
000003f0: 4c5b 913e 1452 113e a284 44be 097a 18be
0.24677673 -0.06067575 3.6194148 -1.7384791 -0.5402698 -0.31260026 -1.0122855 -0.63246346
2.4605768 0.3830821 1.6645813 2.1357708 0.8323847 -0.504136 2.0347896 0.4039472
-0.20709997 -0.4238304 -1.9310468 2.5951521 0.541705 -1.3200508 -1.0337723 -0.11301749
0.982331 0.93696433 0.44897613 -0.39247856 -0.4734349 2.0593233 0.63428074 -0.5711793
0.594679 1.0921022 -0.39016494 1.5835 0.8222979 1.4470105 -1.1705875 6.757399
1.137701 0.28769076 3.382382 -0.15806758 -0.3130405 0.11626715 0.45656982 0.06067184
-0.40787214 0.27162758 -0.041903853 -0.07391641 -0.33390164 -0.13046107 0.010809185 -0.29053646
-0.29573977 -0.07851589 0.11365165 0.33049378 0.09167851 0.11022189 0.09168573 -0.070085526
0.34772298 0.28172243 0.01600317 0.71640426 0.5362291 -0.3057044 0.20100573 0.044474795
0.22861166 1.5681471 2.8062968 0.45400918 0.6132849 -0.033715636 -1.9989982 2.193039
2.9045084 -0.3485883 -5.185726 0.6988454 -1.5333223 1.0906383 -1.06894 2.706366
-1.416321 0.9060803 0.062269144 0.025937242 -0.7414059 0.24420246 0.088478625 1.207308
0.037437435 -0.75139165 -1.0082031 1.3046016 -0.7541303 0.6831729 -0.46057594 0.50732416
6.1586356 0.52403253 -2.172278 0.6337429 0.0028705804 -1.1863054 -0.31784654 -0.16016339
0.22224042 -0.035684004 -0.15119423 0.11882532 0.14951971 -0.04926161 -0.5533942 0.20403376
-0.11612692 -0.0667914 0.24536002 0.43156117 0.3883332 -0.17704473 0.14095038 0.14423075
-0.0485281 -0.12254151 0.19184525 0.022589894 0.18767594 0.02262952 1.1081573 -0.2826244
-0.06667191 0.6797379 -2.6277437 -0.4641485 1.421889 1.3668507 2.0214903 0.9643657
2.355844 -0.12189966 -1.6891075 -0.59309065 -0.17678744 -2.6776896 0.6877518 2.4397488
0.38275042 1.1491141 0.59978503 2.0781302 2.3811677 1.046501 0.943119 1.1227081
0.3508303 -1.92252 1.4724549 0.30803162 0.30047512 -0.24298115 0.24426575 1.3958957
-1.5349009 -0.7972261 -0.027052522 -1.4395087 1.2897937 0.82233757 1.79244 -0.635014
0.111321025 0.3186491 0.47346884 0.62032264 0.080623426 0.08976865 0.23880859 0.24815583
-0.20998585 -0.0015386279 0.013918796 -0.10401735 0.05800275 0.2942332 0.03811545 -0.17262012
0.13720661 -0.09366689 -0.054558925 0.16235076 0.2038528 -0.08160188 0.058048543 0.24067786
0.022778684 -2.0686698 -1.7521645 -0.7636611 1.0973139 -0.5782869 0.5947932 0.5929712
-2.0765417 -2.0711524 -0.111559466 -0.005582104 -1.3279283 1.4123557 1.8920587 -0.32314095
-2.8806074 -0.015999975 0.21571566 0.05685441 1.1432447 -0.22277962 0.14918096 -0.5774754
-0.23154047 1.5424178 1.116561 -0.1276276 1.0381387 -1.3397609 0.52417475 0.22840802
0.25265872 -0.965135 0.8422981 0.59685516 0.116993405 1.97724 4.004257 -6.206613
-0.5573267 -0.69334304 -0.30100387 -1.8690528 -0.036924776 0.24369122 0.32411215 0.27520996
0.011974423 -0.5187788 -0.28607795 -0.22700477 0.28389966 0.14191467 -0.1919122 -0.14890303

net.0.bias f4 [256]
00000000: e470 71bf 0e5c 2abf f950 3cbf 7429 53bf
00000010: dea4 32bf 6f64 d0be ff97 bc3e 6f69 2bbf
00000020: d9f0 2a3f 8d7d 143e f0d0 f0bf a100 b13f
00000030: b841 16c0 c247 35bf cebd 28be 9019 8fbf
00000040: 09ed d1be a459 b6bc 9ec0 06be 82aa 6c3e
00000050: f463 0abf 7778 aebe 73bd 923f 545b 91bf
00000060: 7ad5 7abf f8c6 f0bd 225a f1bf a914 53bf
00000070: 0990 853f 032b a4bd 57a2 27be c75e eabe
00000080: 3495 9ebe f372 2d3f 2de7 6cbe 3cb1 fc3f
00000090: f29b 0e3f ccef efbe 0a70 cd3e 2765 2b3f
000000a0: f3a2 4ebe 605e 76bb c508 a5bf 41a2 03bf
000000b0: 666f a83d 2b66 12be 6f91 593e 020f aabf
000000c0: f184 3bbf 632e 963d 3d1c 96bf 9341 c13f
000000d0: dee4 863f 72fb e13d cbbf 64bf bf95 0bbf
000000e0: 4a87 a6be 027b 193f b3ce 9abd 1de2 24bf
000000f0: e9d7 3c3f 6cb5 823f f1c4 f6be b460 7fbf
00000100: 3a55 a3be 7206 d93e 7df9 97bf 820a 94be
00000110: b3c1 f53e 9cf9 e53f 74d6 c1be 2749 95be
00000120: a514 783f 61e0 44bf 5bfc 21bf deb6 ea3a
00000130: e047 1b3f 5c04 0cbf 927f 00bf d09b a8be
00000140: 4440 b0bf 3bfa 11bf 7e00 c9bf b72b 7abf
00000150: d294 43bf 1b9d 47bf 2bef c3be 5737 573e
00000160: c9dd cebf e057 72bf 4183 2ebf 0c02 68be
00000170: 42dc 8fbf f343 6dbe c874 66bf df47 1cbe
00000180: 8067 22be acf5 57be 9f07 f7bd cd89 bf3e
00000190: f3ec 8ebe 7f29 cf3f 77a5 a13f 4491 a0be
000001a0: 4b84 c7be 3bdb 2bbf 9030 e4be 5886 0bc0
000001b0: d240 823c e2de 943e 7c11 803e c12f cdbe
000001c0: 3d69 093e b4de 603f 021d ff3e eefd bcbe
000001d0: 70fc a7be 2326 85bf 723d 83be 84b4 8e3e
000001e0: 47cc 8d3e e95b 9ebc 2b21 13c0 e8ce 87be
000001f0: d0d6 58bc 5074 bbbe 1e25 43be 6c2c cfbf
00000200: ef13 6dbf 94b8 24bf 387b 5bbf d148 ff3e
00000210: bcd3 19be e001 1c3f 077c 0d40 c843 4b3e
00000220: f126 493f 6dc1 17bf 7107 733f d9ec c43e
00000230: d551 e4be 492f ccbf 5ac9 0fbe 79d1 00be
00000240: 0048 bcbf 4c77 eabf 439c aa3d 6e20 9abe
00000250: f0ef 13bf b301 413e d3e6 52be a124 c8bf
00000260: 4851 7ebf 366e 04bf a23a f3bf 12a3 cbbf
00000270: 8368 bdbf 04e2 0b3f 3a2f 8dbf f942 ea3e
00000280: 4350 24be 6d1b 9ebf ecff cb3e a580 a5bf
00000290: 1a65 333f 54a8 b43e 07ad 00c0 1e8d 1cbf
000002a0: c791 993e e4b9 ccbf 3046 4ebf 8aae 8a3e
000002b0: c329 44bf 3daa f5bd 51e3 7dbd c027 d6bf
000002c0: 2265 393f 481f 1fbe d3e1 d7bf 31ea b7be
000002d0: 50aa 4abf b4dd 94be eb82 7ebf 407d e1be
000002e0: 5151 063e 9d17 8fbe 19e2 2c3f 1b31 e93e
000002f0: 4df8 933f 9fa3 c13f 53cb b43d b6fe f63e
00000300: ff05 1bbf 17a9 373f 30fe b13f 9363 57bf
00000310: 5919 42bf dd90 42bf 5586 a0be d4d0 13c0
00000320: 8e80 a33e 85b9 683f 5546 8a3f 55f3 033f
00000330: 9ecd 553f b943 8dbf eb15 d43d 3227 41bf
00000340: da30 303f cb94 62bf 2972 a1bf 9cb0 0bbf
00000350: 24b2 473f 8712 61be ae82 55be 321e 8bbe
00000360: 6fe8 ba3b 61c3 9b3f 370d 52bf 5367 98bf
00000370: bebd 433f 0f76 1840 953b b63f d002 00bf
00000380: 72bb 5a3f 8b4c c6bf d89c 333f e526 d73d
00000390: 50cf be3e 9380 5a3f 3d01 e1bd fc99 ed3e
000003a0: e43f 79bf bec9 83be 3c37 a5be dcca 0e3e
000003b0: 1b79 773c 0542 e03d aca0 78bf 899b 593e
000003c0: 5208 10be 7c07 d93e b877 cebf b801 ddbf
000003d0: fdc9 503f 2d00 e9bf a33b 25bf 0684 1dc0
000003e0: 20fd afbf 6a41 043f adb0 ecbe 33ee f2be
000003f0: 1553 b5bf 9ec9 0040 f926 873f 5b2d 45bc
-0.9431288 -0.66546714 -0.73561054 -0.8248513 -0.6978282 -0.40701625 0.36834714 -0.66957754
0.66773754 0.14501019 -1.8813763 1.3828317 -2.3477612 -0.7081262 -0.16478655 -1.1179676
-0.41001156 -0.02225954 -0.13159415 0.23111919 -0.54058766 -0.34076282 1.1464065 -1.1355996
-0.9798199 -0.117567 -1.8855631 -0.824534 1.0434581 -0.08016016 -0.16370521 -0.45775434
-0.30973208 0.67753524 -0.23135062 1.9741588 0.55706704 -0.46862638 0.40124542 0.6695122
-0.20179348 -0.0037592873 -1.2893301 -0.51419455 0.082243726 -0.14296786 0.21246885 -1.328583
-0.7324973 0.07333066 -1.1727368 1.5098137 1.0538595 0.110342875 -0.8935515 -0.5452537
-0.32525092 0.5995332 -0.07558956 -0.6440752 0.7376695 1.0211616 -0.4819713 -0.9975693
-0.3190096 0.4238773 -1.1873013 -0.28914267 0.47999343 1.79668 -0.37858927 -0.29157373
0.969065 -0.76904875 -0.6327569 0.0017907282 0.6065655 -0.5469415 -0.50194657 -0.32931376
-1.3769612 -0.57022446 -1.5703275 -0.97722954 -0.76398957 -0.779741 -0.38268408 0.21017204
-1.6161433 -0.94665337 -0.6816903 -0.22657031 -1.1239092 -0.23170452 -0.90021944 -0.15261792
-0.15859795 -0.2108981 -0.120620005 0.3740982 -0.27915153 1.6184539 1.2628621 -0.3136083
-0.3896812 -0.67131394 -0.445683 -2.1800747 0.01590005 0.29076296 0.2501334 -0.40075496
0.13419051 0.8783982 0.4982682 -0.36912483 -0.32809782 -1.0402263 -0.25632817 0.27872097
0.27694914 -0.019330936 -2.2988994 -0.26525044 -0.013234809 -0.36612177 -0.19057128 -1.6185431
-0.9260854 -0.64344144 -0.8573489 0.49860242 -0.15022177 0.6094036 2.210695 0.19850075
0.78575045 -0.5927952 0.9493323 0.3846195 -0.44593683 -1.595193 -0.14041653 -0.12579907
-1.4709473 -1.8317657 0.08330586 -0.30102867 -0.5778799 0.18848304 -0.20595865 -1.5636178
-0.99342775 -0.5173067 -1.9002268 -1.590914 -1.479752 0.5464175 -1.1030037 0.4575422
-0.16046242 -1.235212 0.3984369 -1.2929884 0.70076144 0.35284674 -2.0105608 -0.6115283
0.29994032 -1.5994229 -0.8057585 0.27086288 -0.76626223 -0.11995361 -0.061984364 -1.6730881
0.7241994 -0.15539277 -1.6865791 -0.3592086 -0.79166126 -0.29075396 -0.99418515 -0.4404087
0.13116957 -0.27947703 0.675325 0.45545277 1.156015 1.5128058 0.088278435 0.48241204
-0.60556024 0.71742386 1.3905697 -0.84136313 -0.7581993 -0.76002294 -0.31352487 -2.3096209
0.31934017 0.9090808 1.0802714 0.5154317 0.8351687 -1.1036292 0.10355743 -0.7545043
0.6882454 -0.8850829 -1.2612964 -0.5456636 0.78006196 -0.21979724 -0.20850632 -0.27171475
0.005703978 1.2169 -0.82051414 -1.1906532 0.764614 2.3822057 1.4236933 -0.5000429
0.8544227 -1.5492109 0.701612 0.105054654 0.37267542 0.8535244 -0.10986564 0.46406543
-0.97363114 -0.25739855 -0.32268703 0.13944572 0.015104557 0.10950092 -0.97120166 0.21250738
-0.14065674 0.42388523 -1.6130285 -1.726615 0.8155821 -1.8203179 -0.64544123 -2.461183
-1.3749123 0.51662314 -0.46228543 -0.47447357 -1.416598 2.0123057 1.0558769 -0.012034739

net.2.weight f4 [256, 256]
00000000: 0b91 06bf 85f7 843d fecd 593f fabc 85bd
00000010: d3ac 753f 2f08 7abf 27b4 a2be 9c39 723f
00000020: 9e75 c1be bd0f 1fbf 58e3 a23f 941f cfbe
00000030: 597e d53e 3db6 d8be 94a6 233e 3bb8 b03d
00000040: 5982 1dbf cfdb 743e 548b a43f 14b0 283f
00000050: 4d12 43be 139a 0fbd 4d67 12bf d94a 53bc
00000060: b9e9 363e 7524 edbd 274d 893f 3019 89bf
00000070: 6c3a 39bf 7b1b 5dbf 67ba 52be 0071 dc3e
00000080: 0117 933f 416d 38bf 9723 84be e1ca 0fbf
00000090: 27d3 b7bf 49d9 ea3e b347 0abd f10b cd3e
000000a0: 3a58 91be 8288 113d 9fcd 973d c2cf 26be
000000b0: bc5e 3ebf a5da 463f 5f16 023f c048 fbbe
000000c0: bf90 b3bf 1aad 473f 5d74 103f e562 29bf
000000d0: e319 3a3e 0b56 073f e1f4 a13e 0b81 9abf
000000e0: e054 2dbe eddc 323e 9700 50bf aced 88bd
000000f0: 560d 9bbe 3888 cfbf e79f 773f 03fd 92bf
00000100: f446 383e baba a4bd 190a 323f b228 abbe
00000110: f0d2 1fbf b330 23c0 6d48 9dbf 9d83 d6bf
00000120: a508 ba3d f8cc 2d3e 5c29 3e3f 3804 19bf
00000130: 3338 a0be ec83 45bf e7bb 36c0 9e33 97bf
00000140: d728 bbbf f4a2 913f 51ae 203f a90d 60bd
00000150: e2ba 223f 0c99 65be acd2 e03e 47e9 823f
00000160: da89 ea3e a20f f7be dc5f 16bf 6c15 86be
00000170: 6bef 423c a0db 49bf d3b8 003f 4f23 1c3f
00000180: 32ac 0b3e e444 573f 5506 98bf c4f7 793e
00000190: d2f3 b43d 0333 59bf f3d6 adbf 9504 b4bf
000001a0: df23 4a3f 1624 103f 61c0 b63e b55b 3d3f
000001b0: 746f 99bd 640a 4c3e a79b a13f 6f95 65bf
000001c0: 45ee e4be 8b57 183f ad5a 323f 4261 c3bf
000001d0: 01e3 a33f 2e5a 003f b90e 75be 9aa0 6dbe
000001e0: c40a eebf 8233 a1be 57ab 5bbd f757 d3be
000001f0: 866a 5d3f a10a e6bf b246 debe daa1 9a3f
00000200: 23d0 2dbf 19fb 72bf 5c41 143f c226 c33e
00000210: 19ed e8be 20a6 653f b101 5fbf ab74 c8bf
00000220: 93bb 26bf 319b c0bc 11f4 10bf 45a1 06bf
00000230: a940 003f 348e e5be 9e91 34bf ba11 bebf
00000240: 8f0f c43e fa63 50bf 5f89 48bf a97f 983e
00000250: fc03 013f ee75 5e3e 9be7 0fbf 095f cebe
00000260: 027a c33e c0f0 c43d 2690 61be f30b de3e
00000270: 8404 f8be 5280 103e 6a19 993d d367 90bf
00000280: ef1c 723e 9ada 9c3f dc12 1f3f 735f 0b3f
00000290: 3289 303f 044f 99bf 6390 b43e 326d abbe
000002a0: 806f a2bc 965c 5ebf 6688 1d3f 8989 ab3e
000002b0: 01fd 753f 27ce 0dbf 1025 ce3e c179 7a3f
000002c0: 05f5 89be 9046 27be 9ec3 8f3f 4cd6 2bbf
000002d0: c26d 3a3e 4b27 abbd 43e5 40bf c1bd 20be
000002e0: 77ea 9dbf 8c53 893e 506c 86bf f726 3cbe
000002f0: d5c2 c2be bc27 5f3e ce01 fe3d c9db 96bf
00000300: f482 1abf 4041 1bbf 562b 073e d85b 20c0
00000310: 13a0 1d3f 877a 803f e58f 363d c28c 2bbf
00000320: e4b4 8dbd e728 b13d 4aba d83f 4651 8bbf
00000330: e680 5f3e ed93 123e 324f cb3f 3a04 c33e
00000340: 34a0 89bc c52c c9bd de41 8a3f 3aea 31bf
00000350: 708d fb3e 80fe 893e 96c9 77bf 271f 0fbd
00000360: 36c5 a0be 8f2c 12bf a14b 0abf 4c52 1fbe
00000370: 37b2 5cbe 19a3 1fbf f095 bfbe 1a12 c53f
00000380: 8319 28bf 0099 ba3d 6d30 01bf 1d2f 4dbe
00000390: a1b8 0a3f fbad 823c 088d aa3f 1764 82bd
000003a0: 1a0f db3f 2f62 3ebf 08b9 1e3f 7ec7 28be
000003b0: ac11 2cbf 12dd 1fbf 28f3 143f 7792 6b3f
000003c0: 4f48 f13f 6712 56bf b2a2 ab3f bbd1 503f
000003d0: d519 ad3e 7c67 05bf 49a6 b7bf e793 933f
000003e0: e97e 943f defd e83f 0d12 123e 1165 96bd
000003f0: 3554 99be e4fc f0bf 6dc2 c7be 51b6 0bbe
-0.5256507 0.06492523 0.85079944 -0.06530185 0.95966834 -0.9766874 -0.3177807 0.94619155
-0.37785047 -0.6213339 1.272563 -0.4045378 0.41697958 -0.42326537 0.15981513 0.08628889
-0.6152702 0.23911975 1.285502 0.65893674 -0.1904995 -0.035059046 -0.57188874 -0.012896263
0.17862596 -0.11579219 1.072667 -1.0710812 -0.7235477 -0.86370057 -0.2057892 0.43054962
1.1491395 -0.7204171 -0.25808403 -0.56168944 -1.4361314 0.458689 -0.033759784 0.40048173
-0.28387624 0.035530575 0.07412266 -0.16290191 -0.74363303 0.77677375 0.50815386 -0.4907894
-1.4028548 0.7799851 0.56427556 -0.66166526 0.18173937 0.52865666 0.3163214 -1.2070631
-0.16926908 0.17467089 -0.812509 -0.06685957 -0.30283612 -1.6213446 0.96728367 -1.1483463
0.17995816 -0.08043428 0.6954666 -0.33429486 -0.6243124 -2.5498474 -1.2287728 -1.6758915
0.0908368 0.1697272 0.7428186 -0.5977206 -0.31292877 -0.7715442 -2.8552186 -1.1812627
-1.4621838 1.1377854 0.62765986 -0.054700527 0.6356641 -0.22421664 0.4391073 1.022744
0.45808297 -0.48254114 -0.5874002 -0.2618822 0.011897902 -0.78850746 0.5028202 0.60991377
0.13639906 0.84089494 -1.1876932 0.24410921 0.088355675 -0.8484346 -1.3581222 -1.4063898
0.78960985 0.5630506 0.35693648 0.7396806 -0.07491961 0.19925839 1.2625626 -0.8968114
-0.44713035 0.5950858 0.6966961 -1.5264056 1.2803651 0.50137603 -0.23931397 -0.23205796
-1.8597035 -0.3148461 -0.0536302 -0.4127805 0.86490667 -1.7971994 -0.4341331 1.2080643
-0.67895716 -0.94914395 0.5791223 0.38115507 -0.4549339 0.8970661 -0.87111956 -1.5660604
-0.65129966 -0.023511501 -0.56622416 -0.5258983 0.50098664 -0.44835055 -0.70534694 -1.484916
0.3829312 -0.8140255 -0.7833461 0.29784897 0.50396705 0.21724674 -0.56212777 -0.4030688
0.38179022 0.09616232 -0.22027645 0.43368492 -0.48440945 0.1411145 0.074755505 -1.1281685
0.2364385 1.2254212 0.6213815 0.5444252 0.68959343 -1.1977239 0.35266408 -0.33481747
-0.019828558 -0.86860025 0.6153625 0.33503368 0.9608918 -0.5539269 0.4026265 0.9784203
-0.26944748 -0.16335511 1.1231573 -0.67123866 0.18205932 -0.08357104 -0.75349826 -0.15697385
-1.2337178 0.26821554 -1.0501804 -0.18374239 -0.3803927 0.21792501 0.12402688 -1.1785823
-0.6035607 -0.6064644 0.13200125 -2.5056057 0.6157238 1.0037392 0.044570822 -0.67011654
-0.06919268 0.0865038 1.6931851 -1.0884178 0.21826515 0.14314242 1.5883543 0.38089162
-0.016800024 -0.09822992 1.0801351 -0.69498026 0.49131346 0.2695198 -0.9679197 -0.03494182
-0.3140046 -0.5709924 -0.5402165 -0.15558738 -0.21552359 -0.6235824 -0.3741908 1.5396149
-0.6566393 0.09111214 -0.50464517 -0.20037504 0.5418797 0.015952101 1.3324289 -0.06366747
1.7113984 -0.74368566 0.62001085 -0.1648235 -0.67214465 -0.624467 0.58183527 0.9202036
1.8850192 -0.8362183 1.3409026 0.81570023 0.3380877 -0.5211103 -1.4347621 1.1529511
1.160123 1.8202474 0.14264698 -0.07343496 -0.29947057 -1.8827176 -0.39015523 -0.13643767

net.2.bias f4 [256]
00000000: 96a6 58be f8ff d3be 6d85 ccbd f92e 5ebf
00000010: 49fc 3a3f b194 933f 023c ecbe 97c1 07bf
00000020: b89c b9be 5285 da3f 8bcc 683f e877 2cbf
00000030: 9ea7 cfbd 27bc 1a3e 1dbf 04bf f7f1 51bf
00000040: bcd9 13bf 3be2 01bf 740e 2f3e 75f3 793e
00000050: ee2b 3bbf 6a4b 8ebf 552c acbd 0812 72be
00000060: cda8 943e 25a3 5fbf 214c cabe 5459 33be
00000070: c135 0ebe 9db5 82be 9900 21bf aa69 aa3d
00000080: a902 863e b037 a5bf 4fb0 e83e 409d f23d
00000090: ac9a 283f 9448 ef3e f8ab 0f3f 94ba 013d
000000a0: 557f 34be 12d9 4bbf eb06 65bf 9526 1b3f
000000b0: 3662 1ebf a9af f1be f185 0fbf 6a62 3ebf
000000c0: f718 2b3e e835 1fbf bd89 29be 19f7 e0be
000000d0: f064 5bbe 204d e1bd 3381 2fbe 612c 60be
000000e0: 9e28 33bd 825c 2dbe 7025 b1be fc6b 42bd
000000f0: 7dde 023f 9365 9dbf 356a a63d 7384 8bbf
00000100: 66a6 833e eb66 00be 08f5 71be fd8e 613d
00000110: 3e99 d5be 9e4e 773e a9c6 393f 0353 1bbf
00000120: f869 07bf 1a57 b6be 9640 853c beb8 b1be
00000130: 1fde efbe 83d3 5abf bb79 40bf 334a acbf
00000140: e859 9b3e ad63 36bf f4dd df3e 550b fabe
00000150: 3960 61bf 8373 913f 9b9b 833d e08e 82bf
00000160: 4ced 3dbf bae6 a1bf c21b 45bf dc0f 16bf
00000170: 19a1 fbbe 95a5 01bf 09bc fcbe 172b c63f
00000180: d5ea b8bf 8340 1040 8ffa 27bf c617 b6bd
00000190: f612 db3c 6047 8b3e ab9a 19bf a850 983f
000001a0: 276a 163e de07 b3bd 6839 d43c 7e45 fbbe
000001b0: 3f25 bebe 27f9 bbbc a9f1 ae3e 2f20 c33e
000001c0: 61a2 023e 963d fb3e 9d69 91bf 55b3 ee3e
000001d0: 6bba 813e 4c36 153f 7537 283f ccef be3d
000001e0: 2cd2 99be 3c0a 0ebe f5ee 7fbb 194b 233f
000001f0: 42a4 e0be aedf a43d 0893 07bf 86ef 4abf
00000200: 2398 4cbf ba26 3fbf 91d5 90bd d2d1 3ebe
00000210: b104 0abf d959 4fbf 7ea7 21be 867b 79be
00000220: c78c b0bf 7e12 763e 2a5b 37bf 4b60 b5bf
00000230: c305 78be 1a60 d1bd 00f8 24bf 77f5 8fbf
00000240: e8bf 99bd 866a 9ebd 5ca8 563f b6e8 7bbe
00000250: 6abb bcbe c732 903d cd10 02be e180 fdbf
00000260: b594 16bf e3ed 8a3e 2024 43bf 04bc dcbe
00000270: 74d4 233f 87b5 f63e 0c3e 9dbf c27b 813b
00000280: 282b 933e 0b09 c7be 1b83 0bbe 31b8 efbe
00000290: e638 83bf 375b 2bbf b2af 2ebe c75f a53f
000002a0: 9499 c83e 83cf 0fbf 2f01 17be 0978 afbf
000002b0: 3ec8 823e 4e4b 19bf db37 003d 8536 ab3f
000002c0: 6fbb 31bf c63f 0ebf 7e5c c3be 7659 31bf
000002d0: be2b 9bbe 4594 2bbf 52c0 19bf b5f4 a6bc
000002e0: d643 1abf 1b97 e3bd c5ee f5bd abc8 9a3d
000002f0: cdbe cfbe a0a8 43bf b631 48be dbc9 1c3e
00000300: 3d46 a23d cb9e b63b e379 1cbf 11ba 29bf
00000310: 92a0 edbe 4443 5fbf ffdd 49be 4070 213f
00000320: 217e 7fbc dad1 c53e 9c0b 2c3e ecd1 e3be
00000330: 1548 433f 7475 3cbe 17fd 5e3f abfa b03c
00000340: 7c26 42bf 187d 98bd 2073 b9be 7d3f 95be
00000350: 6e68 e33f c9e2 c0bd 7653 a3bf 4883 613e
00000360: 897a ae3d ef1c 083e 3519 883e e4bd 243f
00000370: 01d7 f93e 3e71 a3bf a6d5 fb3d ff30 cfbd
00000380: fa24 913d bfb4 313f e422 08bf a73b b2bd
00000390: 3407 043f 067a 91be fc6b 06be 4802 6abf
000003a0: 6e7a b23f 05c7 b3bf 7acd 11bf 536a 323e
000003b0: a54c 89bf 3213 943d 6a87 84bf 199b c5be
000003c0: 4596 62be 28b9 7b3f b00f b4be cd0f 4dbe
000003d0: cf06 47bf 55ab 043e f0e0 3dbe fd9b 5f3e
000003e0: b7d5 f6be 280c 77bf edd4 6e3e a15c 50bf
000003f0: 7535 31bf 442f 55bf 70aa 2bbf 8b9f aa3f
-0.21157297 -0.41406226 -0.099863864 -0.86790425 0.73041207 1.1529752 -0.46139532 -0.5302977
-0.3625238 1.7071936 0.9093711 -0.6737046 -0.10139392 0.15110837 -0.51854116 -0.82009834
-0.5775411 -0.50735825 0.17095357 0.24409278 -0.73113906 -1.1116765 -0.08406893 -0.23639691
0.29035035 -0.87358314 -0.39511207 -0.17514545 -0.13887693 -0.25529185 -0.62891537 0.08320935
0.26173905 -1.290762 0.45447013 0.11846399 0.6586101 0.4673506 0.5612178 0.031672075
-0.17626698 -0.796281 -0.8946368 0.60605747 -0.6186861 -0.4720433 -0.56063753 -0.7436892
0.16708742 -0.6219163 -0.16556449 -0.4393852 -0.21425223 -0.110010386 -0.1713913 -0.21891929
-0.043739907 -0.1692982 -0.34598875 -0.047466263 0.5112074 -1.2296623 0.08125726 -1.0899795
0.2571289 -0.1253926 -0.23628628 0.055068005 -0.41718477 0.24151084 0.72568756 -0.6067354
-0.5289607 -0.35613328 0.016266149 -0.3471126 -0.46849152 -0.8547899 -0.75185746 -1.3460144
0.3034203 -0.71245843 0.43724024 -0.4883677 -0.8803745 1.1363376 0.06426164 -1.0199852
-0.7419021 -1.2648537 -0.7699548 -0.5861795 -0.49146345 -0.50643283 -0.4936221 1.54819
-1.4446665 2.2539375 -0.656167 -0.08891253 0.02674244 0.27202892 -0.6000163 1.1899614
0.14688931 -0.08741735 0.02590628 -0.49076456 -0.37137792 -0.022945954 0.34168747 0.38110492
0.12757255 0.49070424 -1.1360356 0.46621194 0.25337538 0.58285975 0.6570962 0.093230814
-0.3004316 -0.13871092 -0.0039052342 0.63786465 -0.4387532 0.08050476 -0.52958727 -0.79271734
-0.7991964 -0.7466847 -0.070719846 -0.18634728 -0.5391341 -0.8099647 -0.1578655 -0.24363527
-1.3792962 0.24030492 -0.7162348 -1.4170011 -0.24220948 -0.10223408 -0.6444092 -1.1246785
-0.07507306 -0.077351615 0.83850646 -0.24600491 -0.36861736 0.07040935 -0.12701721 -1.9804956
-0.5882066 0.27134618 -0.76227 -0.43112195 0.6399605 0.4818537 -1.228456 0.0039515207
0.28743863 -0.38874087 -0.13624232 -0.46820214 -1.0251739 -0.6693606 -0.1705921 1.2919854
0.3917967 -0.5617601 -0.14746545 -1.3708507 0.25543398 -0.5988053 0.031303268 1.3376013
-0.69426626 -0.5556606 -0.38156503 -0.6927713 -0.3030681 -0.67023116 -0.6005908 -0.020380357
-0.6025976 -0.111128055 -0.12008432 0.07557806 -0.40575257 -0.76429176 -0.19550213 0.15311377
0.07923553 0.005573129 -0.61123484 -0.6629954 -0.46411568 -0.87212014 -0.19713591 0.63061905
-0.015594036 0.38636667 0.16801304 -0.44496095 0.76281863 -0.1840418 0.87104934 0.021603903
-0.7583997 -0.07445735 -0.36220646 -0.2915 1.7766244 -0.09418256 -1.2759845 0.22022736
0.085194655 0.13292287 0.2658173 0.6435225 0.48796847 -1.2768934 0.122966096 -0.10116767
0.07087131 0.6941642 -0.5317824 -0.08702784 0.5157349 -0.2841341 -0.1312713 -0.9140973
1.3943613 -1.4045111 -0.5695416 0.17423372 -1.0726515 0.07230224 -1.0353825 -0.38594893
-0.22127636 0.983294 -0.3516822 -0.20025559 -0.77744764 0.12955983 -0.18542838 0.21836849
-0.48209926 -0.96502924 0.23323412 -0.8139134 -0.69222194 -0.83275247 -0.6705694 1.3329939

net.4.weight f4 [21, 256]
00000000: 1526 1abf 71cb 1dbf c030 7a3d a489 393e
00000010: 61cd aebe cc57 bc3e a435 b53e 8c4c 69bd
00000020: 7b3f 1cbf 4d75 463f 7697 97be 994c 56bf
00000030: e145 82be 7fe3 a5be eebe 78be 6a37 d1be
00000040: 2938 f1bd 881b 133f b352 543f 4d44 cbbe
00000050: 2862 293f f064 26bf 533d 083f 013a 26bf
00000060: a611 143f 2702 c1bd 8d5e 1bbe 61ff d63d
00000070: 7511 ac3e 953e 7ebe 478e a93f 6038 a83f
00000080: 8ebd 323f 0fec b63d 62ae f6be 216b 22be
00000090: 24b1 a0bd ad8d 85bf 3bf1 853f 00fc 3f3c
000000a0: 6ba4 c5be 7e6a f33e 589a 1f3f e3fe 703e
000000b0: 4c64 ddbc 6a47 3cbf 4d30 50bf d28b 64bd
000000c0: ec42 ce3e c16a 3b3f 6cd4 35bf ebb2 b3be
000000d0: 4033 b0bd 9332 bf3f d9ab e53e c8d6 663f
000000e0: 3020 2e3f 0b15 d3bd 3007 1b3f 04f8 063f
000000f0: fa6e 503e aff2 173f 96c5 aabf ba33 b9be
00000100: 32e2 853e d9eb 76be 35a0 4e3e d40b 5c3f
00000110: eb0d 8e3f c7e2 073f ffb6 0a3f 0236 90bf
00000120: 1806 39be ca6b 113f e40b fdbd 92b5 febc
00000130: bf0a 293e 183b 5dbf d18d 7b3d 242f 893f
00000140: 4ad1 3f3c f36e b8bf 6829 6f3f b091 893d
00000150: 6e48 903f a22c 9b3d 3b0c a23e 58fc dbbd
00000160: 516a 383f a91a b2bd 14f2 d6be 79f9 c2be
00000170: cf4c a13e 3ebf c9be cb76 43bf 5e78 9f3e
00000180: 2ab6 083f 934f a93e 1dc8 9ebe 3673 963f
00000190: bc15 583c 0f75 053f 1296 9abf 4dd4 043f
000001a0: d2b2 bfbe f8b9 9cbe c697 1dbe e9c5 99bf
000001b0: 3d63 1a3d b140 293f 40bd 173f 9731 2dbf
000001c0: ae6b 15bf 5978 e13e 7334 47bf af03 783f
000001d0: f29c b9bd 6cc0 113f 0259 2f3e 1518 7cbf
000001e0: 3ed1 89bd 7213 ddbe 6e2f 42be 061d dd3e
000001f0: fb29 05bf 4b14 16be 25f6 b2bf 004d 34bf
00000200: aaf8 eebe 3460 763e ed80 973f 6f3d 433f
00000210: e58f 7d3e 004e 10bf b59f 83be 4b62 52bf
00000220: 2064 9d3f eb9b a73c 4b30 ea3e 7ce5 fb3e
00000230: 12d7 51bf 9cf9 9f3e 8966 d8ba 0e43 083f
00000240: f1ca e33e 3ab0 d93e 5ba5 493f e625 523f
00000250: 48e2 3cbf 630a 73bf e663 cfbf c64d c23e
00000260: 1392 9c3e 3311 15be bb37 afbe b915 fabf
00000270: e079 72be 565a 143f 4355 95bf 7338 303f
00000280: 6160 3d3e 3d07 7abe 71d3 033f 9768 9cbf
00000290: a1c3 93bb fc97 b4be bb72 d83e e9ac 2d3f
000002a0: e6f3 043e f7dd b8bf 7ef5 1640 f802 a6bf
000002b0: c87b b63a ebad 943e c617 cdbf 4839 073f
000002c0: 3851 33be 4e6f 78be ad9d c7bf 7496 72bf
000002d0: 5eb2 643f 12ab abbe 38e0 cd3e dc50 1d3f
000002e0: 1888 c33e b5b2 4a3d e625 0f3f 7154 adbf
000002f0: 2eea 60bf 7ed0 453e 7e72 8bbd c8eb 1f3f
00000300: a930 a8bf 2175 ed3e 6849 d53e e0ac 47bf
00000310: e3bb afbf 786e 54be 0dc2 ebbe 6b1f 14bf
00000320: 6960 6f3f eb98 66bc ebb2 47be bc5c 813f
00000330: 9fa9 be3e 5fce c03e 709e 57bc 13e6 c13f
00000340: b3b5 123d 54d0 283f b399 0fbf c5f8 70bf
00000350: 1a70 253f de95 71bd c2aa 213f b930 ed3f
00000360: c195 0dbf 4a9d fb3e a995 d03e 5253 96be
00000370: db34 153f a70b 00bf 68d5 71bc 2b7b e8be
00000380: d455 9e3e e3e0 3f3e a5fd c03f f229 9dbf
00000390: fe1e 47be 7b2b 1440 d437 2ebf fb09 753e
000003a0: cd0d 37bf a84b 81be 8a98 1ebf d1f9 b8bf
000003b0: c22c 573e 790f bbbe 94bf cabf 1dc9 3a3e
000003c0: ff3f bcbd 79bf 2c3e f817 a43f cdb6 9e3f
000003d0: 412a 9dbf 7ffe cd3e 7f70 0bbf d2ff 2cbf
000003e0: 8e27 a13e 639a e43e b459 ffbe 017e 7f3f
000003f0: 2ad4 b3be 27f9 f0be 1ebe 153f 6b62 043f
-0.6021436 -0.6163855 0.061081648 0.18118912 -0.34141067 0.36785734 0.35392487 -0.056957766
-0.61034364 0.77522737 -0.29607743 -0.8371063 -0.25443938 -0.32400128 -0.24291584 -0.4086259
-0.1177829 0.57463884 0.8293869 -0.39700547 0.661654 -0.6499777 0.53218573 -0.64932257
0.5783943 -0.09424239 -0.15172787 0.104979284 0.3360707 -0.2482856 1.3246545 1.3142204
0.6982049 0.08931743 -0.4817992 -0.15861179 -0.07846287 -1.0433861 1.0464243 0.011717796
-0.38602003 0.47542185 0.62344885 0.23534732 -0.027025364 -0.7354647 -0.813237 -0.055797406
0.40285432 0.7320977 -0.71027255 -0.3509744 -0.08603525 1.4937309 0.44857672 0.9017148
0.68017864 -0.10306748 0.6055784 0.5272219 0.20354834 0.5935468 -1.3341548 -0.36172277
0.26149136 -0.24113406 0.20178302 0.8595555 1.1097997 0.5308041 0.5418548 -1.1266482
-0.18068731 0.568051 -0.123557836 -0.031092439 0.16508006 -0.86418295 0.061414544 1.0717511
0.011707613 -1.4408859 0.93422556 0.06717241 1.1272104 0.075768724 0.31649956 -0.1074149
0.72037226 -0.08696491 -0.41981566 -0.38080958 0.31503913 -0.3940372 -0.7635314 0.3114652
0.5340296 0.33068523 -0.3101205 1.175391 0.013188776 0.5213174 -1.2077048 0.51886445
-0.37441117 -0.30610633 -0.15389928 -1.2013522 0.037692297 0.66114336 0.5927315 -0.67653793
-0.5836743 0.4403713 -0.77814406 0.9688062 -0.09063138 0.5693424 0.17123798 -0.98474246
-0.06729363 -0.43178898 -0.18963405 0.43186206 -0.5201718 -0.14656179 -1.3981367 -0.7042999
-0.4667409 0.24060136 1.183622 0.76265615 0.24761923 -0.5636902 -0.25707784 -0.82181233
1.2296181 0.02046009 0.4573997 0.4919852 -0.81968796 0.31245124 -0.001651005 0.5322732
0.4449077 0.42517263 0.7876794 0.8208908 -0.7378278 -0.94937724 -1.6202362 0.3794996
0.30580196 -0.14557342 -0.34222206 -1.9537879 -0.23679304 0.5795034 -1.1666645 0.68836135
0.18493797 -0.24416824 0.5149451 -1.2219418 -0.004509405 -0.35272205 0.42275032 0.67841965
0.12983665 -1.4442738 2.3587337 -1.2969656 0.0013922388 0.2903894 -1.602288 0.5282178
-0.17511451 -0.2426121 -1.5594994 -0.94760823 0.89334667 -0.33528954 0.40210128 0.61451507
0.3818977 0.049486835 0.55917203 -1.3541394 -0.8785733 0.19317815 -0.06808947 0.6246915
-1.313985 0.46378425 0.41657567 -0.7799816 -1.3729213 -0.20745265 -0.46046486 -0.5786044
0.93506485 -0.014074544 -0.19501846 1.0106425 0.37238786 0.3765745 -0.013160333 1.5148338
0.035817813 0.65942883 -0.560939 -0.9412959 0.6462418 -0.058980815 0.6315118 1.8530494
-0.5530663 0.4914344 0.40739182 -0.29360443 0.58283776 -0.5001778 -0.014760353 -0.4540647
0.30924857 0.18738131 1.5077406 -1.2278426 -0.19445416 2.3151538 -0.68053937 0.23929588
-0.71505433 -0.25253034 -0.61951506 -1.4451238 0.21013168 -0.36535242 -1.5839715 0.18240781
-0.09191894 0.16869916 1.2819815 1.2399536 -1.227852 0.40233228 -0.5446853 -0.6757785
0.3147549 0.44649038 -0.49873126 0.9980164 -0.35122806 -0.47065088 0.5849322 0.51712674

net.4.bias f4 [21]
00000000: bb5f c13e 207f 813f beaf ea3d 0030 bdbe
00000010: e799 2d3f 8351 37bf edcc 173f 6660 ecbe
00000020: 94f5 dbbe 1ad7 1fbe 83ff 0dbf f8d3 eb3e
00000030: d3b0 683f 7f61 a23e 1939 0d3e 4c98 fb3e
00000040: f6b1 dc3e 3e2c 803e 711c 083d 453e 013f
00000050: 5d40 86be
0.3776835 1.011692 0.114593014 -0.36950684 0.6781296 -0.7160875 0.59297067 -0.46167296
-0.429608 -0.15609398 -0.55468005 0.46060157 0.9089481 0.3171501 0.13791312 0.4913963
0.43104523 0.25033754 0.03323025 0.5048564 -0.2622098
