Q3/ddpg_actor_step9550000.pth (torch, 357342 bytes, 6 tensors)

net.0.weight f4 [256, 67]
-0.20586024 0.890351 0.3773967 4.346635 -4.5687227 0.031495754 -3.5445023 2.9491758
-1.1041449 0.21229734 0.21163712 -0.5838686 -2.8563783 3.669101 -2.295867 -3.7980626
-0.103559144 1.8617374 -0.40867546 0.6671453 -1.4312265 4.730111 0.91584235 -0.18625619
-0.61628556 1.9510239 1.4370868 1.9778166 0.66189694 0.6288782 -1.0214915 0.066919066
2.3134859 0.15045644 -0.21626152 -0.32327223 1.4895011 -5.227304 5.392497 -0.106975704
-0.21405667 0.09401567 0.40711924 -0.03612612 0.6832935 0.026741706 -0.031404406 0.67408943
0.05899238 0.027308328 -0.13123673 0.13165946 -0.07325812 -0.022054147 -0.07154544 0.36007553
0.34518382 0.48013517 -0.16707486 0.12066282 0.08063988 -0.046607427 0.25423405 0.011073857
-0.06273083 0.052531503 -0.12965725 -0.28907192 0.06897813 -0.73948765 3.4985733 -1.8684847
-1.0749426 0.3558782 -2.0655181 -1.8204167 -0.68568707 -0.93219095 -0.4229429 0.5993148
-3.9826906 -3.2028167 -1.8604954 -0.2808251 -0.36766964 -1.4079837 0.7865562 1.0854447
2.6978257 5.837788 -1.473949 -0.64827013 1.0857701 -2.5683844 0.7599539 -1.0741211
0.8981947 0.31220126 0.12655145 -0.9293315 -0.9467346 -1.3166927 -0.8349336 0.23690544
8.191499 -4.867055 -1.7394843 -0.22799645 0.42511553 -2.3572211 0.9206893 -0.16784088
-0.28604266 -0.17569949 0.13750347 0.21070498 -0.123730645 0.22766618 -0.28409427 0.25274712
-0.05956017 0.17182396 -0.26292038 -0.039583802 -0.047507495 -0.08694586 0.14162682 -0.016456578
-0.096444145 -0.13368599 0.067268975 -0.086108066 0.16698146 0.010761529 0.0010318337 -0.61972654
0.61499405 -3.0041451 0.21838582 -0.4787415 2.456151 7.1539197 -0.46589208 -0.9841499
0.21130615 -0.05802662 0.77803165 -0.85005164 4.2185235 -2.27717 -4.091904 -2.8879554
2.4831836 -0.48224697 -1.6932292 -2.0719867 0.78815204 1.1012795 -0.21059641 -2.814837
1.9549286 3.4975266 -1.4858477 0.8651247 0.8080948 -0.45339698 0.8308656 -1.0906243
-0.11017558 0.19123578 0.5407589 7.858233 -2.3192973 -1.7888339 -0.5504279 0.582405
-0.56570417 0.18229458 -0.923513 0.19519249 0.19720088 -0.32231918 0.42652392 0.2093103
-0.08219864 -0.15040348 -0.1404735 -0.068088844 0.14316185 -0.48475268 -0.12664112 0.15607814
-0.18122032 0.043530792 0.02884364 -0.16713867 0.031045804 -0.020846972 -0.06329911 -0.051596347
-0.09040191 -0.4020835 -0.76275474 0.79375404 0.21551618 -1.7866504 -0.34216666 -2.7353983
0.5503406 0.44468835 -1.982546 0.10801964 1.006914 -1.713837 2.4409902 1.2874011
-3.2592962 -1.7486846 2.35815 -2.3421907 4.9488263 2.2383473 6.6457 -0.82757074
2.6713622 1.4212435 4.0084825 0.019296844 0.48497882 1.1612718 -1.1319598 -0.6667762
-0.3069764 0.29707327 -0.27177453 -0.20732984 -0.51807576 -0.38538197 0.35118997 1.5845381
-6.350533 -0.9432355 0.5785587 1.1092149 0.9258076 0.14147864 -0.22304939 -0.60992783
0.1488344 -0.20608804 -0.302784 -0.4204839 -0.03157266 -0.21579935 0.011209459 0.04186684
00000000: 07cd 52be 0bee 633f 243a c13e a217 8b40
00000010: fa32 92c0 b101 013d 20d9 62c0 4cbf 3c40
00000020: 9f54 8dbf 7964 593e 67b7 583e 6a78 15bf
00000030: e7ce 36c0 8dd2 6a40 7cef 12c0 7513 73c0
00000040: d116 d4bd 694d ee3f e93d d1be 09ca 2a3f
00000050: 6e32 b7bf 125d 9740 a574 6a3f f1b9 3ebe
00000060: e4c4 1dbf 27bb f93f 76f2 b73f 1829 fd3f
00000070: 1472 293f 29fe 203f 3cc0 82bf dd0c 893d
00000080: 2710 1440 4111 1a3e a973 5dbe f083 a5be
00000090: f9a7 be3f 1346 a7c0 568f ac40 1416 dbbd
000000a0: ac31 5bbe 4a8b c03d ef71 d03e fbf8 13bd
000000b0: 53ec 2e3f 6c11 db3c e8a1 00bd 2091 2c3f
000000c0: fea1 713d b7b5 df3c ec62 06be bdd1 063e
000000d0: 5a08 96bd e6aa b4bc 6a86 92bd d25b b83e
000000e0: efbb b03e 47d4 f53e ac15 2bbe 121e f73d
000000f0: 8526 a53d 6ee7 3ebd f72a 823e 1f6f 353c
00000100: 0579 80bd 462b 573d dfc4 04be 3c01 94be
00000110: 6844 8d3d 104f 3dbf a0e8 5f40 822a efbf
00000120: b897 89bf ab35 b63e 7331 04c0 6a03 e9bf
00000130: 3089 2fbf 11a4 6ebf f98b d8be b26c 193f
00000140: 67e4 7ec0 f3fa 4cc0 b724 eebf 4fc8 8fbe
00000150: 323f bcbe cf38 b4bf bf5b 493f daef 8a3f
00000160: 2da9 2c40 29cf ba40 5caa bcbf 08f5 25bf
00000170: 84fa 8a3f 6960 24c0 578c 423f cd7c 89bf
00000180: 16f0 653f d8d8 9f3e b496 013e abe8 6dbf
00000190: 335d 72bf 6389 a8bf 35be 55bf 5797 723e
000001a0: 6110 0341 eabe 9bc0 6ca7 debf e777 69be
000001b0: bea8 d93e b6dc 16c0 4bb2 6b3f 7bde 2bbe
000001c0: 2f74 92be 91ea 33be b6cd 0c3e 0cc3 573e
000001d0: 7e66 fdbd 5321 693e ce74 91be 1268 813e
000001e0: 5df5 73bd 9ff2 2f3e 809d 86be a022 22bd
000001f0: 3897 42bd ac10 b2bd 9f06 113e f2cf 86bc
00000200: 8284 c5bd fbe4 08be 51c4 893d 6d59 b0bd
00000210: 30fd 2a3e 2051 303c 983e 873a 66a6 1ebf
00000220: 4070 1d3f ea43 40c0 88a0 5f3e 9b1d f5be
00000230: 9431 1d40 e9ec e440 6889 eebe 3ff1 7bbf
00000240: a460 583e 52ad 6dbd 152d 473f fc9c 59bf
00000250: 25fe 8640 27bd 11c0 e1f0 82c0 43d4 38c0
00000260: 7bec 1e40 13e9 f6be bcbb d8bf 6e9b 04c0
00000270: 55c4 493f baf6 8c3f 96a6 57be 4a26 34c0
00000280: 1a3b fa3f 7ad7 5f40 4230 bebf d078 5d3f
00000290: 4ddf 4e3f a623 e8be 9cb3 543f 9499 8bbf
000002a0: bca3 e1bd 50d3 433e 2d6f 0a3f a576 fb40
000002b0: 5e6f 14c0 82f8 e4bf d8e8 0cbf 7e18 153f
000002c0: fdd1 10bf 6eab 3a3e 596b 6cbf 8ae0 473e
000002d0: 07ef 493e 0507 a5be 5861 da3e 7055 563e
000002e0: c357 a8bd 5f03 1abe 49d8 0fbe 2a72 8bbd
000002f0: 0599 123e 8131 f8be 36ae 01be f3d2 1f3e
00000300: d291 39be 584d 323d 7f49 ec3c 6626 2bbe
00000310: c553 fe3c 45c7 aabc f7a2 81bd b156 53bd
00000320: a324 b9bd e3dd cdbe e543 43bf 7733 4b3f
00000330: 46b0 5c3e f6b0 e4bf 7830 afbe c410 2fc0
00000340: 1fe3 0c3f 31ae e33e 11c4 fdbf 6739 dd3d
00000350: 8fe2 803f 035f dbbf 2f39 1c40 8fc9 a43f
00000360: 4f98 50c0 e6d4 dfbf eeeb 1640 74e6 15c0
00000370: c95c 9e40 1541 0f40 93a9 d440 addb 53bf
00000380: 99f7 2a40 4feb b53f 7d45 8040 6a14 9e3c
00000390: 254f f83e 8ea4 943f 0fe4 90bf d8b1 2abf
000003a0: 032c 9dbe fd19 983e 0826 8bbe 464e 54be
000003b0: 9da0 04bf c950 c5be 2ccf b33e 25d2 ca3f
000003c0: 9137 cbc0 e277 71bf 6c1c 143f c1fa 8d3f
000003d0: ba01 6d3f c7df 103e 0f67 64be 3b24 1cbf
000003e0: 0c68 183e be08 53be 8106 9bbe aa49 d7be
000003f0: 5552 01bd 81fa 5cbe e1a7 373c 907c 2b3d

net.0.bias f4 [256]
-0.19650671 0.8628563 -1.0111725 0.5902377 0.6978529 -0.4661326 -0.33716467 0.08445214
-1.8366435 -1.182837 0.6514013 -0.07705167 -0.027073788 -0.44379058 -1.7156408 -0.6610559
-0.8554346 -0.52603906 1.4977072 -0.9932884 -1.5298623 0.368491 -1.841769 -0.56129366
-0.87454957 -1.703434 -0.21809068 -0.8916558 -0.5927173 -0.20968737 0.26485112 -0.093082525
-0.3680977 0.9581868 -0.022903912 1.280337 -0.26233938 -0.17441115 0.94339776 -0.42394158
0.10557607 -1.8338249 0.722035 0.058828723 1.0213807 -0.13815449 0.12926424 -0.4685748
-1.0447611 -0.3315987 0.65934193 -0.6457898 0.81357586 1.1422932 0.3482769 -0.6609732
0.40610135 2.0254407 -1.784752 -0.27289838 -1.9952924 -0.37815037 -0.59313476 0.32435128
0.14361641 -0.46451652 1.0240055 -0.48484272 -0.57028824 -0.6711884 -0.22291687 -0.82951146
-0.82365745 -1.1574906 -0.94397277 -0.69291764 -0.9520165 -0.55331045 -0.72353023 0.1298697
0.78226745 -1.1114559 -1.5185227 0.93170494 -1.1503795 -0.63602096 0.47350276 -0.9220466
-0.11346896 0.42777306 0.5695115 0.6156464 -2.4408698 -0.7792426 -1.5575262 0.123459846
-1.6377002 -0.9200225 -0.84897053 -0.07970222 -0.59594977 -0.89380664 0.5549299 -1.0800316
0.08587939 -1.114626 -1.6716204 0.43946102 -0.8772588 -0.41380414 -0.15860105 -0.691676
-0.48064524 0.19484857 -1.6844747 -0.51885617 -0.42269403 0.60367316 -1.0017133 -0.12676708
0.31733072 -0.8657344 0.8759858 -0.90693104 0.2998572 -0.039178282 -0.91190344 -0.8867121
1.4290966 0.4700587 0.031926934 0.05200098 -0.90667737 -0.8691221 0.3198455 -0.2559725
-0.9487622 0.05615734 -0.46033803 0.36458707 -2.4724252 -0.5996574 -1.1477134 -1.0952389
0.066227354 -1.5021604 -0.95994014 -0.883634 -0.6629244 -0.8222918 1.91536 0.008417198
0.241698 -1.7941152 -0.32466245 0.15407379 1.3112942 0.59815073 -1.195416 -1.0031813
-2.155815 -1.3267978 0.08092141 0.2417981 -2.3854296 0.5594229 0.6062258 -1.1741803
0.71904284 1.1975904 -0.16997913 0.03685219 0.46303207 0.31276074 -1.5430744 -1.4272431
-1.0575386 -1.1421064 -0.6144794 -0.2788264 0.3003906 0.9200947 0.30733415 0.2871864
-1.6543666 -0.08326884 -1.3476249 -1.6838584 -1.7648658 -0.62720525 -0.7812376 0.57767534
-1.0657872 0.0577942 -1.6453032 -0.70012134 -1.3724843 -0.23778135 0.26496288 -0.9791835
-0.6929152 -0.7979691 -1.2087414 0.13002102 -0.09932416 -0.97854084 -0.021414327 -0.76833814
0.2666806 -0.34904572 -0.5319444 -0.24863774 -0.103593566 -1.5737985 -0.78328115 -0.2776281
-1.1806928 -0.45295456 -0.9362062 0.72155386 -0.7675202 -0.6213308 -0.5981711 1.8492823
1.7897835 -0.06548038 -1.1320764 -0.6287644 -1.981496 0.14773694 -0.7754471 1.3714727
0.66167665 -2.1435826 -0.028755246 -1.572091 -0.9222596 0.22602011 0.71154916 -1.6456192
-1.3714347 -1.2137849 -1.7875664 -1.003555 -0.047637817 0.33194566 -1.7282226 1.0779135
1.3497658 -1.4120023 0.37011075 0.54896677 -1.7004772 -0.7888445 -0.13290559 0.42408928
00000000: 0e39 49be 27e4 5c3f 1a6e 81bf d119 173f
00000010: 7da6 323f efa8 eebe d9a0 acbe 3ef5 ac3d
00000020: 2217 ebbf 3467 97bf 3cc2 263f 44cd 9dbd
00000030: d9c9 ddbc 8538 e3be 1e9a dbbf f63a 29bf
00000040: c3fd 5abf 7faa 06bf dfb4 bf3f 2648 7ebf
00000050: 87d2 c3bf daaa bc3e 16bf ebbf f1b0 0fbf
00000060: 7be2 5fbf 200a dabf 2a53 5fbe 8e43 64bf
00000070: 52bc 17bf 49b8 56be 919a 873e 0da2 bebd
00000080: 4d77 bcbe bb4b 753f fca0 bbbc 15e2 a33f
00000090: 5951 86be d698 32be 8482 713f df0e d9be
000000a0: 4438 d83d c6ba eabf 49d7 383f 63f6 703d
000000b0: 9abc 823f 5f78 0dbe d85d 043e 09e9 efbe
000000c0: bbba 85bf 4ec7 a9be a2ca 283f 7b52 25bf
000000d0: 8246 503f aa36 923f 5a51 b23e 8a35 29bf
000000e0: 84ec cf3e d2a0 0140 c172 e4bf 56b9 8bbe
000000f0: be65 ffbf ed9c c1be aed7 17bf 5f11 a63e
00000100: 2e10 133e 1cd5 edbe 9d12 833f 4e3d f8be
00000110: 69fe 11bf 01d3 2bbf 5244 64be dd5a 54bf
00000120: 37db 52bf a728 94bf 33a8 71bf 0d63 31bf
00000130: 5ab7 73bf c1a5 0dbf 4739 39bf 90fc 043e
00000140: ae42 483f 3044 8ebf f45e c2bf 3784 6e3f
00000150: a33f 93bf 45d2 22bf f46e f23e 3f0b 6cbf
00000160: 6a62 e8bd 1205 db3e 81cb 113f 019b 1d3f
00000170: 3637 1cc0 717c 47bf 055d c7bf 84d8 fc3d
00000180: 29a0 d1bf 9886 6bbf 2256 59bf eb3a a3bd
00000190: 2a90 18bf 83d0 64bf e30f 0e3f 7a3e 8abf
000001a0: 89e1 af3d 11ac 8ebf a8f7 d5bf 0901 e13e
000001b0: 0894 60bf 23de d3be 5068 22be ae11 31bf
000001c0: 2217 f6be 6286 473e de9c d7bf c2d3 04bf
000001d0: 5a6b d8be 538a 1a3f 2438 80bf 3bcf 01be
000001e0: 2c79 a23e c5a0 5dbf 9b40 603f a22c 68bf
000001f0: e286 993e 6879 20bd 8172 69bf 90ff 62bf
00000200: a3ec b63f 89ab f03e d1c5 023d fbfe 543d
00000210: 021c 68bf c97e 5ebf cac2 a33e d40e 83be
00000220: 14e2 72bf 3d05 663d 6db1 ebbe 28ab ba3e
00000230: 373c 1ec0 2683 19bf 46e8 92bf ca30 8cbf
00000240: 35a2 873d cb46 c0bf a3be 75bf d635 62bf
00000250: 6ab5 29bf b781 52bf 842a f53f 4ae8 093c
00000260: ae7f 773e 91a5 e5bf 283a a6be 85c5 1d3e
00000270: 7dd8 a73f 6820 193f 6403 99bf 3f68 80bf
00000280: dff8 09c0 83d4 a9bf 20ba a53d ec99 773e
00000290: e1aa 18c0 5736 0f3f 9d31 1b3f 8a4b 96bf
000002a0: 3113 383f a44a 993f 020f 2ebe 52f2 163d
000002b0: 8a12 ed3e 2d22 a03e 7683 c5bf e7af b6bf
000002c0: 6d5d 87bf 8b30 92bf 864e 1dbf 55c2 8ebe
000002d0: cccc 993e 548b 6b3f e75a 9d3e 190a 933e
000002e0: 49c2 d3bf db88 aabd f97e acbf ac88 d7bf
000002f0: 1fe7 e1bf 8690 20bf 30ff 47bf 88e2 133f
00000300: b76b 88bf 9cb9 6c3d 4c99 d2bf 273b 33bf
00000310: 91ad afbf f47c 73be 37a9 873e c5ab 7abf
00000320: e462 31bf b447 4cbf 0ab8 9abf 3b24 053e
00000330: 776a cbbd a781 7abf 196d afbc cfb1 44bf
00000340: 5c8a 883e 1fb6 b2be 822d 08bf e49a 7ebe
00000350: dd28 d4bd 3b72 c9bf 1d85 48bf 4525 8ebe
00000360: f120 97bf a9e9 e7be 36ab 6fbf c1b7 383f
00000370: 347c 44bf 890f 1fbf be21 19bf 48b5 ec3f
00000380: a017 e53f 941a 86bd e1e7 90bf b4f6 20bf
00000390: a9a1 fdbf 5a48 173e b383 46bf 6b8c af3f
000003a0: a463 293f 7530 09c0 1f90 ebbc 473a c9bf
000003b0: 3519 6cbf d171 673e 1628 363f a6a3 d2bf
000003c0: 2c8b afbf 4e5d 9bbf face e4bf 7e74 80bf
000003d0: df1f 43bd c8f4 a93e 6636 ddbf 12f9 893f
000003e0: 20c5 ac3f 7ebc b4bf 287f bd3e 1689 0c3f
000003f0: 3da9 d9bf b7f1 49bf 6718 08be 3b22 d93e

net.2.weight f4 [256, 256]
0.026848234 0.007118845 1.3662493 -0.06553248 1.1876501 1.0881132 1.9742552 0.9642412
1.1564844 -0.17237915 0.44877845 -0.4884878 -0.9093503 0.5318379 -1.1509551 0.15628809
-0.6230447 0.17497562 -0.2459618 1.122634 0.008558667 1.8010962 -1.1715693 -0.65827435
-0.43197522 0.15037078 1.5567908 -0.26038206 -0.23211154 -1.2450216 1.3342326 0.12798326
-0.52415 -1.1743282 0.5342825 -0.3630871 1.3130866 -0.26066893 -0.04167312 0.22414869
0.7950036 0.0489776 -0.33498308 -2.1875722 1.4007263 -0.77763355 1.2681221 -1.2253376
0.4294246 -1.0249584 -1.0283649 0.20869875 -1.0514568 -1.1980041 0.40705013 1.1457431
0.5115907 0.7863373 -0.15775155 1.8097317 -2.0688162 -2.0905213 -0.071142 1.0103145
0.4697588 1.5189288 0.6364706 -0.4697871 -0.17684685 -0.8528407 0.19808684 1.3005216
0.25228494 -2.4995198 0.57509696 0.51317024 -0.31800398 -0.27289402 -0.37616605 0.5944413
-0.5297337 -0.41401443 -0.36298275 0.34599403 -0.60370404 -0.68244183 -1.3061318 -1.3154873
-0.2476387 -0.86915326 -0.80797386 -0.3846375 -0.23076656 -0.5199189 0.31742212 0.15583616
-0.3523258 0.98221934 0.6919432 -1.6920037 1.7055571 0.8678513 -1.7061032 -0.3573786
-0.05563172 0.11641754 0.6437696 0.61654615 -0.17359385 -1.0557534 1.727369 -1.1729045
1.3571838 0.3529019 -0.4667175 -0.57256293 -0.6012168 -0.74797595 -1.8291945 -0.7914888
1.0259185 0.16744897 -2.7255397 -0.16370274 -0.33066168 0.38101435 -0.25495714 0.2530111
-0.86107534 0.21840028 0.42157665 0.64115614 0.08328682 -0.65640074 0.9147112 1.6084714
-0.28342643 -0.26029494 -0.23328508 -1.0963186 -1.1830307 0.533854 0.1083851 1.7068672
-0.5728733 0.13528866 -0.16415863 -0.06681054 -1.7003487 -1.4838393 -1.2818897 -0.7080989
0.00023753881 0.5705158 -0.09642354 -0.53054243 -1.0488852 1.9282655 1.143776 -0.71028537
-0.20085791 -1.4431134 -0.841537 0.28126693 -2.2250152 -0.36449167 -0.24874529 -0.9314788
-0.6916459 -0.5358888 -1.5710644 1.187614 0.84814835 0.12511043 0.30810222 -0.046259582
-0.3035657 -0.82689697 0.7030464 0.06345477 -0.28818122 -0.17471981 1.2603519 -0.6640628
-0.0506257 0.42585602 0.56334144 0.21396546 0.6181322 -0.001791543 -1.3142852 -0.282876
0.29735357 -0.3961455 0.8252127 -2.5540278 0.40328443 0.31752613 -0.57720757 0.00027300903
-1.718518 -0.14978924 -1.0440049 1.3946149 0.041197117 0.3009121 0.16995944 0.9098065
1.0321867 0.17571048 -2.4223926 0.3292547 -1.625887 0.1730085 0.21732563 0.4756357
1.3147547 0.968428 1.9324208 0.34401774 -0.76364785 -1.4825563 0.24105206 -1.3494146
0.47163755 -0.055999905 -0.5405872 -0.968152 -0.8779546 1.377327 0.42313424 0.6948978
-1.1688542 -0.57594603 -0.38622585 -0.092811525 0.3888689 -0.04524918 -1.1251726 0.53575516
0.6997178 -0.81767017 -0.13137154 -0.39323497 -0.5655435 -2.1928153 0.6670632 0.61994267
-1.480283 -1.7585117 0.018425182 -0.215726 -0.0029256595 0.64323926 0.3189414 -0.6126672
00000000: d4f0 db3c 3345 e93b 42e1 ae3f e535 86bd
00000010: eb04 983f 4b47 8b3f 65b4 fc3f 83d8 763f
00000020: ae07 943f 2984 30be 4ac6 e53e 131b fabe
00000030: 2ecb 68bf 8726 083f 7f52 93bf fc09 203e
00000040: dc7f 1fbf cf2c 333e 69dd 7bbe 79b2 8f3f
00000050: a739 0c3c 528a e63f fcf5 95bf ab84 28bf
00000060: db2b ddbe ccfa 193e ec44 c73f cc50 85be
00000070: a6ae 6dbe de5c 9fbf 22c8 aa3f 0b0e 033e
00000080: b22e 06bf 6350 96bf bdc6 083f 8de6 b9be
00000090: 3913 a83f 6676 85be 6fb1 2abd 3c87 653e
000000a0: 5b85 4b3f bc9c 483d e782 abbe 2f01 0cc0
000000b0: 004b b33f fe12 47bf d351 a23f ddd7 9cbf
000000c0: 8bdd db3e d631 83bf 76a1 83bf 20b5 553e
000000d0: 2396 86bf 3358 99bf e068 d03e b6a7 923f
000000e0: 9cf7 023f 674d 493f 9f89 21be 4aa5 e73f
000000f0: 7c67 04c0 1acb 05c0 e6b2 91bd fc51 813f
00000100: 3a84 f03e 426c c23f bdef 223f ef87 f0be
00000110: 5717 35be c553 5abf 47d7 4a3e 7e77 a63f
00000120: 7e2b 813e 22f8 1fc0 8e39 133f 205f 033f
00000130: 6bd1 a2be c4b8 8bbe d698 c0be 4e2d 183f
00000140: a19c 07bf b3f9 d3be e0d8 b9be 2126 b13e
00000150: 598c 1abf 82b4 2ebf 542f a7bf e361 a8bf
00000160: 0095 7dbe d480 5ebf 60d7 4ebf 35ef c4be
00000170: 124e 6cbe 6819 05bf 2785 a23e 8493 1f3e
00000180: 0c64 b4be ba72 7b3f 3123 313f 9493 d8bf
00000190: b24f da3f 812b 5e3f 9761 dabf 54fa b6be
000001a0: 16de 63bd 526c ee3d 16ce 243f f8d5 1d3f
000001b0: 96c2 31be ed22 87bf 6d1a dd3f bc21 96bf
000001c0: 33b8 ad3f 8faf b43e 99f5 eebe 7c93 12bf
000001d0: 58e9 19bf 5a7b 3fbf 0c23 eabf 039f 4abf
000001e0: 4c51 833f be77 2b3e 3e6f 2ec0 b1a1 27be
000001f0: 7d4c a9be 5014 c33e be89 82be ac8a 813e
00000200: 6f6f 5cbf 53a4 5f3e e5d8 d73e cf22 243f
00000210: 4892 aa3d e109 28bf 832a 6a3f 64e2 cd3f
00000220: 451d 91be 6145 85be 49e2 6ebe 2b54 8cbf
00000230: 8d6d 97bf a8aa 083f 02f9 dd3d a07a da3f
00000240: d3a7 12bf 1c89 0a3e 3319 28be f7d3 88bd
00000250: 07a5 d9bf 72ee bdbf f614 a4bf f845 35bf
00000260: d713 7939 530d 123f b479 c5bd a1d1 07bf
00000270: df41 86bf 67d1 f63f 4167 923f 43d5 35bf
00000280: b2ad 4dbe f1b7 b8bf f86e 57bf 3802 903e
00000290: a666 0ec0 a79e babe 16b7 7ebe 6575 6ebf
000002a0: b50f 31bf 0230 09bf a318 c9bf bc03 983f
000002b0: 4020 593f f31c 003e 93bf 9d3e b07a 3dbd
000002c0: f76c 9bbe 85af 53bf d9fa 333f 93f4 813d
000002d0: 7d8c 93be c0e9 32be 3653 a13f 0500 2abf
000002e0: e55c 4fbd cd09 da3e 2537 103f c319 5b3e
000002f0: e93d 1e3f 35d2 eaba 7f3a a8bf 20d5 90be
00000300: ba3e 983e 95d3 cabe 2441 533f 3175 23c0
00000310: 4c7b ce3e c992 a23e e0c3 13bf a722 8f39
00000320: 66f8 dbbf 5a62 19be f4a1 85bf be82 b23f
00000330: 4fbe 283d 2711 9a3e d909 2e3e 14e9 683f
00000340: b21e 843f 73ed 333e 7b08 1bc0 1294 a83e
00000350: 111d d0bf 2429 313e 9c8a 5e3e 8686 f33e
00000360: e249 a83f e6ea 773f 9159 f73f 1823 b03e
00000370: 6d7e 43bf 68c4 bdbf 5ad6 763e 9eb9 acbf
00000380: 7a7a f13e 2860 65bd ec63 0abf cfd8 77bf
00000390: a2c1 60bf 404c b03f 0da5 d83e d2e4 313f
000003a0: 049d 95bf 3371 13bf 65bf c5be f813 bebd
000003b0: d319 c73e 3457 39bd a805 90bf 4027 093f
000003c0: b520 333f d552 51bf 4386 06be 1856 c9be
000003d0: 75c7 10bf 1657 0cc0 a7c4 2a3f 90b4 1e3f
000003e0: ea79 bdbf e916 e1bf 68f0 963c 47e7 5cbe
000003f0: 6cbc 3fbb 54ab 243f 4a4c a33e c2d7 1cbf

net.2.bias f4 [256]
-0.046955127 0.40475866 0.06536836 -1.1797329 -0.12456104 -0.0054847193 -0.074295744 -0.35256663
-0.5593416 -0.034550164 -0.22601135 -0.26836365 -1.0260961 -0.32238677 -0.2382328 -0.1974174
0.1320055 -0.47439197 -0.62324905 -0.6575763 0.11156764 -0.3712289 0.36139703 -0.3216026
-0.089590825 -0.7024283 -0.12624842 0.51261204 -0.5350578 -0.4075997 0.08057475 -0.28804845
-1.0754203 -0.4762826 0.2903161 0.11458657 -0.9072945 -0.53597796 -0.079440236 -0.101850554
0.42572105 -0.67969096 -0.24654408 -0.23099114 -0.13347508 -0.22914043 -1.1354003 -0.47613904
-0.11306911 -0.7248756 0.000991329 -0.29331765 -0.4783094 0.7522142 -0.25865528 -0.67446464
-0.016899815 0.035301205 -0.7747751 -0.18178442 0.099140406 -0.8267303 -0.32519293 -1.0220541
-0.5972553 -0.42962268 -0.35595325 0.09826315 -0.26848388 -0.17202736 -0.0908042 -0.07220794
-0.3937871 0.19030997 0.2901339 0.08866783 0.028065685 -0.2725647 -0.07492635 -0.4090105
0.07960358 0.15325826 -0.44334576 -0.19351879 -0.06532508 -1.0359489 -0.30218786 0.01883026
0.3709688 -0.9346451 -0.64759475 -0.5660108 -0.36497244 0.51777077 0.04298756 -0.741329
-0.5638332 -0.31851175 0.48313367 -0.9505309 -0.052930355 -0.30158845 0.039442442 0.03880768
-0.5234072 -0.26940012 -0.62042034 -0.050688263 0.75907457 -0.22520646 0.030717434 -0.41960728
-0.26139036 -0.79703724 -0.47871163 -0.27732044 0.20556204 -0.032179445 -0.14327724 0.29303467
-0.104610324 -0.03846526 0.32265183 -0.54272217 0.11538149 -0.33188295 -0.12968548 -0.13780098
-0.019864865 -0.6040374 -0.28375623 -0.5655652 -0.29809794 0.1448396 -0.19931287 -0.7218055
0.30342343 -0.33815697 -0.12653919 -0.3227448 -0.11471033 -0.5588359 -0.74373794 -0.5540406
0.2484166 -0.45516253 -0.22917156 -0.30758414 -0.06584625 0.18673992 -0.41939256 0.6794782
-0.187562 -0.9676435 -0.61805123 -0.21523592 -0.36507058 -0.19231711 -0.16130747 0.08493458
-0.16719715 0.018409066 -0.43967003 -0.22328307 -0.17220564 -0.6525802 0.4663092 -0.17155965
0.35686475 -0.1841234 0.14309889 0.38128528 -0.022587402 -0.273139 -0.14202476 -0.43000352
-0.02714105 0.27169 -0.715905 -0.23489207 -0.29083547 -0.8291725 -0.11206217 -0.18674707
-0.483363 -0.1710893 0.0029187652 -0.0017482096 -0.3746413 0.022668857 -0.6039097 -0.794991
-0.5959462 -0.6026843 0.41690058 0.27851626 -0.5165559 0.36851856 0.09138389 -0.23670265
-0.491507 -0.4267017 -0.18453237 -0.41315922 -0.14962189 -0.43164748 -0.6787276 -0.23995346
0.3445845 -0.08643958 -0.57038516 -0.8409996 0.64620835 -0.06573029 -0.07505176 0.0022181836
-0.58492374 0.024137052 -0.46761277 -0.34177 -0.46320626 -0.040770046 0.650781 -0.46640292
0.0865142 0.103410944 -0.90879875 -0.3704361 -0.08961727 -0.64973456 -0.4337441 -0.040299114
-0.77613366 -0.75058573 -0.8517711 -0.14409268 0.65785396 -0.2645261 0.06833695 -0.34526446
-0.8079366 -0.86162287 0.517123 -0.43399823 -0.14521228 -0.28195968 -0.64213556 -0.35399526
-0.7699399 0.20358443 -0.38112172 -0.08465573 -0.60719097 -0.45944688 0.09108305 -0.46042746
00000000: 0554 40bd 873c cf3e d9df 853d 7d01 97bf
00000010: dc19 ffbd 29b9 b3bb 5e28 98bd 9d83 b4be
00000020: 0331 0fbf 7984 0dbd 856f 67be f666 89be
00000030: 1e57 83bf e10f a5be 4df3 73be c927 4abe
00000040: 732c 073e 81e3 f2be 408d 1fbf ec56 28bf
00000050: 937d e43d b711 bebe 0809 b93e 19a9 a4be
00000060: 657b b7bd 57d2 33bf 4447 01be 8b3a 033f
00000070: 8cf9 08bf e8b0 d0be 6004 a53d 167b 93be
00000080: 5fa7 89bf 50db f3be 50a4 943e 5dac ea3d
00000090: 7444 68bf da35 09bf 90b1 a2bd 0697 d0bd
000000a0: 1cf8 d93e 3a00 2ebf 0d76 7cbe f188 6cbe
000000b0: b1ad 08be caa3 6abe cc54 91bf 7fc8 f3be
000000c0: c790 e7bd 7391 39bf 7bef 813a bb2d 96be
000000d0: f8e4 f4be 1c91 403f 776e 84be b7a9 2cbf
000000e0: 7b71 8abc ff97 103d a957 46bf b225 3abe
000000f0: 200a cb3d 99a4 53bf b07f a6be abd2 82bf
00000100: b9e5 18bf 81f7 dbbe 813f b6be 313e c93d
00000110: b876 89be f127 30be 8df7 b9bd c2e1 93bd
00000120: 769e c9be 9ee0 423e 6e8c 943e 7b97 b53d
00000130: 02ea e53c 9a8d 8bbe fc72 99bd d369 d1be
00000140: 3407 a33d bcef 1c3e 37fe e2be ca29 46be
00000150: 28c9 85bd f999 84bf 5eb8 9abe eb41 9a3c
00000160: 9fef bd3e e744 6fbf c5c8 25bf 15e6 10bf
00000170: abdd babe a08c 043f b913 303d bdc7 3dbf
00000180: 5f57 10bf f913 a3be 4c5d f73e fe55 73bf
00000190: 80cd 58bd cd69 9abe 668e 213d cdf4 1e3d
000001a0: 04fe 05bf d0ee 89be ded3 1ebf 7f9e 4fbd
000001b0: b652 423f 869c 66be 21a3 fb3c c4d6 d6be
000001c0: f5d4 85be a20a 4cbf b119 f5be f2fc 8dbe
000001d0: db7e 523e 98ce 03bd 45b7 12be a408 963e
000001e0: f03d d6bd c08d 1dbd 9f32 a53e d7ef 0abf
000001f0: 214d ec3d 90ec a9be 45cc 04be b31b 0dbe
00000200: a4bb a2bc 32a2 1abf 7f48 91be e2c8 10bf
00000210: 4ba0 98be d550 143e ac18 4cbe 3fc8 38bf
00000220: 515a 9b3e e922 adbe 7d93 01be ce3e a5be
00000230: 40ed eabd df0f 0fbf 9c65 3ebf 9bd5 0dbf
00000240: ec60 7e3e 100b e9be f3ab 6abe ab7b 9dbe
00000250: 66da 86bd c038 3f3e 9fba d6be 49f2 2d3f
00000260: 4110 40be 7cb7 77bf 9b38 1ebf ce66 5cbe
00000270: 88ea babe c7ee 44be c92d 25be 2ef2 ad3d
00000280: bb35 2bbe 9cce 963c 6e1c e1be 51a4 64be
00000290: ad56 30be 7f0f 27bf 14c0 ee3e 55ad 2fbe
000002a0: fab6 b63e d88a 3cbe 8488 123e d337 c33e
000002b0: 3709 b9bc e0d8 8bbe f06e 11be 6c29 dcbe
000002c0: e856 debc f41a 8b3e 8d45 37bf 8c87 70be
000002d0: 63e8 94be a644 54bf da80 e5bd a03a 3fbe
000002e0: 5b7b f7be 0932 2fbe c148 3f3b 2e24 e5ba
000002f0: fcd0 bfbe 0ab4 b93c d399 1abf 8884 4bbf
00000300: ee8f 18bf 8549 1abf fe73 d53e af99 8e3e
00000310: 023d 04bf 77ae bc3e 7a27 bb3d 2e62 72be
00000320: cea6 fbbe a578 dabe 0ef6 3cbe 9b89 d3be
00000330: 7b36 19be e600 ddbe 18c1 2dbf 5cb6 75be
00000340: 616d b03e 3c07 b1bd c304 12bf c04b 57bf
00000350: e96d 253f 9a9d 86bd bdb4 99bd f25e 113b
00000360: 90bd 15bf 11bb c53c f16a efbe 7afc aebe
00000370: 5f29 edbe 7efe 26bd 9599 263f 5dcc eebe
00000380: 5b2e b13d 1ec9 d33d 09a7 68bf cda9 bdbe
00000390: 4289 b7bd 0155 26bf b513 debe af10 25bd
000003a0: b2b0 46bf 6326 40bf ac0d 5abf 088d 13be
000003b0: 1e69 283f f76f 87be 3ef4 8b3d 81c6 b0be
000003c0: efd4 4ebf 5193 5cbf 2c62 043f 0435 debe
000003d0: 87b2 14be 055d 90be ff62 24bf de3e b5be
000003e0: c81a 45bf 7078 503e 6322 c3be fc5f adbd
000003f0: de70 1bbf 9f3c ebbe c089 ba3d 26bd ebbe

net.4.weight f4 [21, 256]
-1.2835613 0.38385317 0.297563 0.95856553 -0.48039842 -1.614446 0.22426136 -1.1711035
1.2254871 0.0014969016 -0.13140218 0.17533351 -1.4991925 1.0744619 0.8851423 0.30658925
-1.1271427 -0.26376423 -0.18541583 1.2424858 1.3018004 -0.48609695 0.83043796 -0.7974108
0.41877663 0.4069523 1.722956 -1.0161831 -0.8267129 1.1200856 -0.115547806 -0.20237663
-0.092825085 0.9723682 0.11080612 0.26494893 1.3109341 -0.46788484 1.5321985 -0.10000469
-0.4789328 0.9884019 0.022290168 1.681639 0.62034357 0.64387953 0.4681194 -0.42663765
-0.4638775 -0.24054204 -0.33758393 -0.65615195 1.2016842 -0.29018006 -0.5874344 1.7823908
0.5395363 0.53030854 1.4457849 -0.057763785 0.021576498 1.2590005 -1.0363431 0.05136955
0.42976364 -1.174671 -0.65766513 0.2810238 -0.81364673 -0.32688904 -1.8960917 -0.78941447
0.44027814 -0.2841014 -0.628911 0.6040815 0.12077615 -0.07179216 -1.2899252 0.5727936
-1.298716 -0.35219726 0.13652515 0.14600305 -0.0029766136 0.4388807 0.68385327 0.8129511
-0.2864099 0.9886019 0.06626503 -0.65883315 -0.44838166 0.7379616 -1.0852858 1.251874
0.58311814 2.7617142 -0.037319228 -0.3171016 0.86445963 0.5510347 0.6984042 0.29429984
-0.18534319 -0.50288963 -3.5869565 0.5091877 0.07590301 0.27183032 0.88390845 0.0744883
-1.0193897 0.24001746 0.018122224 -0.74435574 0.9714747 0.6056363 -0.8192882 -0.7202382
-0.34112573 0.16516978 -0.5204926 -0.30707756 0.63040805 -0.37953284 0.4813994 -0.06424735
0.008798868 0.08233513 -0.062099926 0.57610464 0.105953954 0.11578112 -1.2143964 -1.1474804
0.14448354 0.73861253 -0.6709297 0.17831655 0.65416867 1.0153391 -0.96005017 0.06568724
2.3964734 0.39494017 0.5774808 -1.3156177 1.3656939 -2.510915 -0.37987474 0.00040578953
-2.1294787 -0.2076936 0.4849028 -0.38611016 -0.14877099 -0.09916968 -0.73067504 -0.28799683
-0.032264408 -0.45619524 -0.36200625 2.17293 0.19475329 -0.7351341 -1.5680277 1.2217838
-2.0074599 1.1240104 -0.17277719 0.015416328 -0.69072044 -0.057369392 -0.54167026 0.48694754
-0.7632468 -1.2625825 0.90429723 0.1891168 0.3615804 -1.6281753 -1.0381277 -1.0103346
0.53068805 -0.0035016031 0.5008303 -1.0805681 0.37580362 0.21608618 -0.92686635 0.20822375
-0.21364863 -1.1175196 0.037196707 0.44528624 0.7689882 -0.4070521 0.10585638 -0.041453466
-0.03197994 1.8960869 -0.48599732 -0.11594649 0.4007738 -0.20835757 -0.73976815 0.3449345
0.7110611 -0.43063995 0.43366006 -0.14018878 0.27091315 -0.5160507 0.8200504 0.47044727
-0.28523386 1.2810909 0.4670314 -0.5651603 0.5601931 0.522318 1.3753923 -0.82331765
-0.7548658 -0.70622826 0.049149342 -0.76305693 1.2438447 1.1081047 -0.07511802 0.27050778
-0.58062994 1.5738242 -1.5044937 1.3374438 0.08544317 1.2337266 -0.8028474 -0.27702907
-0.5903341 -1.5318487 -0.3786154 0.18498033 1.3410912 -0.5452195 0.40043214 0.2796562
0.60395193 -0.25632414 1.5550731 -1.3677632 -0.7886204 -1.1825447 1.088665 0.6936111
00000000: bd4b a4bf 6788 c43e 2d5a 983e 8d64 753f
00000010: c8f6 f5be 2ba6 cebf c5a4 653e b8e6 95bf
00000020: c3dc 9c3f af33 c43a 4b8e 06be a18a 333e
00000030: 8ae5 bfbf f887 893f b098 623f 44f9 9c3e
00000040: 3646 90bf 1b0c 87be a6dd 3dbe c609 9f3f
00000050: 65a1 a63f b3e1 f8be 9597 543f 1d23 4cbf
00000060: e469 d63e 0d5c d03e d289 dc3f 4a12 82bf
00000070: 75a3 53bf f75e 8f3f 54a4 ecbd d23b 4fbe
00000080: 141b bebd 1fed 783f 52ee e23d 63a7 873e
00000090: b0cc a73f 9a8e efbe 151f c43f 42cf ccbd
000000a0: ae36 f5be e807 7d3f df99 b63c f23f d73f
000000b0: d6ce 1e3f 4ad5 243f 59ad ef3e 4070 dabe
000000c0: 5a81 edbe a750 76be cdd7 acbe 93f9 27bf
000000d0: cad0 993f 7b92 94be 1a62 16bf 6225 e43f
000000e0: 0d1f 0a3f 4dc2 073f 7b0f b93f b899 6cbd
000000f0: 32c1 b03c ee26 a13f e4a6 84bf e168 523d
00000100: fb09 dc3e 9f5b 96bf be5c 28bf 5ae2 8f3e
00000110: 274b 50bf 005e a7be 22b3 f2bf 1117 4abf
00000120: 236c e13e bd75 91be 5000 21bf 16a5 1a3f
00000130: 7c59 f73d c507 93bd 451c a5bf 9aa2 123f
00000140: 533c a6bf 3353 b4be 40cd 0b3e d381 153e
00000150: 4a13 43bb f9b4 e03e 0211 2f3f 901d 503f
00000160: 52a4 92be 0415 7d3f f6b5 873d 4aa9 28bf
00000170: 4892 e5be 0deb 3c3f a5ea 8abf 683d a03f
00000180: 3b47 153f edbf 3040 0cdc 18bd 245b a2be
00000190: 3a4d 5d3f 9c10 0d3f 9eca 323f 78ae 963e
000001a0: 9bca 3dbe 60bd 00bf b290 65c0 205a 023f
000001b0: 0a73 9b3d 582d 8b3e d347 623f 528d 983d
000001c0: 5d7b 82bf 23c7 753e 0f75 943c 198e 3ebf
000001d0: 91b2 783f fb0a 1b3f dfbc 51bf 8861 38bf
000001e0: 08a8 aebe 4422 293e 013f 05bf 4539 9dbe
000001f0: 6c62 213f 2152 c2be fb79 f63e 1d94 83bd
00000200: 2129 103c 529f a83d 7e5c 7ebd 987b 133f
00000210: 63fe d83d a71e ed3d 5771 9bbf a3e0 92bf
00000220: 7ef3 133e b615 3d3f 0cc2 2bbf 9d98 363e
00000230: 9977 273f a2f6 813f d9c5 75bf 0887 863d
00000240: d25f 1940 9935 ca3e c8d5 133f 2966 a8bf
00000250: 0fcf ae3f d5b2 20c0 f17e c2be 26c0 d439
00000260: 6149 08c0 a2ad 54be 2e45 f83e 3bb0 c5be
00000270: 6c57 18be 7919 cbbd 850d 3bbf 5274 93be
00000280: af27 04bd 6c92 e9be e258 b9be 4911 0b40
00000290: 686d 473e c031 3cbf 22b5 c8bf 6963 9c3f
000002a0: 397a 00c0 93df 8f3f 81ec 30be c494 7c3c
000002b0: 0ed3 30bf 2bfc 6abd e7aa 0abf 3051 f93e
000002c0: 2464 43bf 4e9c a1bf 0680 673f d6a7 413e
000002d0: 1121 b93e 0c68 d0bf 5ee1 84bf a552 81bf
000002e0: 2cdb 073f 277b 65bb 6a36 003f 0e50 8abf
000002f0: 5569 c03e b245 5d3e 1d47 6dbf 9b38 553e
00000300: b5c6 5abe e20a 8fbf 935b 183d 8ffc e33e
00000310: 69dc 443f 2269 d0be 3bcb d83d 1ccb 29bd
00000320: 66fd 02bd fab2 f23f a4d4 f8be 5a75 edbd
00000330: 3932 cd3e b05b 55be 7261 3dbf 419b b03e
00000340: 1a08 363f d77c dcbe b108 de3e a68d 0fbe
00000350: 21b5 8a3e e61b 04bf d3ee 513f 77de f03e
00000360: 2c0a 92be c9fa a33f bd1e ef3e 58ae 10bf
00000370: d168 0f3f a2b6 053f db0c b03f f2c4 52bf
00000380: e33e 41bf 60cb 34bf d250 493d b357 43bf
00000390: 4e36 9f3f 60d6 8d3f 7ad7 99bd ff7f 8a3e
000003a0: 2aa4 14bf 1273 c93f 4093 c0bf 5c31 ab3f
000003b0: d4fc ae3d c1ea 9d3f 6887 4dbf c1d6 8dbe
000003c0: 2320 17bf 9e13 c4bf e1d9 c1be 7c6b 3d3e
000003d0: e0a8 ab3f 8193 0bbf 7105 cd3e 192f 8f3e
000003e0: 989c 1a3f eb3c 83be a30c c73f dd12 afbf
000003f0: 07e3 49bf a05d 97bf 6059 8b3f 7f90 313f

net.4.bias f4 [21]
0.1974945 0.49282098 0.15183818 0.10319383 0.48674133 0.0047323243 0.565887 -0.115633264
-0.04132559 -0.21001872 -0.7545965 0.17121787 -0.122328155 0.5479071 -0.62740123 -0.17031647
0.2552514 0.6716545 -0.17036502 -0.040652007 0.6639218
00000000: 003c 4a3e 0853 fc3e 787b 1b3e 4957 d33d
00000010: 2936 f93e 9d11 9b3b f8dd 103f 22d1 ecbd
00000020: 0645 29bd 260f 57be 3c2d 41bf bd53 2f3e
00000030: 2f87 fabd a443 0c3f 5e9d 20bf 7167 2ebe
00000040: 50b0 823e 8df1 2b3f 2b74 2ebe b882 26bd
00000050: c7f6 293f
