Q3/sac_actor.pth (torch, 378716 bytes, 6 tensors)

net.net.0.weight f4 [256, 67]
0	0xbdf7df52	-0.12103142
1	0xbd57ca96	-0.052683435
2	0xbdff47ab	-0.124648415
3	0x3da6f58c	0.08152303
4	0x3e30fede	0.17284724
5	0x3c3a0b2f	0.011355205
6	0x3d2118a8	0.039330155
7	0xbc4180df	-0.01181051
8	0xbdc718a9	-0.097215004
9	0x3c1f5849	0.009725639
10	0xbdf655e8	-0.12028104
11	0x3ca9ea9c	0.020741753
12	0x3e1948ed	0.14969225
13	0x3d8b5bc2	0.06804611
14	0xbe257959	-0.16159572
15	0x3e89b2d4	0.26894248
16	0x3d209b7b	0.039210778
17	0xbd92e83a	-0.071732
18	0xbdab73a5	-0.08371667
19	0xbe63a212	-0.22229794
20	0x3bbe6500	0.00581038
21	0xbd4b1990	-0.049584925
22	0x3d0d29b7	0.03446361
23	0xbe0c48b4	-0.13699609
24	0x3d7541c1	0.05987716
25	0xbe1c57bf	-0.15267847
26	0x3c27969b	0.010228778
27	0xbd8e3d60	-0.069453
28	0xbe1fe8c7	-0.15616141
29	0xbd9982c8	-0.07495648
30	0xbd8b75c8	-0.06809574
31	0xbdfe876d	-0.12428174
32	0xbd4aa3f9	-0.049472783
33	0x3de8fe60	0.11376643
34	0xbdd40f2f	-0.103544585
35	0x3e038722	0.12844518
36	0x3d888d4a	0.06667574
37	0x3de4d2f5	0.11173049
38	0x3e66dacf	0.22544406
39	0x3c0399fb	0.008032317
40	0x3d977f4a	0.07397325
41	0xbd05e992	-0.032693453
42	0x3c6e24ee	0.014535172
43	0xbd5f56a0	-0.05452597
44	0x3ba7901c	0.0051136147
45	0xbdbaa40a	-0.09113319
46	0x3ce1ba0e	0.027554538
47	0xbdee9742	-0.11649944
48	0x3d773c4e	0.060360245
49	0x3d371217	0.044694986
50	0xbdd25d59	-0.10271711
51	0x3cff00f6	0.031128388
52	0xbda6be76	-0.08141796
53	0xbdbd0be5	-0.09230784
54	0x3d879260	0.06619716
55	0xbd9ea0e2	-0.0774553
56	0x3daefd32	0.08544387
57	0x3d37f0b2	0.04490728
58	0x3d8c2a69	0.068440266
59	0xbcbc1be1	-0.022962512
60	0x3db381df	0.08765005
61	0x3db1bba7	0.0867837
62	0x3def2693	0.11677279
63	0x3e0994c5	0.13435657
64	0xbd872b0b	-0.06600007
65	0xbd92b732	-0.07163848
66	0xbdccf757	-0.10008114
67	0xbd2130ce	-0.039353184
68	0xbc486e87	-0.012233383
69	0xbcba2f22	-0.022727553
70	0x3ce30cb4	0.027716018
71	0x3d8a2b22	0.06746508
72	0x3d42401a	0.047424413
73	0xbd842950	-0.06453192
74	0x3e1b9a82	0.15195659
75	0x3cafa5cc	0.021441363
76	0x3cb23126	0.021751951
77	0x3d6aef94	0.057357386
78	0xbc20b882	-0.009809615
79	0x3cb7bd1d	0.022429043
80	0xbd36d58b	-0.044637244
81	0xbd7eda77	-0.062220063
82	0x3e568c9c	0.20952076
83	0x3e0fdf37	0.14049993
84	0xbd91aacd	-0.07112656
85	0xbb910bbc	-0.0044264477
86	0xbcc85286	-0.024453413
87	0xbdb22890	-0.08699143
88	0xbda45883	-0.08024695
89	0x3c3f3178	0.011669509
90	0x3c815afc	0.015790455
91	0x3e092043	0.13391213
92	0xbc022e1d	-0.007945565
93	0xbe234ede	-0.15948054
94	0xbdaaf73e	-0.08347939
95	0xbe22afc2	-0.15887359
96	0xbe2374bf	-0.15962504
97	0x3b8236fc	0.00397384
98	0xbcbce82b	-0.023059925
99	0xbdbbede9	-0.09176237
100	0x3cf6b64f	0.030116228
101	0x3d487d2a	0.04894749
102	0xbcd08d91	-0.02545813
103	0xbd71a1f2	-0.058992334
104	0xbdb2367b	-0.087017976
105	0x3e2439e5	0.1603771
106	0x3c6b2e68	0.014354326
107	0x3d8bdbb7	0.06829017
108	0xbd71f631	-0.059072677
109	0xbd27bd47	-0.040951993
110	0x3db53d85	0.088496245
111	0xbc7dcf91	-0.015491382
112	0xbc5d8722	-0.013520988
113	0xbcd5165e	-0.026011642
114	0x3dd38831	0.10328711
115	0xbd326cf8	-0.043560952
116	0x3db75965	0.089525975
117	0x3d893e48	0.06701332
118	0x3b71cf82	0.0036897366
119	0xbdd25b3d	-0.102713086
120	0x3dd88c81	0.10573674
121	0x3d49ccea	0.049267687
122	0x3c507006	0.012722021
123	0xbdb49d3a	-0.08819051
124	0xbca7c86a	-0.020481307
125	0xbe03eca2	-0.12883237
126	0xbdd5a67f	-0.10432147
127	0xbde5d600	-0.11222458
128	0xbcda9953	-0.026684439
129	0xbd7cf1e8	-0.061754137
130	0xbdcc36f7	-0.09971421
131	0x3a94e28d	0.0011359021
132	0xbd02f835	-0.03197499
133	0xbdb6fc4e	-0.08934842
134	0x3df03156	0.1172816
135	0x3dc7dd13	0.097589634
136	0x3d849b6f	0.06474959
137	0x3dfce666	0.123486325
138	0x3da7f3bc	0.082007855
139	0x3dfc4ffa	0.12319942
140	0x3d3ce76c	0.04611914
141	0xbd0b5ea7	-0.034025814
142	0xbdc9d475	-0.09854976
143	0x3e2d08b2	0.16897848
144	0xbc833900	-0.01601839
145	0x3cf19b3d	0.029492969
146	0x3dc6222d	0.09674487
147	0x3da8fb13	0.082510136
148	0xbe0a96ec	-0.13534135
149	0x3e0166af	0.12636827
150	0xbd62d7b8	-0.055381507
151	0xbd5e46c4	-0.054266706
152	0x3ce07b14	0.027402438
153	0xbe5485bd	-0.20754142
154	0xbaac37a9	-0.0013139147
155	0xbdc6d23e	-0.09708069
156	0xbd1ed029	-0.038772736
157	0xbde1cff2	-0.110259905
158	0xbc748025	-0.01492313
159	0xbe1ee355	-0.15516408
160	0x3d0bef6d	0.03416388
161	0xbe0f2605	-0.13979347
162	0xbdde9a44	-0.108692676
163	0x3d9a08c4	0.07521203
164	0x3dcf2a3f	0.1011548
165	0xbdafa6b5	-0.08576719
166	0x3aeaa8ba	0.0017903068
167	0xbdcc1472	-0.09964837
168	0xbb27f6c6	-0.0025629266
169	0x3d0f389d	0.0349661
170	0x3ddd72c8	0.108129084
171	0x3a2ea38f	0.00066619454
172	0x3ce6928b	0.028146049
173	0x3c488c02	0.012240412
174	0xbd5f1dee	-0.054471903
175	0xbd02b8c0	-0.031914473
176	0xbdf3e1cc	-0.11908302
177	0xbd572019	-0.052520845
178	0xbd0c4a04	-0.034250274
179	0x3d876a7a	0.06612106
180	0xbc961087	-0.018318428
181	0x3ddd449d	0.108041026
182	0xbd88e613	-0.06684508
183	0xbe1241c2	-0.14282897
184	0x3cfa30d3	0.03054086
185	0x3d8f9ff6	0.07012932
186	0x3c0e3eee	0.008681996
187	0xbcd6bb09	-0.026212232
188	0x3deb33c7	0.11484485
189	0x3e10d59d	0.14143987
190	0x3d0b0bb9	0.033946726
191	0x3d26a6ad	0.0406863
192	0xbe115c69	-0.14195408
193	0xbdfd9e20	-0.123836756
194	0x3e14e1f2	0.14539316
195	0xbe08a6bb	-0.13344853
196	0x3d8587c3	0.06520035
197	0xbe0b7c3d	-0.13621612
198	0x3e011c05	0.12608345
199	0xbdec2b01	-0.1153164
200	0xbb699da5	-0.0035646942
201	0x3dc8e64d	0.098095514
202	0x3dafa63d	0.08576629
203	0xbc5ffcc7	-0.013671107
204	0x3dbee3a6	0.09320764
205	0x3d792ce2	0.06083382
206	0x3dca8ceb	0.09890159
207	0x3c4af222	0.0123868305
208	0xbd5c218a	-0.053742923
209	0xbb695338	-0.003560258
210	0x3e33aa5f	0.1754546
211	0xbde11877	-0.109909944
212	0xbc11867b	-0.00888216
213	0xbdd433d9	-0.10361452
214	0xbd597f9a	-0.053100206
215	0xbdfc2bc7	-0.12313037
216	0x3e43a26d	0.1910493
217	0x3c7cd127	0.015430725
218	0xbada5772	-0.0016658141
219	0xbd867f0b	-0.065672
220	0xbe1ef20f	-0.15522026
221	0x3df448f6	0.11927979
222	0xbbe259fc	-0.0069076996
223	0xbd6c009f	-0.05761778
224	0x3d6e8c88	0.05823949
225	0xbbd4ee10	-0.006498106
226	0xbd7ef98a	-0.062249698
227	0xbda90205	-0.08252338
228	0xbd901e59	-0.07037038
229	0xbc2815ea	-0.010259131
230	0x3ccf86ed	0.025332892
231	0x3dc2d816	0.09513871
232	0xbd01d65f	-0.03169858
233	0x3d21a169	0.039460573
234	0x3e04834e	0.12940714
235	0xbe093bd3	-0.13401727
236	0xbd19f3f0	-0.037586153
237	0x3d043755	0.03227933
238	0x3ce159ef	0.027508704
239	0x3de79421	0.1130755
240	0x3c9416b8	0.01807724
241	0x3c1238d3	0.008924681
242	0xbdbd04cb	-0.0922943
243	0xbd341a2b	-0.04397027
244	0x3dda37f0	0.106552005
245	0x3c9fcfeb	0.019508323
246	0xbb9f2dba	-0.004857746
247	0x3e07286a	0.1319901
248	0x3ca5698b	0.020191928
249	0xbd8eab6a	-0.069662884
250	0x3dfe1d67	0.12407952
251	0x3de0610d	0.10956011
252	0x3db934ae	0.09043251
253	0xbd1595ee	-0.036519937
254	0x3d7ca20f	0.06167799
255	0xbd94a2e3	-0.07257631

net.net.0.bias f4 [256]
0	0x3dfbdcd6	0.122979805
1	0x3c08016b	0.008301119
2	0x3e066b00	0.13126755
3	0x3db35b1d	0.08757613
4	0xba854edc	-0.0010170597
5	0x3db95503	0.09049418
6	0x3e3b12a3	0.18268828
7	0x3e439771	0.19100739
8	0x3de2cbe5	0.11074046
9	0x3e6962e6	0.22791633
10	0xbcbefedf	-0.023314891
11	0x3e0fedfd	0.14055629
12	0x3e3c2e3e	0.18377015
13	0xbcb55ca7	-0.022138907
14	0x3cf8d6ef	0.030375926
15	0x3d6230b2	0.05522222
16	0x3d51ba03	0.051202785
17	0x3d90f2f4	0.0707759
18	0x3e14732f	0.14497064
19	0x3e283f7f	0.16430472
20	0x3d8f2659	0.06989736
21	0x3c8fc542	0.017550115
22	0x3dc3c193	0.09558406
23	0x3d123379	0.03569362
24	0x3d663049	0.056198392
25	0x3db2d38f	0.08731758
26	0x3e0019cb	0.12509839
27	0xbd1299c8	-0.03579119
28	0x3e304c3f	0.17216586
29	0x3d8c4200	0.06848526
30	0xbbe9222b	-0.007114669
31	0xbcb1213b	-0.02162229
32	0x3d570fab	0.052505177
33	0x3dbb975c	0.09159729
34	0x3dd5ca09	0.10438926
35	0x3e597cf1	0.21239068
36	0x3d4b9512	0.04970271
37	0x3cc2d888	0.02378489
38	0xbc003304	-0.007824663
39	0x3d0635eb	0.032766264
40	0x3d88c026	0.066772744
41	0x3e5603e1	0.20899917
42	0x3cc662de	0.024217065
43	0xbceecaed	-0.029149497
44	0x3e5d156e	0.21590206
45	0x3dc15d73	0.09441652
46	0x3cdb7b2f	0.026792137
47	0x3ce9cad3	0.028539097
48	0x3c91e281	0.0178082
49	0x3e526007	0.20544444
50	0x3c1429c4	0.009043161
51	0x3d348b2b	0.044078033
52	0x3e4169d7	0.18888031
53	0x3da3793f	0.0798211
54	0x3e392dc1	0.1808386
55	0x3d8b7615	0.06809632
56	0x3e35b514	0.17744857
57	0x3e105c8a	0.14097801
58	0xbce3d15f	-0.027809797
59	0x3c3e23d6	0.011605224
60	0x3d814bad	0.06313262
61	0x3e547a59	0.20749797
62	0x3daf39ee	0.08555971
63	0x3e3235cf	0.17403339
64	0x3e20d3ca	0.15705791
65	0xbc590a80	-0.013247132
66	0x3e5364b0	0.20643878
67	0x3d7d98b1	0.061913196
68	0x3d68a80f	0.0568009
69	0x3e06854d	0.13136788
70	0x3de1f13f	0.11032342
71	0x3e300dc3	0.1719275
72	0x3d835bf6	0.064140245
73	0x3e2e5c39	0.17027368
74	0xbc8b5bfd	-0.017011637
75	0x3dce7a54	0.10081926
76	0x3e03b1d7	0.1286081
77	0x3e396107	0.18103419
78	0x3c300cbc	0.010745224
79	0x3d0adcdb	0.03390203
80	0x3d85b321	0.06528307
81	0x3e508e08	0.2036668
82	0x3e388a4b	0.18021505
83	0x3e2ec837	0.17068563
84	0x3e27ba95	0.16379769
85	0x3d684675	0.056707818
86	0x3e5d6276	0.21619591
87	0x3d3621bc	0.044465765
88	0x3e4a5cac	0.19761914
89	0x3c8ea395	0.017411986
90	0x3c8e744c	0.017389439
91	0x3d5fa857	0.0546039
92	0x3e11b455	0.14228947
93	0x3e507f87	0.20361148
94	0x3e49fe0b	0.19725816
95	0x3adcd804	0.0016849046
96	0xbaa9df1b	-0.0012960167
97	0x3e023648	0.12716019
98	0x3ad8c0bf	0.0016536935
99	0x3e17211b	0.14758722
100	0x3e07ccc1	0.13261701
101	0x3e00c81e	0.12576339
102	0x3e1587b9	0.14602555
103	0x3dc103dd	0.09424565
104	0x3cb45acf	0.022015957
105	0x3e426d54	0.18987018
106	0xbb93e530	-0.0045134053
107	0x3c3c7dd7	0.011504612
108	0xbc3e1b59	-0.0116032
109	0x3e182937	0.14859472
110	0x3daa6af0	0.08321178
111	0x3e489b50	0.19590497
112	0x3c5ef759	0.013608777
113	0x3e298a3e	0.16556641
114	0x3c96e5d8	0.018420145
115	0x3e54b407	0.207718
116	0x3dac9abb	0.0842795
117	0x3daaf020	0.083465815
118	0x3d88e5b5	0.06684438
119	0x3c7b506e	0.015339
120	0x3e04aad1	0.12955786
121	0x3e0cade6	0.13738212
122	0xbc87731c	-0.01653438
123	0x3d7eebf5	0.062236745
124	0x3d6ab2f6	0.057299577
125	0x3dc90896	0.09816091
126	0xbcbdf85a	-0.023189712
127	0x3dec4bc7	0.11537891
128	0xb825fa5b	-3.9572227e-05
129	0x3e2b11e3	0.16706042
130	0x3d965e48	0.073422015
131	0x3d653f3f	0.05596852
132	0x3e084f3c	0.13311476
133	0x3d708b49	0.058726583
134	0x3b7c44b4	0.0038493099
135	0x3dc36285	0.095402755
136	0x3d9c23ba	0.07624002
137	0x3e460987	0.19339572
138	0xbd0bc25c	-0.034120902
139	0xbbdfb3a5	-0.006826835
140	0x3e3cd77a	0.18441573
141	0x3e1e7bcc	0.15476912
142	0x3c7d3762	0.015455099
143	0x3da811e1	0.08206535
144	0x3e53005d	0.20605607
145	0xbaffec88	-0.0019525448
146	0x3db3dd2c	0.087824196
147	0x3e57cf6e	0.21075222
148	0xbcc0e750	-0.023547798
149	0x3e1e5f7f	0.15466116
150	0x3e5abb01	0.21360399
151	0x3cc91df9	0.024550425
152	0x3e4e6006	0.20153818
153	0x3cf5b789	0.029994743
154	0x3e51fd1d	0.20506711
155	0x3ceba3ba	0.028764594
156	0x3d569392	0.052386828
157	0x3e4d759e	0.20064399
158	0x3d065a85	0.03280117
159	0x3dc05e6e	0.09393011
160	0x3d192f8f	0.03739887
161	0x3d07e1f7	0.03317448
162	0xbd6cc53f	-0.057805296
163	0x3e0c8f07	0.13726436
164	0x3cbead84	0.023276098
165	0xbc1a0a91	-0.009401933
166	0x3c95a792	0.01826838
167	0x3e5b4ffd	0.21417232
168	0x3da5f274	0.08102885
169	0x3e5464b7	0.20741545
170	0xbc651adf	-0.013983457
171	0xba98d191	-0.0011659135
172	0x3d9753e3	0.07389047
173	0x3e4370f1	0.19086052
174	0x3e0744ed	0.13209887
175	0x3da5232a	0.08063348
176	0x3e05bb2d	0.13059683
177	0x3e3ac0ea	0.18237653
178	0x3e491a0f	0.19638847
179	0x3da520bf	0.080628864
180	0x3dea0255	0.11426226
181	0x3e207007	0.15667735
182	0x3e50d63f	0.20394228
183	0x3d863aa5	0.06554154
184	0x3e4c6921	0.19961978
185	0x3dce692b	0.10078653
186	0x3d77a0e5	0.060456175
187	0x3dd10e87	0.10207849
188	0x3e5a9afa	0.21348181
189	0x3e48fc92	0.19627598
190	0x3e18a9c5	0.14908512
191	0x3dc1cf93	0.0946342
192	0x3e15913b	0.14606182
193	0x3e4ba15e	0.19885775
194	0x3c5e3583	0.013562563
195	0x3d388168	0.045045286
196	0x3de4cbda	0.11171694
197	0xbc891567	-0.016733838
198	0xbb8443c3	-0.004036398
199	0x3d3f2a67	0.046671297
200	0x3de3e684	0.11127952
201	0x3e10ee8a	0.14153495
202	0x3e5afa61	0.21384574
203	0x3e25b8c9	0.16183771
204	0x3e21802b	0.15771548
205	0x3e4434aa	0.19160715
206	0x3e2f2eb5	0.17107661
207	0xbb5a28f6	-0.0033288575
208	0x3da1bb97	0.07897108
209	0x3db0e93f	0.08638238
210	0x3e3bd3c9	0.18342508
211	0x3dddba1d	0.10826514
212	0x3e5382ea	0.20655409
213	0x3e4bf4f0	0.19917655
214	0x3e4e16f4	0.20125943
215	0xbc0c29f8	-0.008554928
216	0x3c37e72d	0.01122455
217	0x3e2a8188	0.16650975
218	0x3db1e951	0.0868708
219	0x3d892587	0.06696611
220	0x3e60c05d	0.21948381
221	0x3c193811	0.009351746
222	0x3e475f09	0.19469847
223	0x3bb111b0	0.00540372
224	0x3bef87d3	0.0073098927
225	0x3dba36ba	0.090924695
226	0xbc096cd3	-0.008387762
227	0x3e24493b	0.1604356
228	0x3d86a003	0.065734886
229	0x3d9967e7	0.07490521
230	0x3dc2da9a	0.09514351
231	0xbb9bcd94	-0.0047547314
232	0xbc4f1b42	-0.012640776
233	0x3d550303	0.052004825
234	0x3e00cdde	0.12578532
235	0xbcb2f411	-0.021844896
236	0x3e1f9ff3	0.1558836
237	0xbb930d7d	-0.004487692
238	0x3daccd92	0.08437647
239	0x3ddc8edd	0.107694365
240	0x3d7ca176	0.06167742
241	0x3e534e58	0.20635355
242	0x3daf488f	0.08558761
243	0x3dac478d	0.08412085
244	0x3dc62bd8	0.09676331
245	0x3d35e0f4	0.044403985
246	0xbcd3a209	-0.0258341
247	0x3e3ac8d0	0.18240666
248	0x3d56235c	0.052279815
249	0x3e32c104	0.17456442
250	0xbc18fa8a	-0.009337077
251	0x3e0f47d9	0.13992251
252	0x3d5dfcd1	0.054196183
253	0x3cd53543	0.026026374
254	0xbc84eada	-0.016225267
255	0x3e1e8565	0.15480573

net.net.2.weight f4 [256, 256]
0	0xbac5dec5	-0.0015096298
1	0x3cb62182	0.022232775
2	0x3d9cf628	0.07664138
3	0xbcbb3664	-0.022853084
4	0x3d02f3b9	0.031970713
5	0x3d4bc79b	0.049750905
6	0x3bb57ac0	0.0055383146
7	0x3bd662a5	0.006542521
8	0x3d4da2be	0.05020403
9	0x3c26e610	0.010186687
10	0xbc5a10f6	-0.013309708
11	0x3d267f95	0.040649015
12	0x3da78f92	0.08181681
13	0xbc5cc57d	-0.013474819
14	0x3d17a987	0.03702691
15	0x3d8f59a1	0.06999517
16	0x3db77d07	0.08959394
17	0xbd350160	-0.044190764
18	0x3d9fdfd5	0.078063644
19	0x3d83200a	0.06402595
20	0x3d0cac6c	0.03434412
21	0xbcb72a9a	-0.022359181
22	0x3da6a523	0.08136966
23	0x3ac9f8b8	0.0015409207
24	0xbc8aa0ab	-0.016922316
25	0x3cb6dce7	0.022322131
26	0xbbf305f8	-0.007416483
27	0x3db272dd	0.08713315
28	0x3d9158c4	0.07097009
29	0x3d1a155d	0.03761803
30	0x3d4a4b95	0.049388487
31	0x3d8a0c53	0.06740632
32	0x3d12a666	0.03580322
33	0x3b9bc284	0.0047534127
34	0xbd068469	-0.03284112
35	0xbb4fb3a1	-0.003169276
36	0xbcf78a2e	-0.030217256
37	0x3dad822f	0.08472096
38	0xbd2037df	-0.039115783
39	0x3d4e2e31	0.05033702
40	0x3d77c6d7	0.060492363
41	0x3d646070	0.055756032
42	0x3d50c45b	0.05096851
43	0x3d8f353c	0.069925755
44	0x3d58fdee	0.05297654
45	0xbbf617eb	-0.0075101755
46	0x3d22319a	0.039598085
47	0x3d8e4f7d	0.06948755
48	0xbc29f1b4	-0.010372568
49	0x3ca20396	0.0197771
50	0x3d8bf5b2	0.06833972
51	0x3ca1526b	0.01969262
52	0xbb5d72b5	-0.0033790295
53	0x3c6be6f6	0.014398327
54	0xbc36b00b	-0.01115037
55	0x3ca9421a	0.020661402
56	0x3d3188f0	0.043343484
57	0x3c29ba8a	0.010359416
58	0xbd39a93b	-0.045327406
59	0x3cfcbb6a	0.030851085
60	0x3d6bc182	0.05755759
61	0xbd097680	-0.033560276
62	0x3a5913a7	0.00082808215
63	0xbc89f37b	-0.016839733
64	0x3d729f3a	0.05923388
65	0xbbfa83d2	-0.0076451087
66	0x3d8ada3f	0.067799084
67	0xbb785c91	-0.003789697
68	0x3d8a7c07	0.067619376
69	0x3bbed160	0.0058232993
70	0x3d9d053c	0.07667014
71	0x3cc504b6	0.024050098
72	0x3d07b22d	0.033128906
73	0x3d8c02c7	0.06836467
74	0xbc8a56fb	-0.016887179
75	0xbcb1b9d4	-0.021695055
76	0x3c39ecf3	0.011347997
77	0xbb272a1c	-0.0025507277
78	0x3d725ed5	0.05917247
79	0xbab18a68	-0.0013545277
80	0x3d32f06d	0.04368632
81	0x3d8419b7	0.06450217
82	0x3d2f2b10	0.042765677
83	0xbc9c5d6b	-0.019087514
84	0x3d8971e7	0.06711178
85	0xbc009a68	-0.007849313
86	0x3c1fd8d7	0.0097562885
87	0xbc14c75c	-0.009080734
88	0x3c2b60cb	0.010460089
89	0x3c326ecc	0.010890674
90	0xbd010f90	-0.031508982
91	0x3d0d1f2e	0.034453563
92	0xbc166617	-0.009179614
93	0x3cb6879f	0.022281466
94	0xbc795a68	-0.015219308
95	0xbd137505	-0.03600027
96	0x3c06e96d	0.008234364
97	0xbce98bcc	-0.028509043
98	0x3c2309f8	0.009951107
99	0x3d65a95d	0.05606972
100	0x3ba99c07	0.0051760706
101	0x3da8f958	0.082506835
102	0x3cb6357f	0.022242306
103	0x3d034d49	0.032056127
104	0x3c5effbe	0.013610778
105	0xba3a8c68	-0.0007116259
106	0xbd03211b	-0.032013994
107	0x3c1f3496	0.009717127
108	0xbca5e64d	-0.020251418
109	0x3d19fbc2	0.03759361
110	0xba02ef35	-0.0004994751
111	0x3d64639c	0.055759057
112	0xbc44ac87	-0.012004024
113	0x3dad8d86	0.08474259
114	0x3d2458dd	0.04012381
115	0x3db690a7	0.08914309
116	0xbc188a29	-0.009310284
117	0xbcb3d842	-0.021953706
118	0xbca511e7	-0.020150138
119	0x3caf47bf	0.021396516
120	0x3d50b117	0.050950136
121	0x3adb2be6	0.0016721457
122	0x3c45b3f8	0.012066834
123	0x3d8400fd	0.06445501
124	0x3cddabfe	0.027059551
125	0x3d24bcc8	0.0402191
126	0xbc05fb59	-0.008177602
127	0x3db05591	0.086100705
128	0xbca8d031	-0.020607086
129	0x3cd17a1e	0.025570925
130	0xbc2546ce	-0.010087682
131	0x3cf389b1	0.029728742
132	0x3acabf08	0.0015468309
133	0x3d971b95	0.07378308
134	0xbc7b4623	-0.015336546
135	0xbd1c269c	-0.03812276
136	0x3dab6eae	0.0837072
137	0xbc644be4	-0.013934109
138	0xbca59d53	-0.02021662
139	0x3da927d3	0.08259549
140	0x3dad09df	0.084491484
141	0x3d342379	0.04397914
142	0x3ca1c43a	0.019746888
143	0x3d6431d9	0.0557116
144	0xbccb2f28	-0.02480276
145	0xbd0e9bd0	-0.034816563
146	0xbd08175e	-0.03322541
147	0xbcc94667	-0.024569703
148	0xbcaadb15	-0.02085642
149	0x3d96a4d9	0.07355661
150	0x3d3785cb	0.04480533
151	0x3cb70a01	0.022343637
152	0xbca7b81d	-0.020473534
153	0x3c7a2621	0.01526788
154	0x3d95c215	0.07312409
155	0x3c4210a0	0.011844784
156	0x3d0df8ef	0.03466123
157	0x3d5af92c	0.053460285
158	0x3c846f3a	0.016166318
159	0x3d2ba267	0.041902926
160	0x3d82e47a	0.06391235
161	0x3d5409cd	0.05176716
162	0x3b51100b	0.0031900431
163	0x3b751240	0.003739491
164	0xbc0dee0c	-0.008662712
165	0x3c218109	0.009857425
166	0x3d63cbb3	0.055614185
167	0xbd218fb2	-0.03944368
168	0xbd0d8811	-0.03455359
169	0xbbc10047	-0.0058899256
170	0x3cdda7a5	0.027057478
171	0x3d9e7624	0.07737377
172	0x3d196f77	0.037459817
173	0x3d1fad0c	0.03898339
174	0x3cc6d09d	0.024269396
175	0x3da5dfe6	0.08099346
176	0xbcf4bfb1	-0.029876562
177	0x3d29734f	0.041369732
178	0x3c089b47	0.008337802
179	0x3d937042	0.07199146
180	0x3d3e656a	0.046483435
181	0xbcda994e	-0.02668443
182	0x3d1d0e46	0.03834369
183	0x3b96b322	0.004598991
184	0xbc4add72	-0.012381898
185	0x3d6ad267	0.05732956
186	0x3d685174	0.056718305
187	0x3d2c7999	0.042108152
188	0xbcca3854	-0.024685062
189	0xbca15976	-0.019695979
190	0x3d83178a	0.06400974
191	0x3ce24cae	0.027624454
192	0xbcff5c2c	-0.03117188
193	0x3c93a793	0.018024242
194	0x3c75957a	0.014989251
195	0x3d928ef3	0.07156172
196	0xbc1d23ba	-0.009591037
197	0x3d683a9e	0.056696527
198	0xbd080de7	-0.033216383
199	0x3bbe3dd9	0.0058057127
200	0x3c0011a2	0.007816704
201	0x3d0fdaa4	0.03512062
202	0xbc6cf520	-0.014462739
203	0xbcb290d6	-0.021797579
204	0x3d967a0d	0.07347498
205	0x3d6ce9ce	0.05784016
206	0x3d9f98ff	0.077928536
207	0xbc880ae2	-0.016606752
208	0xbcfbb749	-0.030727046
209	0xbbfa718b	-0.00764293
210	0x3b9dd448	0.0048165657
211	0xbc1e61b4	-0.009666849
212	0x3da9ebd3	0.08296933
213	0x3d737612	0.059438772
214	0xbc97087f	-0.018436668
215	0x3d8dfadb	0.069326125
216	0x3d53be47	0.051695134
217	0x3cbdd51f	0.023172913
218	0x3d697dad	0.05700462
219	0x3d9b7925	0.07591466
220	0x3d76f707	0.060294177
221	0xbc046b68	-0.008082248
222	0x3cb7112b	0.022347054
223	0x3d3c313e	0.0459454
224	0xbbd79b3d	-0.006579785
225	0x3d86de33	0.0658535
226	0xbd002eb0	-0.031294525
227	0x3d82d7f9	0.0638885
228	0x3da5dd3a	0.08098836
229	0x3c94033e	0.018067952
230	0x3cddf096	0.02709226
231	0xbd0df171	-0.034654085
232	0x3d8018d0	0.062547326
233	0xbcbcc5cd	-0.023043538
234	0xbcdad3a4	-0.026712246
235	0x3c1296c7	0.008947081
236	0x3da8dc77	0.08245175
237	0x3d2e70cd	0.042588044
238	0xbce60a3b	-0.02808105
239	0xbcab9d4d	-0.02094903
240	0x3cfa526e	0.030556884
241	0x3d8f867a	0.07008071
242	0xba9cd4e6	-0.0011965304
243	0xbc90832a	-0.017640669
244	0xbc0332f9	-0.008007758
245	0x3b0a6572	0.0021117595
246	0x3af1b4f2	0.0018440767
247	0x3cd5cb02	0.026097778
248	0x3d5cf205	0.053941745
249	0x3daeac2d	0.08528934
250	0xbba3219f	-0.004978373
251	0x3d7ecdd6	0.06220802
252	0x3bc16031	0.0059013595
253	0x3d8e2d43	0.06942227
254	0xbcf86eb9	-0.030326234
255	0x3d3b6e1a	0.045759298

net.net.2.bias f4 [256]
0	0x3d454d3a	0.048169352
1	0x3d8da301	0.06915856
2	0x3dba08bf	0.090836994
3	0xbc66fea6	-0.014098799
4	0x3bf02194	0.0073282216
5	0x3dbe378e	0.0928794
6	0x3b89ecf3	0.0042091548
7	0x3da1cc53	0.079003
8	0xbd0ab204	-0.033861175
9	0x3c59e85d	0.013300029
10	0x3d96eff8	0.07369989
11	0x3c4a8c33	0.012362528
12	0x3c92fb94	0.017942227
13	0x3dd3d901	0.103441246
14	0x3b02a3ad	0.0019933984
15	0x3cd48320	0.025941432
16	0x3de7fc9e	0.1132748
17	0x3d2b34e1	0.041798476
18	0x3da47fec	0.08032212
19	0xbc2ca1d8	-0.010536633
20	0x3dc610fd	0.09671209
21	0x3cd4215d	0.025894815
22	0x3c958957	0.018253965
23	0x3dd449e6	0.103656575
24	0xbcced86b	-0.02524968
25	0xbd2c097b	-0.04200123
26	0xbd77ae75	-0.06046911
27	0x3d204396	0.039126955
28	0x3c2332b6	0.009960821
29	0x3d55a0c4	0.05215527
30	0x3d06eed0	0.032942593
31	0x3ccff457	0.025385065
32	0x3943155b	0.00018604605
33	0xbc09ca08	-0.008409984
34	0xbc8b52f8	-0.017007336
35	0xbbb07e17	-0.005386125
36	0x3da43930	0.0801872
37	0x3d72effe	0.059310906
38	0x3c1b65dd	0.009484735
39	0x3d25d51c	0.04048644
40	0xbd62a628	-0.05533424
41	0xbd5dc38b	-0.054141562
42	0x3d6be62e	0.057592563
43	0x3dc833dd	0.09775517
44	0x3c877ac5	0.016538033
45	0x3ddbc646	0.10731177
46	0x3c4c6cfd	0.012477157
47	0x3d7b5691	0.061361853
48	0x3b9a4bc5	0.0047087395
49	0x3d1fb624	0.038992062
50	0xbd041cdd	-0.03225409
51	0x3c3ef80a	0.011655817
52	0x3ceef2c0	0.029168487
53	0x3c5a40c8	0.013321109
54	0x3da0dbe1	0.078544386
55	0x3caa7536	0.020807844
56	0xbc33093c	-0.010927495
57	0xbd33e52a	-0.04391972
58	0x3d8aeb8b	0.067832075
59	0xbcb1292d	-0.02162608
60	0xbbd9ebad	-0.006650409
61	0x3d1808d9	0.037117813
62	0x3c882350	0.0166184
63	0x3de09ffa	0.10968013
64	0x3d859817	0.065231495
65	0x3bcec091	0.006309577
66	0x3cd2fc48	0.025755063
67	0x3db02812	0.08601393
68	0x3ced872d	0.02899512
69	0x3da11671	0.078656085
70	0x3ca8778b	0.020564815
71	0xbb229e0b	-0.002481344
72	0x3d9ae7f1	0.075637706
73	0x3c2a2d93	0.010386842
74	0x3d75f185	0.060044784
75	0x3d6cdbc7	0.057826784
76	0xbca92ca0	-0.020651162
77	0xbc50c70c	-0.012742769
78	0x3db9dc38	0.090752065
79	0x3d230c21	0.03980649
80	0x3cc95746	0.024577748
81	0x3cad99fd	0.021191591
82	0x3de3aff6	0.11117546
83	0x3d30ac82	0.043133266
84	0x3b661c1f	0.0035111976
85	0xbcf0954f	-0.02936807
86	0x3cdd46a5	0.027011225
87	0x3bbc317e	0.0057432046
88	0x3b456a38	0.0030123126
89	0x3e0ffb45	0.14060695
90	0xbd019b2e	-0.03164213
91	0x3c5b1431	0.013371513
92	0x3dc8943f	0.09793901
93	0x3d6b63a2	0.057468064
94	0x3d70ebd2	0.058818646
95	0xbc461e76	-0.012092223
96	0x3c75d086	0.015003329
97	0x3de5d8af	0.1122297
98	0x3dfc6133	0.12323227
99	0x3d7b5fd8	0.0613707
100	0xbd51b123	-0.05119432
101	0x3dc2c49f	0.09510159
102	0x3cf8a846	0.030353677
103	0x3ddc9375	0.10770313
104	0xbceb6d3f	-0.028738616
105	0x3d442f88	0.04789689
106	0x3dc3ae78	0.09554762
107	0x3cfacaad	0.030614221
108	0x3d9b6b81	0.07588864
109	0x3dd1c84f	0.10243284
110	0x3d6a35f8	0.057180375
111	0x3d041702	0.032248504
112	0x3cdaa941	0.026692035
113	0xbc97e133	-0.01854
114	0xbc597971	-0.013273583
115	0x3d91a15f	0.07110857
116	0x3d937810	0.072006345
117	0x3d2a2dd6	0.04154762
118	0xbd8f37a3	-0.06993034
119	0x3d22cb60	0.039744735
120	0x3d3c9434	0.046039775
121	0x3d2b8a23	0.041879784
122	0xbcc8c51d	-0.024508053
123	0x3d4d4e3f	0.05012345
124	0x3c8f9420	0.017526686
125	0xbc1a5428	-0.0094194785
126	0x3d663501	0.056202892
127	0x3d536e90	0.051619112
128	0x3c13aa02	0.009012701
129	0x3dcabacf	0.09898912
130	0x3d8baa18	0.06819552
131	0xbbba8a51	-0.005692758
132	0xbc904682	-0.017611746
133	0xbd283956	-0.041070305
134	0x3d05f177	0.032700982
135	0x3d2dcb83	0.042430412
136	0x3db1aa10	0.08675015
137	0x3d11e74c	0.035620973
138	0x3d838811	0.06422437
139	0xbd167ebe	-0.036741965
140	0xbd609894	-0.05483301
141	0x3d79222b	0.0608236
142	0x3de415fe	0.11137007
143	0xbd18efa0	-0.0373379
144	0xbcb2a9be	-0.021809455
145	0x3cfd129e	0.030892666
146	0xbd840079	-0.06445403
147	0x3c9afea1	0.018920245
148	0xbccf6f87	-0.025321735
149	0x3dc64f78	0.09683126
150	0x3c008d1e	0.007846145
151	0x3d08628e	0.033297114
152	0x3cd77a5b	0.02630346
153	0xbb640efe	-0.0034798975
154	0x3d5f218b	0.05447535
155	0x3db4a18a	0.08819874
156	0x3c2ab7c9	0.010419794
157	0x3cf236f1	0.029567214
158	0xbbeea5c3	-0.007282944
159	0xbbbf7a0d	-0.005843407
160	0x3cb3124d	0.021859312
161	0x3daaf2da	0.083471015
162	0xbd7f0d5a	-0.062268592
163	0x3d315c49	0.0433009
164	0x3be888e7	0.007096398
165	0xbd462bf8	-0.048381776
166	0x3d0cbcac	0.03435962
167	0xbcb4c194	-0.022064961
168	0x3c918878	0.017765269
169	0x3daa72cd	0.08322678
170	0x3ddf4861	0.10902477
171	0x3ca0be77	0.01962207
172	0xbd693fdf	-0.056945678
173	0x3da1fd1a	0.079096034
174	0x3c61c272	0.0137792695
175	0x3d87ff4d	0.06640492
176	0x3c57a082	0.013160827
177	0x3d98afbb	0.07455393
178	0x3c38c057	0.011276326
179	0xbd7417d7	-0.059593048
180	0x3d82006d	0.063477375
181	0xbc0bfd1b	-0.008544232
182	0x3cc70f83	0.024299389
183	0x3dfcb508	0.123392165
184	0x3d1efef0	0.038817346
185	0xbc80e08c	-0.015732072
186	0x3d0e2157	0.034699764
187	0x3dad0624	0.08448437
188	0x3dba5221	0.09097696
189	0x3d5a978c	0.053367183
190	0x3d074d4f	0.03303271
191	0x38453ab3	4.7023128e-05
192	0x3deb90ea	0.115022495
193	0x3cb28185	0.021790275
194	0x3c73abf0	0.014872536
195	0x3cf44cf4	0.02982185
196	0x3d5b5c63	0.053554904
197	0xbc51dba1	-0.012808711
198	0x3c845008	0.016151443
199	0xbc67d824	-0.014150653
200	0x3c9775bc	0.018488757
201	0x3c4405db	0.011964287
202	0x3c784b19	0.015154623
203	0x3db61a6b	0.088917576
204	0x3caffc0d	0.021482492
205	0xbc325023	-0.010883364
206	0xbc1b1558	-0.009465538
207	0xbb578efe	-0.0032891626
208	0xbb436246	-0.0029813214
209	0xbd84caed	-0.064840175
210	0x3d4849b7	0.048898425
211	0x3cc2e44c	0.023790501
212	0xbd13b84a	-0.036064424
213	0x3dbdeeb7	0.09274047
214	0x3d941170	0.072298884
215	0x3d93546f	0.07193839
216	0x3cce28bc	0.025165908
217	0x3db695bc	0.08915278
218	0x3a2a0ee7	0.0006487206
219	0x3c01b50a	0.007916698
220	0x39697ae0	0.00022266386
221	0x3d2ddc4c	0.04244642
222	0x3d1a2da2	0.037641175
223	0x3d47dd48	0.048795015
224	0xbd113d19	-0.035458658
225	0x3d855604	0.06510547
226	0x3d3d1e89	0.0461717
227	0x3dd74d8d	0.105128385
228	0x3dd7a11f	0.10528778
229	0x3d88f73a	0.0668778
230	0x3c54e771	0.012994633
231	0x3cdcb925	0.026943753
232	0x3d50f73d	0.051017035
233	0x3d925709	0.07145507
234	0x3b739b8f	0.0037171578
235	0x3d4d3323	0.050097596
236	0x3cf7154f	0.030161528
237	0xbd5cf5d0	-0.053945363
238	0x3e31963f	0.1734247
239	0xbbd44fc7	-0.0064792368
240	0x3dfa5177	0.122225694
241	0x3c8b177e	0.016978975
242	0x3ce391e0	0.02777952
243	0x3ddc03e6	0.10742931
244	0x3cd593c5	0.026071439
245	0x3b313f0d	0.0027045638
246	0xbd8b1ad0	-0.067922235
247	0x3dc06d85	0.09395889
248	0x3cb1bd28	0.021696642
249	0xbd6f8081	-0.05847216
250	0x3d02ea7c	0.031961903
251	0xbb784c3a	-0.0037887231
252	0x3c758531	0.014985369
253	0x3d234687	0.039862182
254	0xbbbaf1ff	-0.0057051177
255	0x3d288578	0.04114291

net.net.4.weight f4 [42, 256]
0	0x3ca6e7a0	0.02037412
1	0xbda46466	-0.08026962
2	0x3cb89749	0.022533076
3	0xbda07f11	-0.07836736
4	0x3ce699bd	0.02814948
5	0xbd6efc88	-0.0583463
6	0xbcf3d986	-0.02976681
7	0xbc934ec1	-0.017981889
8	0xbc24854b	-0.010041545
9	0xbd47efd2	-0.048812695
10	0xbd2d1144	-0.042252794
11	0xbdb4d70f	-0.08830082
12	0xbd99e32f	-0.07514035
13	0x3cdee02a	0.0272065
14	0x3d419bf6	0.047267877
15	0xbdc9591e	-0.09831451
16	0xbda4e4ad	-0.08051429
17	0xbba813f4	-0.0051293317
18	0xbd442ebf	-0.047896143
19	0x3b255ad2	0.0025231135
20	0xbd2eecf3	-0.04270644
21	0xbd3a0e6c	-0.04542391
22	0xbd9814cd	-0.074258424
23	0x3d0dafaf	0.034591373
24	0x3c635b94	0.013876814
25	0xbc8e335a	-0.01735847
26	0x3ca44eba	0.020057071
27	0x3bdf8dbb	0.0068223155
28	0xbd8301fc	-0.06396863
29	0xbcecf718	-0.028926417
30	0xbd30bc17	-0.043148126
31	0xbdaf1e81	-0.0855074
32	0x3b7153b2	0.0036823568
33	0xbc823cc3	-0.015898114
34	0xbd4b308f	-0.049606856
35	0xbd2b3ab8	-0.041804045
36	0xbd1b5e0d	-0.03793149
37	0xbc75b1e4	-0.014996026
38	0x3cf44659	0.0298187
39	0xbda06f99	-0.078337856
40	0xbca7e7de	-0.020496305
41	0xbd687b37	-0.05675813
42	0x3c6a10ce	0.014286233
43	0xbdaa6b1e	-0.08321212
44	0xbd9da652	-0.07697739
45	0xbd44cc9e	-0.0480467
46	0xbd58e6d2	-0.052954502
47	0x3cf37343	0.029718047
48	0x3aed56ca	0.001810753
49	0xbc12e613	-0.008965987
50	0x3b4ca811	0.0031228105
51	0x3d5a3c43	0.053280126
52	0x3cdf88f0	0.027286977
53	0x3c2e2de1	0.010631056
54	0xbc77ab18	-0.0151164755
55	0xbd7832fc	-0.060595497
56	0xbdb4622c	-0.08807787
57	0xbd5ba228	-0.05362144
58	0xbd1685f3	-0.036748838
59	0x3b7b8e21	0.0038384276
60	0xbdbecf87	-0.093169264
61	0xbd0c9679	-0.03432319
62	0xbd60ecb2	-0.05491323
63	0xbde3c254	-0.111210495
64	0xbc8df44b	-0.017328402
65	0xbd2320c7	-0.03982618
66	0xbc971bd2	-0.018445883
67	0xbd82dd19	-0.06389827
68	0xbd72419d	-0.059144605
69	0x3c9bbf97	0.019012256
70	0xba4bb9e9	-0.0007771538
71	0x3cda992e	0.02668437
72	0x3cf385ea	0.029726941
73	0xbb86a0aa	-0.004108508
74	0xbc257ac8	-0.010100074
75	0x3c568fdb	0.013095821
76	0x3ca31687	0.019908203
77	0xbd114b2d	-0.035472084
78	0xbd46cdbe	-0.048536055
79	0xbdb3cdef	-0.08779513
80	0xbd095ecf	-0.033537682
81	0x3cc8a86f	0.024494378
82	0xbdf62f9e	-0.12020801
83	0xbd8b723f	-0.068089
84	0xbdb8d210	-0.09024441
85	0xbd828220	-0.063724756
86	0xbc60e64c	-0.013726782
87	0x3b5d338e	0.0033752653
88	0xbdad3f79	-0.08459372
89	0xbd87b0dd	-0.06625531
90	0xbc1793f3	-0.009251582
91	0x3d4fc0c4	0.050720945
92	0xbd99a8b2	-0.07502879
93	0x3c785f69	0.015159466
94	0xbd631bc8	-0.055446416
95	0x3cc09fbd	0.02351367
96	0x3c1598cf	0.009130671
97	0xbdc235af	-0.094828956
98	0xbda7fdac	-0.08202681
99	0xbd3289a1	-0.043588284
100	0x3d1aa57e	0.037755482
101	0xbcf649e0	-0.030064523
102	0x3cfd1b3e	0.03089678
103	0xbd9cfe63	-0.07665708
104	0x3d2db9e7	0.04241362
105	0xbd414b39	-0.04719088
106	0xbdd6fb0e	-0.10497104
107	0xbd8c638a	-0.06854923
108	0x3cd3ff90	0.025878698
109	0xbd8359c2	-0.06413604
110	0xbd6783d2	-0.056522198
111	0xbd6f79a9	-0.058465634
112	0x3d03c51d	0.032170404
113	0xbd82c949	-0.06386048
114	0xbd54355d	-0.051808704
115	0x3bc0a6ab	0.0058792434
116	0xbc0dae4b	-0.008647512
117	0x3c508eb1	0.012729333
118	0x3cbf836a	0.023378093
119	0xbcfe83bf	-0.03106868
120	0xbcb07c56	-0.021543663
121	0xbdb5f216	-0.08884065
122	0xbc458f76	-0.0120581295
123	0x3d03f1f3	0.032213163
124	0x3c76ba1c	0.01505902
125	0xbd79c541	-0.06097913
126	0xbd1cf2fa	-0.038317658
127	0x3c15a093	0.009132522
128	0xbc9f9a51	-0.019482763
129	0xbd90b159	-0.070650764
130	0xbdbdd42b	-0.092689835
131	0xbd071dc0	-0.032987356
132	0xbd94725d	-0.072483756
133	0x3ade45dc	0.0016958076
134	0xbd6e0e39	-0.058119033
135	0xba780d2d	-0.00094624126
136	0xbd4c1235	-0.04982205
137	0xbd423c62	-0.047420867
138	0xbd5a87da	-0.053352214
139	0x3ce92833	0.028461551
140	0xbd60038d	-0.054690886
141	0x3cedfbf2	0.029050801
142	0xbd18939e	-0.037250154
143	0x3be18f98	0.006883573
144	0x3d3fd522	0.04683412
145	0x3d436070	0.04769939
146	0xbd38671f	-0.04502022
147	0xbcfa2e12	-0.030539546
148	0x3cf4f9fd	0.02990436
149	0xbdc750d3	-0.09732213
150	0xbd1e307f	-0.03862047
151	0x3c6c81b8	0.014435224
152	0xbd086e29	-0.033308182
153	0x3d7d0b63	0.061778437
154	0xbcbd0b69	-0.02307673
155	0xbd00fc5a	-0.03149066
156	0x3d137c81	0.036007408
157	0x3c76bf7f	0.015060305
158	0x3c9ae464	0.018907733
159	0xbd8e1201	-0.06937028
160	0x3c67ee01	0.014155866
161	0x3cb80a0d	0.02246573
162	0x3ccd9a89	0.025098102
163	0x3d79d582	0.060994633
164	0x3b4b7db4	0.0031050267
165	0xbc506558	-0.012719475
166	0xbcb3a35a	-0.021928478
167	0xbd7fac8b	-0.06242041
168	0x3c99cd34	0.018774606
169	0x3c8087d8	0.015689775
170	0xbc9c9493	-0.019113814
171	0xbd132375	-0.035922486
172	0x37a22249	1.932787e-05
173	0xbd9a9e7c	-0.0754976
174	0x3d0147ea	0.031562723
175	0xbd542a23	-0.051797997
176	0x3cdda90b	0.027058145
177	0xbd8048e9	-0.062639065
178	0xbb89025e	-0.0041811904
179	0xbd148ffb	-0.036270123
180	0x3c96fb18	0.018430278
181	0xbd07b986	-0.033135913
182	0xbb0b988c	-0.0021300642
183	0xbdadd32d	-0.08487544
184	0xbc84d599	-0.016215133
185	0xbda0a323	-0.07843616
186	0x3cac9297	0.021065993
187	0x3c8ee3c1	0.017442586
188	0xbd0650d0	-0.032791913
189	0x3cdb31b8	0.026757106
190	0xbda6bc95	-0.08141438
191	0xbcadec86	-0.021230947
192	0xbd542d96	-0.051801287
193	0xbd97bf83	-0.07409575
194	0xbd8abcea	-0.06774314
195	0xbce20cb1	-0.027593942
196	0xbd964e41	-0.073391445
197	0xbc3afd54	-0.011412937
198	0x3d2c55c4	0.04207398
199	0x3ccd6cb8	0.025076255
200	0x3c22c5be	0.009934841
201	0x3bf1be57	0.0073774266
202	0xbc5a951b	-0.013341214
203	0xbb264c9b	-0.002537525
204	0x3d22b1ae	0.03972023
205	0xbc06b49e	-0.008221773
206	0xbdb3463c	-0.087536305
207	0x3cb3e925	0.021961758
208	0x3b8fc363	0.0043873056
209	0x3d6ccf54	0.05781491
210	0x3b82120b	0.003969436
211	0xbc822e4f	-0.015891222
212	0x3d62a78a	0.05533556
213	0x3acf744e	0.0015827508
214	0xbd461a52	-0.048364945
215	0xbd67bb46	-0.056575082
216	0xbd390654	-0.04517205
217	0xbd097036	-0.03355428
218	0xbc7f78e4	-0.015592787
219	0xbca8ad7d	-0.020590538
220	0xbc6e36d9	-0.014539444
221	0x3bdb8c41	0.006700069
222	0xbd388898	-0.04505214
223	0xbc9ca8da	-0.019123483
224	0x3ccfd405	0.025369653
225	0xbdba7119	-0.09103603
226	0xbc6aae33	-0.014323759
227	0xbd32611d	-0.043549646
228	0xbd8623b6	-0.0654978
229	0xbd24e98f	-0.0402618
230	0xbd363648	-0.04448536
231	0xbd216bd4	-0.039409474
232	0xbd131878	-0.035912007
233	0xbd657fa4	-0.05602993
234	0xbd947ca8	-0.07250339
235	0xbd0c7319	-0.034289453
236	0x3cbf9508	0.023386493
237	0x3c5dfbdc	0.0135488175
238	0xbd02427e	-0.031801693
239	0xbcf4174f	-0.02979627
240	0xbc848d19	-0.016180562
241	0x3d3e24cf	0.046421822
242	0x3c62bf8f	0.013839616
243	0x3cab5708	0.020915523
244	0xbd078bd5	-0.03309234
245	0x3d072ed8	0.033003658
246	0xbd039756	-0.032126747
247	0xbd5dfad9	-0.054194305
248	0xbd09a22a	-0.033601917
249	0xbd37d69e	-0.04488241
250	0xbc7119a9	-0.0147155905
251	0xbd4f0b72	-0.050548024
252	0x3d0757fa	0.033042885
253	0xbd844e90	-0.06460297
254	0xbda1e7ae	-0.079055175
255	0xbcea62d9	-0.028611587

net.net.4.bias f4 [42]
0	0xbce395b6	-0.027781349
1	0x3ccfd1dc	0.025368623
2	0x3d3dcaca	0.046335973
3	0xbd37d2bd	-0.04487871
4	0x3da2f198	0.079562366
5	0xbc2bdfbe	-0.010490356
6	0x3c743a33	0.014906454
7	0x3d70f014	0.058822706
8	0xbd4c2548	-0.04984024
9	0xbce80c44	-0.028326161
10	0xbd671666	-0.056417845
11	0xbd7a1555	-0.0610555
12	0xbd747f6f	-0.059691843
13	0x3db0b6ca	0.08628614
14	0x3c884b41	0.016637446
15	0x3da8c90f	0.08241474
16	0xbdaf2f08	-0.085538924
17	0xbbda3686	-0.0066593317
18	0xbd846687	-0.06464868
19	0x3cc78b7e	0.024358507
20	0x3cab85fc	0.020937912
21	0x3af4b78d	0.0018670425
22	0x3d56f130	0.052476108
23	0xbc077874	-0.008268464
24	0x3d446c96	0.047955118
25	0x3d65f399	0.056140516
26	0xbd22d761	-0.039756183
27	0x3ce67a1a	0.028134394
28	0xbd06acef	-0.032879766
29	0xbd272be1	-0.04081333
30	0xbc24fa7d	-0.010069487
31	0x3d1c3421	0.03813565
32	0x3d75b65d	0.05998837
33	0x3d3cb39c	0.046069726
34	0x3cd8e0a6	0.026474308
35	0x3d1ae4f1	0.03781599
36	0x3c5039ce	0.012709094
37	0x3d5da54b	0.054112714
38	0xbd2751f8	-0.040849656
39	0xbd46ab7b	-0.04850338
40	0xbcf52237	-0.029923541
41	0x3b9ebc11	0.0048441966
