Q2/models/td3_actor.pth (torch, 272988 bytes, 5 tensors)

l1.weight f4 [256, 5]
0	0x3db908a5	0.09034852
1	0x3f18ae13	0.59640616
2	0x3e1c7561	0.15279151
3	0x3efa1e04	0.48851025
4	0xbf33f9f2	-0.7030326
5	0x3f632329	0.88725525
6	0xc00fc674	-2.2464876
7	0x3e291188	0.16510594
8	0x3f0c1b80	0.5472946
9	0xbe6152c6	-0.22004232
10	0xbe62f826	-0.22164974
11	0x3e2790ee	0.1636388
12	0x4030ff67	2.7655885
13	0xbe25103c	-0.16119474
14	0x3f6d69b4	0.92739415
15	0x3d2f722d	0.042833496
16	0x3dfa3dbe	0.12218808
17	0x3f8e1c78	1.1102438
18	0xbf9a16d4	-1.2038217
19	0x3effc376	0.49953812
20	0xbd2d46f4	-0.042303994
21	0xbf91ab2d	-1.1380364
22	0xc007596f	-2.1148336
23	0xbf20c8e8	-0.6280656
24	0xbf261178	-0.64870405
25	0x3eb9b2a1	0.36269096
26	0xbee37b86	-0.44430178
27	0xc0060154	-2.093831
28	0xbda263ce	-0.079291925
29	0xbe83b656	-0.2572505
30	0x3fa10b00	1.2581482
31	0xbfbaa023	-1.458012
32	0x3eddb964	0.43305504
33	0xbdf80f4a	-0.12112291
34	0xbe6461fa	-0.22303
35	0x3f9d97e0	1.2311974
36	0x3e731475	0.23738272
37	0x3ff8cb0b	1.9436964
38	0x3eddd233	0.43324432
39	0x3e37dde5	0.1795574
40	0x3f1d0b55	0.61345416
41	0xbf6ff2a4	-0.93729615
42	0x3fd7ff09	1.6874706
43	0x3f04c973	0.5186989
44	0x3ec6c1ea	0.3881982
45	0x3f0d76af	0.5525922
46	0x3ee43944	0.4457494
47	0xbf1d0938	-0.6134219
48	0xbf9b3cfb	-1.2127985
49	0xbe928b52	-0.28621918
50	0xbf646819	-0.8922134
51	0xbed8a594	-0.42313826
52	0xc0040b49	-2.0631888
53	0xbe1d4c50	-0.15361142
54	0xbd29a4a4	-0.04141678
55	0x3f1c8566	0.6114105
56	0xbdf2c321	-0.11853624
57	0xbf2d681a	-0.6773697
58	0x3f17cd34	0.5929749
59	0xbe845325	-0.25844684
60	0xbea29cf1	-0.31760362
61	0xc0156d9c	-2.334815
62	0x3f464716	0.7745222
63	0xbe75c973	-0.24002628
64	0xbb876643	-0.0041320636
65	0x3ead4a9c	0.33845985
66	0x3ec7cdb8	0.39024138
67	0xc02278cc	-2.5386229
68	0xbf5f29e5	-0.871733
69	0xbf693641	-0.9109841
70	0x3e5c7b2a	0.21531358
71	0xbf16f321	-0.58964735
72	0x40058c68	2.0866947
73	0xbe72aad4	-0.23697978
74	0xbe497b32	-0.19675902
75	0x3f40dbb8	0.75335264
76	0xbf9ed314	-1.2408166
77	0x3fc4ff3f	1.5390395
78	0x3f046b14	0.5172589
79	0x3eae8615	0.3408667
80	0x3fc441f8	1.5332632
81	0x3f1824a3	0.59430903
82	0x404bf9f4	3.187131
83	0x3f8a70cd	1.0815674
84	0x3f46346b	0.77423733
85	0xbfcabaae	-1.583822
86	0xbf2761bf	-0.65383524
87	0xbed66881	-0.41876605
88	0xbf37a81c	-0.7174089
89	0x3ea41495	0.32046953
90	0x3f8082c6	1.0039909
91	0xbf82d077	-1.0219868
92	0x3ed9303e	0.42419618
93	0x3f35e1af	0.7104749
94	0xbeb409cb	-0.3516372
95	0x3ed3faf0	0.41402388
96	0xbb9bd98a	-0.0047561573
97	0xc0073fcf	-2.1132696
98	0x3e0c0588	0.13673985
99	0xbf772f66	-0.965567
100	0xbf4d2239	-0.80130345
101	0x3e5e6355	0.2171758
102	0x3cae727a	0.021294821
103	0x3f303f58	0.68846655
104	0xbe815cff	-0.25266263
105	0xbe7647cd	-0.24050827
106	0xbf4b2d36	-0.7936586
107	0xc050b92c	-3.261302
108	0xbf1fc8f5	-0.6241601
109	0xbf7a3bc0	-0.9774742
110	0x3f553c4e	0.8329514
111	0xbe5bbfc8	-0.21459877
112	0xbfad1d46	-1.3524559
113	0xbe97229c	-0.29518592
114	0xbef23f89	-0.47314098
115	0x3eaa4bde	0.33261007
116	0xbdf5a56a	-0.11994441
117	0xbfef3664	-1.8688474
118	0x3f7b6bac	0.9821117
119	0xbf2d73d7	-0.6775488
120	0x3efeebb1	0.49789193
121	0xbf77d8de	-0.9681529
122	0xbffe7c3d	-1.9881665
123	0xbf408468	-0.75202036
124	0xbf25e890	-0.6480799
125	0x3f1fe67b	0.6246106
126	0xbf5e22fb	-0.86772126
127	0xbebd2e05	-0.36949173
128	0x3f90c4c0	1.1310043
129	0xbdb15ec5	-0.08660654
130	0xbe5b1ad7	-0.21396957
131	0xbe3f9f66	-0.1871315
132	0xbfdfb44c	-1.7476897
133	0x3f0b20d4	0.54346967
134	0xbcdbc126	-0.026825499
135	0xbf5d171c	-0.8636339
136	0xbf47d301	-0.7805634
137	0xbf742bf3	-0.9537956
138	0x3faadbe6	1.3348358
139	0x3e21638b	0.15760629
140	0x3ee7299f	0.45148942
141	0xbfc57590	-1.5426502
142	0x3fdc390e	1.7204912
143	0x3ed00c6b	0.40634474
144	0x3eb82325	0.35964313
145	0x3fca7f61	1.5820123
146	0x3e5ce49e	0.21571586
147	0x3f29bc78	0.66303205
148	0x3f35f89a	0.7108246
149	0xbf031006	-0.51196325
150	0x3e219cbf	0.1578245
151	0xbf2c91b0	-0.674098
152	0x3f95fc3e	1.1717603
153	0xbf8ae49a	-1.0851014
154	0x3e8b7b4d	0.2724251
155	0x3f6d5442	0.9270669
156	0xbf075fd9	-0.52880627
157	0xbf3547a7	-0.7081246
158	0x3f7ea325	0.9946769
159	0xbe7cb210	-0.246773
160	0x3f8cfe57	1.1015118
161	0xbcfe34e5	-0.031031081
162	0x4015158f	2.3294408
163	0x3eb451e3	0.35218725
164	0x3c94cb4e	0.01816335
165	0x3e38dfce	0.18054125
166	0x3d875a69	0.06609041
167	0xbf34c505	-0.7061313
168	0xbf6e4f1a	-0.9308945
169	0xbe98e63c	-0.29863155
170	0xbf1c8a4b	-0.6114852
171	0xbf4e81e2	-0.80666935
172	0x3eb97248	0.36220002
173	0x3e13ea01	0.14444734
174	0xbd7c8f7e	-0.061660282
175	0x3f3a82bb	0.7285573
176	0xbefa27e8	-0.4885857
177	0xbf4e8e71	-0.806861
178	0x3e025247	0.12726699
179	0xbf1c0282	-0.60941327
180	0xbdf75703	-0.12077143
181	0x3f19ba46	0.60049856
182	0x3f2b4890	0.66907597
183	0xbf202c93	-0.62568015
184	0x3f196eb9	0.59934574
185	0x3f11f61c	0.5701616
186	0x3dfe2ccf	0.1241089
187	0xbef6f75e	-0.482356
188	0xbf479e39	-0.77975804
189	0xbf240552	-0.6407062
190	0xbc800400	-0.015626907
191	0xbe1799ac	-0.14804715
192	0xbe9b7f09	-0.30370358
193	0x3e9e2c35	0.30893102
194	0x3da9e4bf	0.08295583
195	0xbe50eed9	-0.20403613
196	0xbfb64c65	-1.4242064
197	0xbf50fae5	-0.81632835
198	0x3f2591e9	0.64675766
199	0xbdb07268	-0.08615571
200	0xbe58c785	-0.2116986
201	0xbf8e686b	-1.1125616
202	0x3f5dbdf3	0.86617965
203	0x3e9c2a5e	0.30501074
204	0xbe275ead	-0.1634471
205	0xbe3959b2	-0.18100622
206	0xbfd63eff	-1.6737975
207	0xbfe5de1c	-1.7958407
208	0x3f10c643	0.56552523
209	0x3e372894	0.17886573
210	0x3f1abc31	0.6044341
211	0xbc20a878	-0.009805791
212	0xbfebb6ea	-1.8415196
213	0x3de166d8	0.11005944
214	0x3e038474	0.12843496
215	0x3f8203ce	1.0157411
216	0x3ee2a486	0.44266146
217	0x3faa70c9	1.3315669
218	0x3f04d042	0.51880276
219	0x3e19641f	0.149796
220	0xbea3f6fc	-0.32024372
221	0xbec743fe	-0.3891906
222	0xbf6f2041	-0.9340859
223	0xbf1c7f04	-0.6113131
224	0xbf3f2939	-0.74672276
225	0xbd844aa3	-0.06459548
226	0x3f8fb0ce	1.1225832
227	0x3f109ff5	0.56494075
228	0xbf85b2b8	-1.0445166
229	0xbf24fe2e	-0.6445035
230	0xbefb35e0	-0.4906454
231	0x3e274cff	0.16337965
232	0x40419efa	3.0253282
233	0x3e1a8cac	0.15092725
234	0x3f14fe30	0.5820036
235	0xbf6f83c9	-0.93560463
236	0xbef94870	-0.48688078
237	0xc0321305	-2.7824109
238	0x3dd69e75	0.10479442
239	0xbefbad8a	-0.49155837
240	0x3f685e70	0.907691
241	0xbf0a60e0	-0.5405407
242	0xbf328920	-0.69740486
243	0xbf4dd57b	-0.8040387
244	0xbe4e92c4	-0.20173174
245	0x3f511d29	0.8168512
246	0xbf85b685	-1.0446326
247	0xbc09a0ff	-0.008400201
248	0x3f16224e	0.58646095
249	0x3d3be368	0.04587117
250	0x3da22abd	0.07918308
251	0xbf9c8236	-1.2227237
252	0xbfe7a8be	-1.8098371
253	0xbebcafb2	-0.36852795
254	0xbe535028	-0.20636046
255	0xbe36fa68	-0.1786896

l1.bias f4 [256]
0	0xbf8935ed	-1.0719582
1	0xbf22f6b2	-0.6365768
2	0xbea8068b	-0.32817492
3	0xbfac6675	-1.3468767
4	0xbf53a148	-0.8266797
5	0xbd9c78f3	-0.07640257
6	0x3f1aedea	0.6051928
7	0xbea931aa	-0.33045703
8	0xbeb3148e	-0.3497662
9	0xbec172bf	-0.37782857
10	0xbe549566	-0.20760116
11	0xbee9cecf	-0.45665595
12	0x3f86b37c	1.0523524
13	0xbf0af758	-0.54283667
14	0xbedcd9c7	-0.431349
15	0xbe20cba7	-0.15702687
16	0x3ec53dcb	0.38523707
17	0xbe927dbe	-0.2861156
18	0xbee0f8d3	-0.43939838
19	0xbed9460b	-0.4243625
20	0xbf94c47d	-1.1622463
21	0x3ed5c0bf	0.41748616
22	0xbf82a904	-1.020783
23	0x3c6b6cd0	0.014369205
24	0xbf127392	-0.57207596
25	0xbf4143d4	-0.7549412
26	0xbe3b0c0c	-0.18266314
27	0x3e2f8b6b	0.17143027
28	0x3f1403af	0.5781812
29	0xbea0d264	-0.31410515
30	0xbf431005	-0.7619632
31	0xbeeb45df	-0.45951745
32	0xbf5f771e	-0.87291133
33	0x3ec1b47c	0.3783301
34	0x3f1758b2	0.59119713
35	0xbde2ef29	-0.110807724
36	0xbf9dbf94	-1.232409
37	0xbef4a5a4	-0.47782624
38	0xbfb2afa1	-1.3959848
39	0xbf576282	-0.84134686
40	0xbf1cbb34	-0.6122315
41	0x3ecef63e	0.40422243
42	0xbef52239	-0.47877672
43	0xbf05c770	-0.5225744
44	0xbfb43d09	-1.4081126
45	0xbfe86dab	-1.8158468
46	0xbf326419	-0.69683987
47	0x3e26e625	0.1629873
48	0xbf1ec616	-0.62021005
49	0x3f4e829f	0.8066806
50	0xbede1ac2	-0.4337979
51	0x3c5829ea	0.013193587
52	0x3f757519	0.958818
53	0x3e748c0f	0.23881553
54	0x3d273fee	0.040832452
55	0xbe90df10	-0.28295183
56	0x3e547a38	0.20749748
57	0x3f403cbe	0.75092685
58	0xbe9689ce	-0.29402012
59	0x3ddeb938	0.108751714
60	0xbe9b45b3	-0.30326614
61	0xbf0b1536	-0.5432924
62	0xbe8dc3a8	-0.27688336
63	0xbf18e52f	-0.59724706
64	0xbf282b1e	-0.6569079
65	0xbd263905	-0.04058172
66	0xbe00170a	-0.12508789
67	0xbf33f423	-0.702944
68	0xbf2a0523	-0.6641409
69	0xbf4eab94	-0.8073056
70	0xbf6efc6a	-0.93353903
71	0xbf5cc777	-0.8624186
72	0xbf11e8b8	-0.56995726
73	0xbf19be0c	-0.60055614
74	0x3e2efed8	0.17089403
75	0xbfaae532	-1.3351195
76	0xbec05e55	-0.3757197
77	0x3eb3657d	0.35038367
78	0xbd6a6d4e	-0.057233147
79	0xbf98b201	-1.1929322
80	0xbf8d43e8	-1.1036348
81	0xbed7c2bd	-0.4214076
82	0xbed97ef4	-0.4247967
83	0xbf0d1989	-0.5511709
84	0xbf6c33c5	-0.92266494
85	0xbf3de99f	-0.741846
86	0xbf9dae05	-1.2318732
87	0xbf6b1a5a	-0.91837084
88	0xbea7eaf3	-0.3279644
89	0x3ece0fd4	0.4024645
90	0x3fa928ca	1.3215573
91	0xbd234feb	-0.039871138
92	0xbf43845d	-0.76373845
93	0xbf66bd2c	-0.90132403
94	0xbeb28148	-0.3486426
95	0xbf9179d0	-1.1365299
96	0xbc3ddc94	-0.011588234
97	0xbf0a2685	-0.53965026
98	0xbf581fc2	-0.8442346
99	0xbf24181f	-0.64099306
100	0x3bbd13f6	0.005770202
101	0xbf945f7b	-1.1591638
102	0x3f85c9f3	1.0452255
103	0xbf999287	-1.1997842
104	0xbe81c1c4	-0.25343144
105	0xbf984acb	-1.1897825
106	0xbefc544d	-0.49283066
107	0x3fa3e4dd	1.2804219
108	0xbf466bac	-0.77508044
109	0xbed49e85	-0.4152719
110	0xbfa7a2f6	-1.3096607
111	0xbef96889	-0.48712566
112	0xbf981e94	-1.1884332
113	0xbebd3b30	-0.3695922
114	0xbc2125d7	-0.009835682
115	0xbe82cb4f	-0.25545737
116	0x3e749031	0.2388313
117	0x3edcb388	0.4310572
118	0xbf1f23bc	-0.621639
119	0xbf4d584f	-0.80212873
120	0xbec1cae8	-0.37850118
121	0xbf26bb76	-0.6512979
122	0x3c7bf32b	0.0153778
123	0xbf88e1ba	-1.0693886
124	0xbf34dcbb	-0.7064931
125	0xbf00ae1d	-0.50265676
126	0xbf253ddd	-0.6454752
127	0xbf76871b	-0.96299905
128	0xbf994715	-1.1974818
129	0xbee46cad	-0.44614163
130	0x3d8710f6	0.06595032
131	0xbf3781f0	-0.71682644
132	0x3def77dc	0.11692783
133	0xbf04e457	-0.5191092
134	0xbfb3177b	-1.3991541
135	0xbf2095b6	-0.6272844
136	0xbf5e1c53	-0.8676197
137	0x3ef88cd8	0.48544955
138	0xbf7b11f9	-0.980743
139	0xbf20af22	-0.6276723
140	0xbedff153	-0.43738803
141	0xbf3c13c9	-0.7346769
142	0xbf386502	-0.72029126
143	0xbf06a6aa	-0.5259806
144	0xbead9eb8	-0.33910155
145	0xbf270fc9	-0.6525846
146	0x3d3accff	0.045605656
147	0xbfa7718d	-1.3081528
148	0xbf457cee	-0.7714375
149	0xbf7e3812	-0.99304307
150	0xbee3e37a	-0.44509488
151	0xbf088e28	-0.53341913
152	0x3e5f3b3a	0.21799937
153	0xbf5bf070	-0.85913754
154	0xbf462b00	-0.7740936
155	0xbfb28897	-1.3947934
156	0x3e685c59	0.22691478
157	0xbf3654c7	-0.7122311
158	0xbf8d073b	-1.1017832
159	0xbeb02173	-0.3440052
160	0xbed9e714	-0.4255911
161	0xbf3191a9	-0.69362885
162	0xbee5b114	-0.44861662
163	0xbf424958	-0.75893164
164	0xbf55e25a	-0.8354851
165	0xbff95efb	-1.9482111
166	0x3e8a3f7f	0.2700157
167	0x3f5867ae	0.845332
168	0x3fb0c682	1.381058
169	0xbf6d5c1e	-0.92718685
170	0x3f7afd17	0.98042434
171	0xbef4135d	-0.47671023
172	0x3dcc5f29	0.09979088
173	0xbef61177	-0.480602
174	0xbf648ade	-0.89274395
175	0xbfb63af2	-1.4236739
176	0xbe9c3ff7	-0.3051755
177	0xbf8b68e9	-1.0891391
178	0xbd1d358d	-0.038381148
179	0x3da0ae25	0.078457154
180	0xbfbc3352	-1.4703162
181	0x3ebd93d3	0.37026843
182	0xbe39ff40	-0.18163776
183	0xbe96bfa6	-0.2944309
184	0xbf6ccf79	-0.9250408
185	0xbea71322	-0.32631785
186	0xbe9129b3	-0.28352126
187	0x3f3a2bc6	0.7272304
188	0xbd7364cf	-0.05942231
189	0xbf05e3f7	-0.5230097
190	0xbf1e5273	-0.6184456
191	0xbf6c5a09	-0.9232488
192	0xbf19348f	-0.59845823
193	0xbf4effb4	-0.8085892
194	0xbe649258	-0.2232145
195	0x3e9079d4	0.28217947
196	0xbf37f50c	-0.71858287
197	0x3ed14f46	0.40880793
198	0xbf8c75d1	-1.0973455
199	0xbf587291	-0.84549814
200	0x3fa2b7f6	1.271239
201	0xbe606ca9	-0.2191645
202	0xbe97d984	-0.2965814
203	0xbf3dd05a	-0.74146044
204	0xbef2d857	-0.4743068
205	0xbef529f1	-0.4788356
206	0xbece8bb8	-0.40340972
207	0xbf176b61	-0.5914822
208	0xbfbf4f35	-1.4946047
209	0xbf1af186	-0.60524786
210	0xbf9f9be3	-1.2469448
211	0xbf6aed4e	-0.9176835
212	0xbf743dd1	-0.95406824
213	0xbf5a538a	-0.8528372
214	0xbf9f30c1	-1.2436754
215	0xbf6d8ad2	-0.9278995
216	0xbf06dacc	-0.5267761
217	0xbf19857a	-0.59969294
218	0xbfb826e6	-1.4386871
219	0x3f1718d6	0.5902227
220	0xbedff471	-0.43741181
221	0x3e591c46	0.21202192
222	0xbed3d8dd	-0.4137639
223	0xbf043886	-0.5164875
224	0xbe360cda	-0.1777834
225	0xbf960a73	-1.1721939
226	0xbf6469ab	-0.89223737
227	0xbf0e14dc	-0.5550058
228	0xbebad2c5	-0.3648893
229	0x3ebdc6f6	0.37065858
230	0xbfbd1f59	-1.4775192
231	0xbe64d2dc	-0.22346061
232	0xbeb400cd	-0.3515686
233	0xbefa5f93	-0.48901042
234	0xbf1a1833	-0.60193175
235	0xbf8a135f	-1.0787162
236	0xbf329868	-0.69763803
237	0xbf56700f	-0.8376474
238	0xbf11c6b0	-0.569438
239	0xbe902173	-0.2815052
240	0xbe85ef99	-0.2615936
241	0xbeb1792e	-0.34662765
242	0x3eddbf01	0.43309787
243	0xbe1a0987	-0.15042697
244	0xbf2faf19	-0.6862655
245	0xbfbe2fad	-1.48583
246	0xbebfc420	-0.3745432
247	0xbbf78c04	-0.007554533
248	0xbf639cca	-0.88911116
249	0x3d5aeef4	0.05345054
250	0x3f9cbbd6	1.2244823
251	0xbdef4a39	-0.11684079
252	0xbfce59a8	-1.6121111
253	0xbf463b32	-0.77434075
254	0xbf90f384	-1.1324315
255	0xbf33eb4b	-0.70280904

l2.weight f4 [256, 256]
0	0xbf59d2b3	-0.85087126
1	0xbe2d9c6c	-0.16954201
2	0xbfbda633	-1.4816345
3	0xbef96a90	-0.48714113
4	0xc01cc85a	-2.4497285
5	0xbf86c88d	-1.0529953
6	0x3f543a4e	0.82901466
7	0xbd8d12b6	-0.068883345
8	0xbf29bb26	-0.6630119
9	0xbfcaeba1	-1.5853158
10	0xbfe7520e	-1.8071916
11	0xbe51d0b3	-0.20489769
12	0x3c922559	0.017840074
13	0xbf68dc92	-0.90961564
14	0x3ea00d3b	0.31260094
15	0xbf30c66b	-0.6905276
16	0x3fa90490	1.3204517
17	0x3f0c0bae	0.5470532
18	0xbf15d656	-0.58530176
19	0x3ecec7ca	0.40386802
20	0xbdafef33	-0.085905455
21	0xbfddc45a	-1.7325547
22	0x3e810b9b	0.25204167
23	0x3ef9115f	0.48646066
24	0xbf913956	-1.1345623
25	0xbf0733db	-0.528135
26	0xbe90507c	-0.28186405
27	0xbf3c0670	-0.7344732
28	0x3e7eb7f5	0.24874862
29	0xbf4e9663	-0.8069822
30	0x3d1acbca	0.037792005
31	0xbecd2ab9	-0.40071657
32	0xbf40c819	-0.75305325
33	0xbe2acf30	-0.16680598
34	0xbe28956c	-0.1646325
35	0x3f6a71b3	0.9157974
36	0xbfd4e453	-1.6632179
37	0x3e8878b3	0.26654586
38	0xbee42d8e	-0.44566005
39	0xbd2694ea	-0.04066936
40	0xbd2e9f0f	-0.04263216
41	0x3eff5a1f	0.49873444
42	0x3f218e9f	0.6310825
43	0xbfe5b322	-1.7945292
44	0xbe3dbc0f	-0.1852877
45	0x3ed2886d	0.4111971
46	0xbfa56c69	-1.2923709
47	0xbf3c2465	-0.73493034
48	0x3f4d8029	0.8027368
49	0xbebf5c8f	-0.37375304
50	0xbdd07386	-0.10178284
51	0xbf4f093a	-0.80873454
52	0xbc88789b	-0.016659072
53	0xbf12815a	-0.57228625
54	0xbf4d4e69	-0.8019777
55	0x3ba7af26	0.005117315
56	0x3d1063f3	0.03525157
57	0xbf2db218	-0.67849874
58	0x3ef7bfba	0.48388463
59	0xbed1ae8b	-0.40953478
60	0xbff65ce3	-1.9247097
61	0xbe69ba68	-0.22825015
62	0x3f13bdf3	0.57711715
63	0xbe55da94	-0.20884162
64	0xbe5a3259	-0.21308269
65	0xbf8ea957	-1.1145428
66	0x3f32ec93	0.69892234
67	0x3e98e7bb	0.29864296
68	0xbeb5b3c5	-0.35488716
69	0x3f8099eb	1.0046972
70	0x3d9fa0da	0.07794352
71	0xbd1e8467	-0.038700487
72	0x3eb89671	0.36052278
73	0xbf89ace5	-1.0755888
74	0xbf2bb8d3	-0.67078894
75	0xbc7c03dc	-0.0153817795
76	0xbf156317	-0.58354324
77	0xbf25cd67	-0.64766544
78	0xbf35a54b	-0.7095534
79	0xbd602952	-0.054726906
80	0x3f204a19	0.62613064
81	0xbf729627	-0.94760364
82	0xbf5d77d8	-0.8651099
83	0x3fb4dd4f	1.4130038
84	0xbe9ea594	-0.309857
85	0x3eeddb21	0.46456245
86	0xbf256b40	-0.64616776
87	0xbf8ade17	-1.0849026
88	0x3f052dc3	0.5202295
89	0xbe6ca3cc	-0.23109359
90	0xbe4e46f8	-0.2014426
91	0xbf6b9946	-0.9203075
92	0xbfa47f22	-1.2851298
93	0xbf8e8698	-1.1134825
94	0x3e256567	0.16151963
95	0x3edee0f9	0.43531016
96	0xc03bc017	-2.9335992
97	0x3ed28d15	0.41123262
98	0x3f2af960	0.66786766
99	0x3dc46b33	0.09590759
100	0xbfc41e27	-1.5321702
101	0xbf3e89d7	-0.74429077
102	0x3eb7f5f6	0.3592984
103	0x3e561000	0.20904541
104	0xbf2c3f51	-0.67284113
105	0xbf82bbc3	-1.021355
106	0xbef1b061	-0.4720488
107	0x3c0ec7e8	0.008714654
108	0xbe69fe62	-0.22850946
109	0x3e049f2a	0.12951341
110	0x3e369300	0.17829514
111	0xbfabd5e8	-1.3424654
112	0x3ff0119c	1.8755374
113	0xbfad36d7	-1.3532361
114	0x3ea240c9	0.31690052
115	0xbfa6e3dc	-1.3038287
116	0xbfb673dc	-1.4254107
117	0xbd3eefca	-0.0466154
118	0x3f19e1eb	0.6011035
119	0xbf85ccc8	-1.0453119
120	0xc052f10e	-3.2959628
121	0xbfe777fa	-1.8083489
122	0x3ef28b2e	0.4737181
123	0xbd09c662	-0.03363646
124	0xbec68cce	-0.387793
125	0xbf29d8a8	-0.66346216
126	0xbe4af618	-0.1982044
127	0xbe470ffe	-0.19439694
128	0x3e07bf0e	0.13256475
129	0xbf9fd555	-1.2486979
130	0x3ff7c012	1.935549
131	0xbf5f32bd	-0.87186795
132	0xbd4f5c60	-0.050625205
133	0xbe359352	-0.1773198
134	0x3d2a60ec	0.04159634
135	0x3f29dedb	0.66355675
136	0xbefa246b	-0.4885591
137	0xbfe31405	-1.7740484
138	0x3e8f4331	0.2798095
139	0x3c0d4505	0.008622413
140	0xbdfce060	-0.12347484
141	0x3f0c95a0	0.5491581
142	0xbf988e6d	-1.1918465
143	0xbed2e3f6	-0.41189545
144	0x3ed5c879	0.4175451
145	0x3f60c614	0.87802243
146	0xbe27b6b6	-0.16378292
147	0xbf5fd5d4	-0.8743565
148	0xbed0f997	-0.40815422
149	0x3f24184b	0.6409957
150	0x3f8fcd6c	1.1234565
151	0xbfb0cb60	-1.3812065
152	0xbf85a890	-1.0442066
153	0x3d9fa83c	0.0779576
154	0xbf79abf8	-0.9752803
155	0xbec04c4c	-0.3755821
156	0xbdb118a5	-0.08647279
157	0x3f0579ea	0.5213915
158	0x3f983fc1	1.1894456
159	0x3cf9f9ef	0.030514685
160	0x3e2a6308	0.1663934
161	0x3e525bef	0.20542882
162	0xbf5995ab	-0.84994
163	0xbfd6e7e2	-1.6789515
164	0x3f7c51d7	0.9856238
165	0xbdf784be	-0.120858654
166	0xbef9d706	-0.48796862
167	0xbf9e4848	-1.2365808
168	0xbf7619c4	-0.96133065
169	0xbe0bd1c2	-0.13654235
170	0xbf268314	-0.6504376
171	0x3e37f5f6	0.1796492
172	0xbe207138	-0.1566819
173	0x3ece7ad5	0.40328088
174	0x3e915238	0.2838304
175	0xbf9ae8b2	-1.2102263
176	0xc041d38c	-3.0285368
177	0xbd59b5b7	-0.053151812
178	0xbf5fb050	-0.87378407
179	0xbf9219cc	-1.1414123
180	0xbf0d9050	-0.5529833
181	0xbf2c0f2f	-0.6721067
182	0xbd0b66b6	-0.0340335
183	0xbe3a923c	-0.18219846
184	0xbe9edff5	-0.3103024
185	0x3e3600c7	0.17773734
186	0xc028fcdd	-2.6404335
187	0x3e9570b5	0.2918755
188	0xbf290c1a	-0.6603409
189	0x3f312580	0.69197845
190	0xbe253e3f	-0.16137026
191	0x3d0f175e	0.034934394
192	0x3dbe2c9e	0.09285854
193	0xbf1ccdda	-0.61251605
194	0x3f822666	1.0167968
195	0xbede5784	-0.43426144
196	0xbf25ea4a	-0.6481062
197	0xbf111824	-0.5667746
198	0xbf8adc19	-1.0848418
199	0xbd8d5652	-0.0690123
200	0xbf0051ae	-0.50124633
201	0xc04d68b5	-3.2095158
202	0xbffa1050	-1.9536228
203	0xbef6a4ac	-0.4817251
204	0x3f1c5af7	0.610763
205	0xbf08537c	-0.5325239
206	0x3f9a51aa	1.2056172
207	0x3f00e596	0.5035032
208	0xbe27b9f9	-0.16379537
209	0xbee2dbf5	-0.4430844
210	0x3ed9a949	0.42511967
211	0x3e00b63f	0.12569521
212	0xbe87ba06	-0.26509112
213	0xbfa17fbf	-1.261711
214	0x3f791b1f	0.9730701
215	0xbf52c945	-0.8233836
216	0xbfe94287	-1.8223428
217	0x3dc04545	0.09388212
218	0x3f079398	0.52959585
219	0xbee86370	-0.45388365
220	0xbef2539c	-0.47329414
221	0xc01b3a8a	-2.425448
222	0xbf59d018	-0.8508315
223	0xbf293bda	-0.6610695
224	0xbe7cac08	-0.24675
225	0x3f7fbe18	0.99899435
226	0xbf0425da	-0.51620257
227	0xc028e4dd	-2.6389687
228	0xbda7680d	-0.08174143
229	0x3e60a9ff	0.21939848
230	0xbcec2b99	-0.028829383
231	0xbf5c5f6d	-0.8608311
232	0x3f151b9c	0.58245254
233	0x3f24a4a8	0.64313745
234	0xbd6016f7	-0.0547094
235	0xbd5594ee	-0.052143984
236	0xbf46a2e3	-0.77592295
237	0xbf33b763	-0.702017
238	0xbec6bcda	-0.38815957
239	0xbf1dfbfe	-0.61712635
240	0xbf43ee6b	-0.7653567
241	0xbf9714be	-1.1803205
242	0xbfc2acc9	-1.520898
243	0xbe0498a5	-0.12948854
244	0xbf01cf6e	-0.5070714
245	0xbf757a04	-0.95889306
246	0xbf78f933	-0.9725525
247	0xbf356aad	-0.708659
248	0xbf8ca130	-1.098669
249	0xbf94fef3	-1.1640304
250	0xbf18b939	-0.5965763
251	0xbe4e3526	-0.20137462
252	0x3e09366d	0.13399668
253	0x3d807954	0.062731415
254	0x3d050f64	0.03248538
255	0xbec7989e	-0.38983625

l2.bias f4 [256]
0	0x3f6fe9c2	0.9371606
1	0xbcb690c3	-0.022285825
2	0xbd47ca7c	-0.04877709
3	0xbd10dca1	-0.035366658
4	0x3d12abe3	0.035808455
5	0xbd823467	-0.06357651
6	0xbc69a344	-0.014260117
7	0xbd04cbca	-0.03242091
8	0xbfb89ba5	-1.4422499
9	0xbdc9ddf8	-0.0985679
10	0xbd7f7c2a	-0.06237427
11	0xbdc5a2be	-0.09650181
12	0x3f043046	0.5163616
13	0xbdffc16d	-0.12488065
14	0xbd82e93c	-0.06392142
15	0xbde8f707	-0.11375242
16	0xbe564ee5	-0.20928533
17	0xbfd41090	-1.6567554
18	0xbe6fe519	-0.23427238
19	0x3e5c4930	0.21512294
20	0x3e8ba7f1	0.27276567
21	0xbea07e86	-0.3134653
22	0xbdae7847	-0.08519035
23	0xbc3df33d	-0.011593637
24	0xbe10c85e	-0.14138934
25	0x3baba95d	0.0052386955
26	0xbd84e90c	-0.06489763
27	0xbdeb43e4	-0.114875585
28	0x3ea15cd3	0.31516132
29	0xbf0e86c4	-0.55674386
30	0x3ec5931d	0.385888
31	0xbe5d6708	-0.21621335
32	0xbd928e79	-0.07156081
33	0x3efde1aa	0.4958623
34	0xbbfb0298	-0.0076602213
35	0xbea819a4	-0.32832062
36	0xbd9a39b1	-0.07530535
37	0xbd8af3d1	-0.067847855
38	0xbc2273a5	-0.009915267
39	0xbf25aefc	-0.6472013
40	0xbf2bc81e	-0.6710223
41	0xbf6aac0d	-0.9166878
42	0x3de835d1	0.1133839
43	0xbd90dc41	-0.0707326
44	0xbd81b9df	-0.0633428
45	0xbd7fe650	-0.062475502
46	0xbd86ac5b	-0.06575843
47	0xbfd0bdec	-1.630796
48	0x3e89740e	0.26846355
49	0xbda59d84	-0.08086684
50	0xbdaacfe4	-0.08340433
51	0xbd5328e5	-0.051552672
52	0xbd8f8d3f	-0.070093624
53	0xbe003850	-0.12521482
54	0x3b39ae68	0.0028332714
55	0xbf04fa30	-0.51944256
56	0x3c48a758	0.012246929
57	0xbd1a7ac0	-0.03771472
58	0xbdb0f932	-0.0864128
59	0xbd199649	-0.03749684
60	0xbf24eb78	-0.64421797
61	0xbdbbebed	-0.09175859
62	0xbf5670c8	-0.8376584
63	0xbc818eb5	-0.015815118
64	0xbda7bfd5	-0.08190886
65	0xbd45b9a5	-0.048272748
66	0xbd7fd295	-0.062456686
67	0xbc426367	-0.01186452
68	0xbda1b685	-0.07896141
69	0xbe12c557	-0.14333092
70	0xbd855875	-0.065110125
71	0xbef32da7	-0.47495767
72	0xbd4145e5	-0.047185797
73	0xbd7ae40b	-0.061252635
74	0xbcba4f2d	-0.022742832
75	0x3f683fab	0.9072215
76	0xbec973cb	-0.39346156
77	0xbdb537ad	-0.0884851
78	0xbd13f028	-0.036117703
79	0xbe25aa9c	-0.16178364
80	0x3dc22263	0.09479215
81	0xbc3d519c	-0.011555102
82	0xbd1e0756	-0.038581215
83	0xbe01740e	-0.12641928
84	0xbd0933b8	-0.03349659
85	0x3e1dc103	0.1540566
86	0xbc25ede2	-0.010127516
87	0xbd464800	-0.04840851
88	0xbbd04390	-0.0063557103
89	0xbd2ddbb5	-0.042445857
90	0xbd891d9a	-0.06695099
91	0xbddc7cc8	-0.10765988
92	0xbc136f06	-0.008998638
93	0xbe338ea4	-0.17534882
94	0x3c90c663	0.017672723
95	0xbe6f4eb5	-0.23369868
96	0xbddef257	-0.108860664
97	0xbd1d312f	-0.038376983
98	0xbd5dc02b	-0.054138344
99	0x3e93698e	0.2879147
100	0x3ebf5a0f	0.37373397
101	0xbde3dee2	-0.11126496
102	0xbf2baac9	-0.6705747
103	0xbd3b5999	-0.045739744
104	0xbdb0476a	-0.08607371
105	0xbd8cb8ab	-0.0687116
106	0xbf0c2f54	-0.54759717
107	0xbf9fdd45	-1.2489401
108	0xbd1d1e08	-0.03835872
109	0xbe1838a7	-0.14865361
110	0xbf3481c4	-0.70510507
111	0xbea3584f	-0.31903312
112	0xbf0d56da	-0.5521065
113	0xbd8d2307	-0.068914466
114	0xbda62e13	-0.08114257
115	0xbe9c2658	-0.30498004
116	0xbd13fb66	-0.036128424
117	0xbf751e17	-0.9574904
118	0xbdd1f47e	-0.10251711
119	0xbe4c9fe0	-0.19982862
120	0xbddb0bb9	-0.10695595
121	0xbd5a4956	-0.053292595
122	0xbd826acf	-0.06368028
123	0xbd8a38a3	-0.06749084
124	0xbdb45a02	-0.0880623
125	0xbddd47e6	-0.10804729
126	0xbd1a7e71	-0.03771824
127	0xbdd598de	-0.10429548
128	0xbd459899	-0.04824123
129	0xbd89e976	-0.06733982
130	0xbd3d1b87	-0.04616883
131	0xbccbac56	-0.02486245
132	0xbd0e9a8e	-0.034815364
133	0xbcab8202	-0.020936016
134	0xbd3b6913	-0.045754503
135	0xbde5c193	-0.11218562
136	0xbe8231e0	-0.25428677
137	0xbe0c80cb	-0.13721006
138	0xbce57600	-0.028010368
139	0xbcc3290f	-0.02382329
140	0x3f270bab	0.6525218
141	0x3a8c4ddf	0.001070436
142	0xbba089c6	-0.0048992364
143	0xbd2aba62	-0.041681655
144	0xbf436946	-0.7633251
145	0xbebeb93a	-0.37250692
146	0xbd1576c4	-0.036490217
147	0xbe403332	-0.1876953
148	0xbf85ea98	-1.0462217
149	0xbd8e9093	-0.06961169
150	0xbe8dcd40	-0.27695656
151	0xbd8e2c06	-0.069419906
152	0xbd74f663	-0.059805285
153	0xbce81fbb	-0.028335443
154	0xbcd8901c	-0.026435904
155	0xbe1e888d	-0.15481777
156	0x3fb852e3	1.4400295
157	0xbd81f9ab	-0.063464485
158	0xbd05df4a	-0.03268365
159	0xbd9374c4	-0.07200006
160	0xbdc9f3da	-0.09860964
161	0xbcc2099f	-0.023686228
162	0xbcb618df	-0.022228656
163	0xbdca3e58	-0.098751724
164	0xbd01721a	-0.031602956
165	0x3e29665a	0.1654295
166	0xbec375f9	-0.38175943
167	0xbbc700a6	-0.0060730753
168	0xbdd6024d	-0.104496576
169	0xbd9aae59	-0.075527854
170	0xbd06f20b	-0.032945674
171	0xbf41e467	-0.7573914
172	0xbda27c74	-0.07933894
173	0xbdb6d4b9	-0.089272924
174	0xbd035cef	-0.03207105
175	0xbd1d03c3	-0.038333666
176	0xbda7fb8e	-0.08202277
177	0xbe750b7d	-0.23930164
178	0xbdd34adf	-0.10317015
179	0xbe7905b1	-0.24318577
180	0xbd9ca3f0	-0.07648456
181	0xbdf515dc	-0.1196706
182	0xbec4f63a	-0.38469106
183	0xbf52086b	-0.82044095
184	0x3ed75fdd	0.42065325
185	0xbdd58363	-0.10425451
186	0xbeb9291c	-0.36164176
187	0x3f1a34eb	0.60236996
188	0xbd681cdd	-0.05666815
189	0xbd9bf6cf	-0.076154344
190	0x3e90fb47	0.2831671
191	0xbd7209c4	-0.059091344
192	0xbcc5160a	-0.02405836
193	0xbd164eca	-0.036696233
194	0xbe10501a	-0.14093056
195	0x3dba0b1f	0.090841524
196	0x3e7aa6f1	0.24477746
197	0xbde86ffc	-0.11349484
198	0xbdc2538e	-0.09488593
199	0xbeef0574	-0.46683848
200	0x3e257268	0.16156924
201	0xbf6de555	-0.9292806
202	0xbd20b914	-0.039239004
203	0xbdbb7408	-0.091529906
204	0xbdbc0d94	-0.09182277
205	0xbdeae967	-0.11470299
206	0xbdc5f681	-0.096661575
207	0xbbd0c615	-0.0063712695
208	0xbd4a020c	-0.04931836
209	0x3e2d821d	0.16944166
210	0xbdc788f1	-0.097429164
211	0xbe594dc1	-0.21221067
212	0xbd317386	-0.043323062
213	0xbdb221d1	-0.08697856
214	0xbe87b5f7	-0.26506016
215	0xbe052794	-0.13003379
216	0x3fb77d4b	1.4335111
217	0xbf115d67	-0.56783146
218	0xbd9f4607	-0.077770285
219	0xbdc27671	-0.09495247
220	0xbf13dc6b	-0.57758206
221	0xbd13b5c6	-0.036062025
222	0xbd62f2fb	-0.055407505
223	0xbb88e2d5	-0.004177431
224	0x3c5c0c3a	0.013430649
225	0x3e12cdc3	0.14336304
226	0x3f5a6f5d	0.85326177
227	0xbd339c90	-0.04385048
228	0x3f0b6379	0.5444866
229	0xbd96906e	-0.073517665
230	0xbd84fa44	-0.06493047
231	0xbda275f2	-0.079326525
232	0x3c47b31b	0.012188698
233	0x3c0d88d7	0.008638582
234	0xbce22e83	-0.02761007
235	0xbcf239aa	-0.029568512
236	0xbebec937	-0.3726289
237	0xbe95e153	-0.2927347
238	0xbd81e33d	-0.063421704
239	0xbe527960	-0.20554113
240	0xbe11ca69	-0.1423737
241	0xbd5e61c9	-0.054292474
242	0xbce23f3c	-0.027618043
243	0xbe07a8dc	-0.13248008
244	0xbdf47415	-0.119362034
245	0xbdc3a9c3	-0.09553864
246	0xbd0e4541	-0.034734014
247	0xbc48dcce	-0.012259675
248	0x3c999e21	0.01875216
249	0xbe04416d	-0.12915583
250	0xbdd8b2f2	-0.10581006
251	0xbcfbc9a3	-0.030735796
252	0xbe12f604	-0.1435166
253	0xbe9e8d26	-0.30967063
254	0x3ea294c2	0.31754118
255	0xbd1a2eb4	-0.037642196

l3.weight f4 [1, 256]
0	0xbe95a091	-0.29224065
1	0xbc3cb328	-0.011517324
2	0x3ba999ca	0.005175804
3	0xbb29e537	-0.0025923976
4	0xbff89e17	-1.9423245
5	0x3ceed190	0.029152662
6	0xbc557c09	-0.013030061
7	0x3c2c9378	0.010533206
8	0xbe0c186e	-0.13681194
9	0xc01fd1f2	-2.497189
10	0xbe56d6f7	-0.2098044
11	0xbc88503f	-0.016639827
12	0xbe3a2042	-0.18176368
13	0x3ca2b2d9	0.019860672
14	0x3ba3b0ac	0.004995426
15	0xbebea23e	-0.37233156
16	0xbc1cd4e2	-0.00957224
17	0x3f12a6c0	0.5728569
18	0x3fd0ab86	1.6302345
19	0xbf8b4767	-1.0881165
20	0xc0019e0a	-2.025271
21	0x3f98ef91	1.194811
22	0x3bac5aea	0.0052598612
23	0x3bae2959	0.0053149876
24	0x3ddd5a97	0.10808294
25	0x3c72ac9c	0.014811661
26	0xbba6feb0	-0.005096279
27	0xbb9c34a8	-0.0047670193
28	0x3f26b28c	0.6511619
29	0xbdd608ee	-0.10450922
30	0xbe7e257f	-0.24818991
31	0xc00997c9	-2.1498892
32	0xbb8af1d8	-0.004240256
33	0xbf044ac7	-0.516766
34	0xbcaef3af	-0.021356432
35	0x3fb93274	1.4468522
36	0xbcb63421	-0.022241654
37	0x3cc049d6	0.023472708
38	0xbc0ece81	-0.008716227
39	0x3fc795ce	1.5592592
40	0xc0d9d107	-6.806766
41	0xbe9c8ff7	-0.30578586
42	0x3e28fd91	0.16502978
43	0xbd9ac71f	-0.075575106
44	0xbca34a50	-0.019932896
45	0xbcbc4f34	-0.022986986
46	0xbc804697	-0.01565866
47	0x3f70bab7	0.94034904
48	0x3ee87de9	0.45408562
49	0xbcd3b1ba	-0.025841583
50	0x3cfc869a	0.030825902
51	0xbce60984	-0.02808071
52	0xbb8d80be	-0.004318326
53	0xbba36c72	-0.004987293
54	0x3b885342	0.0041603157
55	0x3f9bc9b4	1.217093
56	0xbe1553a8	-0.14582694
57	0x3ccf56ea	0.025309999
58	0xbc5b30b6	-0.013378313
59	0x3d8c0099	0.068360515
60	0xbf3aa580	-0.7290878
61	0xbc31c5bc	-0.010850366
62	0x3f2b7c6f	0.66986746
63	0x3d25cb4d	0.040477086
64	0xbe383ed8	-0.17992723
65	0xba4b77ef	-0.0007761707
66	0x3d0952cb	0.033526223
67	0x3c60de90	0.013724938
68	0x3cebe4e8	0.028795674
69	0x3e00d6f0	0.12581992
70	0x3d1bc416	0.0380288
71	0x3f73010b	0.94923466
72	0x3c95014f	0.0181891
73	0x3cad1d9a	0.02113228
74	0xbc3ecd42	-0.011645617
75	0xbe997e6c	-0.29979265
76	0x3d67c99e	0.05658876
77	0xbe61d6c8	-0.22054589
78	0xbbe0e1e6	-0.0068628667
79	0x3f044c96	0.5167936
80	0xc020ab68	-2.5104618
81	0x3cac98f7	0.021069033
82	0xbc676bf8	-0.014124863
83	0xbd1d5e30	-0.038419902
84	0xbbc0e674	-0.005886847
85	0x3fe56a0d	1.7922989
86	0xbd64932c	-0.055804417
87	0xbc2bcffa	-0.010486597
88	0x3b660115	0.003509586
89	0xbd23cbb1	-0.039989177
90	0xba8321f0	-0.0010004621
91	0x3cc90343	0.024537688
92	0xbbc1269a	-0.0058944942
93	0x3b62ac17	0.0034587437
94	0x3ccb8230	0.024842352
95	0xc0eb360a	-7.3503466
96	0xbc9bd28a	-0.019021291
97	0xbd0c99d7	-0.0343264
98	0xbbc3a74f	-0.0059708725
99	0xbe4d8cb1	-0.20073201
100	0xbeccdf14	-0.40013945
101	0xbb3908b0	-0.0028233938
102	0x3f44499b	0.76674813
103	0xbc8fc0b3	-0.01754794
104	0xbccad920	-0.024761736
105	0xbc09118b	-0.008365999
106	0xbf67dd67	-0.9057221
107	0x3e9d64aa	0.30740863
108	0x3ba07964	0.0048972834
109	0x3fd3e89b	1.655536
110	0xbf9a3ae2	-1.204922
111	0xbf8231d6	-1.0171459
112	0x3f79292f	0.97328466
113	0x3cc23b8a	0.023710031
114	0x3cd78a75	0.026311139
115	0xbfb57bfc	-1.4178462
116	0xba1390c7	-0.00056291785
117	0xc0bd6e2e	-5.9196997
118	0x3c8aa6bd	0.01692521
119	0xbe671dc1	-0.22569944
120	0xbc9efd0e	-0.019407775
121	0xbc062381	-0.008187176
122	0x3f3f7637	0.74789757
123	0xbbdc6d74	-0.006726915
124	0x3c028ceb	0.007968168
125	0x3cb2c920	0.02182442
126	0xbac2c6d4	-0.0014860281
127	0xbbb2fe57	-0.0054624486
128	0x3ba6c226	0.0050890623
129	0xbc1bd1ce	-0.009510471
130	0x3c5f4ad5	0.013628681
131	0x3ccab7a8	0.024745777
132	0x3c15a778	0.009134166
133	0xbc8c88ab	-0.017155012
134	0x3c43146d	0.011906725
135	0x3c5234be	0.0128299575
136	0x3f06e6eb	0.526961
137	0xbc60a47c	-0.013711091
138	0x39c363c6	0.00037267635
139	0xbc62a7a1	-0.013833911
140	0xbf8ae577	-1.0851277
141	0xbc7438b9	-0.014906102
142	0xbba40d4d	-0.0050064684
143	0x3c057fec	0.008148175
144	0xbf9f2b4b	-1.2435087
145	0x400472a3	2.0694969
146	0x3cb7e0c3	0.022446042
147	0x3f9afd38	1.2108526
148	0x3e502fad	0.20330687
149	0x3c02cd8d	0.007983577
150	0x3f2017f7	0.6253657
151	0x3d406280	0.046968937
152	0x3c6064d7	0.013695917
153	0x3c177534	0.009244252
154	0x3ba51519	0.0050379154
155	0x3af91a52	0.0019005036
156	0xbf930661	-1.1486322
157	0x3ca79533	0.020456886
158	0x3d46b9e9	0.04851714
159	0xbc40ecbf	-0.011775195
160	0x3bf00ed3	0.007325986
161	0xbcd40d48	-0.02588524
162	0xba7cb6e1	-0.0009640288
163	0x3f85f504	1.0465398
164	0xbce5040f	-0.027956037
165	0xbdadfa9c	-0.084950656
166	0x3fa75814	1.3073754
167	0xbeb5b057	-0.354861
168	0x3c892582	0.016741518
169	0x3c463371	0.0120972255
170	0xbcb79a1f	-0.022412358
171	0x3f952f61	1.1655084
172	0xbccbc3e5	-0.024873683
173	0xbf08b12c	-0.5339534
174	0xbc5e7f9e	-0.013580231
175	0x3c6e8a6f	0.014559372
176	0xbb381d9a	-0.0028093816
177	0xc051843b	-3.2736957
178	0x3c7663dc	0.015038457
179	0x3fd3a3dd	1.6534382
180	0x3cfd432a	0.030915815
181	0x3bebaa14	0.0071919058
182	0xbf0f2494	-0.5591519
183	0x40cbf5c7	6.373752
184	0x3f3948ff	0.7237701
185	0x3c6b914e	0.014377905
186	0xbf0cd299	-0.55008847
187	0x3e14e099	0.14538802
188	0xbcb46d98	-0.022024915
189	0xbc35376a	-0.011060575
190	0x3f703ad0	0.9383974
191	0x3c48725f	0.012234299
192	0x3c416d8f	0.011805906
193	0x3bce7ca5	0.00630148
194	0x3d709720	0.058737874
195	0xc0051176	-2.0791907
196	0x3f1e600e	0.6186532
197	0xbb8cdb12	-0.004298576
198	0x3a62b402	0.0008648039
199	0x3f809df2	1.0048201
200	0xbf68e18d	-0.90969163
201	0x401cf14c	2.4522276
202	0x3c3334ab	0.01093785
203	0xbab254ae	-0.0013605559
204	0x3c13f85f	0.009031384
205	0x3ca68744	0.020328172
206	0xbd1e0bc5	-0.038585443
207	0xbcf2dbee	-0.029645886
208	0x3cb24e87	0.02176596
209	0xc00c7e85	-2.1952221
210	0xbb167fb3	-0.0022964298
211	0xbe9b82c6	-0.3037321
212	0x3c91ede8	0.017813638
213	0xbcbd24de	-0.023088869
214	0xc0155876	-2.3335242
215	0x3ef02b83	0.46908197
216	0xbe8c7ffb	-0.2744139
217	0xbfa82536	-1.3136356
218	0x3c046677	0.00808107
219	0x3c804ecc	0.015662573
220	0x3ff0999e	1.879688
221	0x3c1b5a40	0.0094819665
222	0xbcccfd42	-0.025023106
223	0x3c9375b4	0.018000461
224	0x3d2fbd0b	0.042904895
225	0x3f081d27	0.5316948
226	0xbf6a98d2	-0.91639435
227	0x3c801438	0.015634641
228	0xbf0fdd9b	-0.5619752
229	0x4048769d	3.1322396
230	0xbbd7ab49	-0.006581698
231	0xbc125af9	-0.008932822
232	0x3c836a9f	0.016042052
233	0xbd02da56	-0.031946503
234	0x3d426287	0.047457244
235	0xbc023b43	-0.007948699
236	0x3ebcdce4	0.36887276
237	0xbfd67783	-1.6755222
238	0x3c9e1945	0.019299159
239	0x3c24e243	0.010063711
240	0xba6c0003	-0.00090026873
241	0x3c80f71e	0.015742835
242	0x3b967fed	0.0045928867
243	0xbcb01af0	-0.02149722
244	0x3c903602	0.017603878
245	0xbd26c27b	-0.040712815
246	0x3d72c241	0.059267286
247	0x3b8a7bee	0.0042261994
248	0xbd90d824	-0.070724756
249	0xbd811714	-0.0630323
250	0xbb3763c9	-0.002798306
251	0xbc09f9a1	-0.008421333
252	0xbc0dc8a3	-0.008653793
253	0xbf3a0130	-0.7265806
254	0x3fe82426	1.8136032
255	0x3ffaca43	1.9592975
